models/saved_models/CNN_1D_1.pth (torch, 258908 bytes, 7 tensors)

conv1.weight f4 [32, 12, 1]
000000 be 69 b8 3d c4 23 63 bd 24 97 63 3e 61 6d 89 3e
       0.09004544 -0.05545403 0.22225624 0.26841262
000010 2b 83 14 be 80 06 6e bb 38 b4 cf 3d ef 67 46 bb
       -0.14503162 -0.0036319792 0.10141796 -0.0030274352
000020 f8 74 86 be c7 7a 5a 3e 2d e8 2b be d8 e0 86 3d
       -0.26261115 0.21335898 -0.16787787 0.06585854
000030 b4 dc 96 be 4e 09 2e 3e 98 0d 99 3e 9f d5 4c 3e
       -0.29465258 0.16995737 0.29893184 0.20003365
000040 30 17 a1 bc 67 cc d8 bd 18 c3 58 3d a4 5e c6 3b
       -0.019664377 -0.10585862 0.05292043 0.0060537625
000050 7a 23 25 be 5b 0e 5d 3d e3 a1 98 be 57 2b 06 bd
       -0.16126814 0.05396877 -0.2981101 -0.032756176
000060 02 c0 08 3e 52 3d 25 3e 2f a8 9d bd ae a5 95 3e
       0.13354495 0.16136673 -0.07698094 0.29227966
000070 b6 61 b7 bd 21 fa ef bc 0d 5a 88 3e fd 16 80 be
       -0.08954184 -0.029294075 0.26631203 -0.2501754
000080 ed 6b 5a be a2 34 a3 3d 24 56 ec 3d aa 8c c8 3d
       -0.21330233 0.07969023 0.115398675 0.097924545
000090 36 4d 2a 3d 6c 22 b0 3c 4b e2 25 be b8 30 9c bd
       0.04157754 0.021500789 -0.16199605 -0.0762648
0000a0 d1 5f 96 be bb c7 28 3e 28 73 3a 3d 8d 22 93 be
       -0.29369977 0.16482441 0.045519978 -0.28737298
0000b0 bc 3f cf bd ee 35 0a be 39 9b e6 bd db a4 6b 3e
       -0.10119578 -0.13497135 -0.11260075 0.23012106
0000c0 d9 67 0a be 7a 1c 7c be da 3f 08 3e 13 39 05 3e
       -0.13516177 -0.24620238 0.13305607 0.13010053
0000d0 08 f1 3a be 73 02 55 be 25 68 84 be 27 05 87 be
       -0.18256009 -0.20801716 -0.25860706 -0.26371118
0000e0 c8 18 28 3e c3 42 86 3d 5f 2b 7c 3d c1 76 78 3d
       0.16415703 0.065557025 0.0615648 0.060660128
0000f0 18 f0 82 3e 73 4c 83 bd 15 f7 4a 3e 32 98 e3 bd
       0.25573802 -0.06411066 0.19820817 -0.11113013
000100 ef 9d a6 bd 24 20 15 3e 5b 41 2d be 09 82 8b be
       -0.08135592 0.14563042 -0.16919462 -0.27247646
000110 9a 04 06 be 88 75 48 3e 97 11 47 3e 26 ae df ba
       -0.13087693 0.19576085 0.19440304 -0.001706545
000120 f0 da e5 3d 5b 8d 0c bc 31 a9 1a be c1 07 55 be
       0.112234 -0.008578624 -0.15103604 -0.20803739
000130 79 ff ec bd c4 16 44 3e d9 d4 91 be 98 e9 13 3e
       -0.11572165 0.1914931 -0.28482702 0.14444578
000140 d1 0e 92 be 31 52 e7 bb c2 72 4e be 9f a9 28 be
       -0.2852693 -0.0070593585 -0.20160964 -0.16470955
000150 4c 3e da bd e7 73 77 3e 3d 9d 73 3e a8 ca 2f be
       -0.106564134 0.24165307 0.2379045 -0.17167151
000160 a3 06 0b 3d 20 2b 95 be 11 a0 3a be 60 4e 03 be
       0.033941876 -0.29134464 -0.18225123 -0.12822866
000170 f7 74 71 3d 3c 46 10 3e fe 61 9c 3e 02 dd 0c 3e
       0.058949437 0.14089292 0.30543512 0.13756183
000180 18 2f 9b bb 43 e1 86 be 53 be 05 be 6b 37 2a 3e
       -0.0047358386 -0.26343736 -0.13060884 0.16622703
000190 af c8 83 3e 01 19 61 3e 9a 4e 32 3e e3 85 76 be
       0.25739047 0.21982194 0.17412797 -0.24074511
0001a0 67 1a a2 3d 9b b0 13 3e 7f 91 29 3d 87 f9 1d 3d
       0.07915192 0.14422838 0.04139852 0.038568046
0001b0 00 09 87 3e a0 6d 43 3d b0 b6 83 be 41 b6 b9 3d
       0.26374054 0.04771197 -0.25725317 0.09067965
0001c0 90 51 2a 3e f4 04 0b be 79 67 04 3e f7 af d1 3d
       0.16632676 -0.13576108 0.12930097 0.10238641
0001d0 21 6c 63 3e e5 7e 75 be 0e ee 6f bc d3 aa 8b 3e
       0.22209217 -0.23974188 -0.014644159 0.27278766
0001e0 54 8a da bb 6b 4f 7e be fb b7 8e be 6b 90 a1 be
       -0.006669322 -0.24834983 -0.2787474 -0.31555495
0001f0 6b db 68 be 25 ac 98 3d cc 54 14 3e 46 c8 4b 3d
       -0.22739951 0.07454709 0.14485472 0.049751543
000200 8a c3 fc bc 5b 02 9b 3e c9 af 66 3c 54 72 85 be
       -0.030854959 0.30275235 0.014079996 -0.26063788
000210 a7 c9 f8 3d a8 19 94 3e e2 77 12 bd 9b 26 40 be
       0.12147837 0.28925824 -0.03575886 -0.18764727
000220 01 68 24 be 1f 6e 8b 3e 95 7b f6 3d 01 e6 69 3e
       -0.160553 0.27232453 0.1203529 0.22841646
000230 8e ad 73 be e9 df 5d be 52 aa 13 3b 25 52 89 bc
       -0.23796675 -0.21667446 0.0022531939 -0.016762802
000240 0d fa 2f 3e f0 da c1 bd d9 49 20 be 27 ad f8 bd
       0.1718523 -0.09465587 -0.1565317 -0.12142401
000250 d1 85 4e 3e 8c d8 a7 bc de 60 92 3e 44 21 9b be
       0.20168234 -0.020489 0.2858953 -0.30298817
000260 1f c2 ca 3c e2 64 f9 bd 19 46 37 3e 0a 5a 87 bd
       0.024750767 -0.12177445 0.17897834 -0.066089705
000270 00 02 46 be a2 86 76 be 35 65 15 3e af b9 8c bd
       -0.193367 -0.24074796 0.14589389 -0.06871354
000280 61 fe 89 3e 09 b3 80 be 0e 5e 45 3e 1c 6b 07 be
       0.26951888 -0.25136593 0.1927416 -0.13224453
000290 43 39 87 bd 91 e1 8a be c5 80 6c 3e 0f 7b eb 3c
       -0.06602719 -0.2712522 0.23095997 0.028745202
0002a0 39 2c 34 3d 63 28 f0 3c ce 20 a7 bd f2 61 36 3e
       0.043987487 0.029316133 -0.08160554 0.178108
0002b0 26 f9 6f 3e 1e b2 05 3e 6f 1b 96 3d 09 2e 00 3e
       0.23434886 0.13056228 0.07329451 0.12517561
0002c0 28 80 27 3e de c0 95 3d a9 65 92 3d 66 fe 72 bd
       0.16357481 0.07312177 0.071482964 -0.059324645
0002d0 6b 75 80 be cc 77 29 be 37 6c 0c be ce c1 8e bd
       -0.25089583 -0.16549605 -0.13713156 -0.06970559
0002e0 1b cb 1b 3e 0e e2 92 3e 26 13 ad bd 17 61 c2 3b
       0.15214197 0.2868809 -0.08450918 0.005931984
0002f0 cc 87 54 be e3 cd 6b be 07 04 79 3e 8a 66 47 be
       -0.20754927 -0.23027758 0.24317943 -0.1947271
000300 62 4d 55 3e 4c c9 33 be d0 80 05 3d d8 d0 f5 3d
       0.208303 -0.17557257 0.03259355 0.120027244
000310 4d 13 84 3e 82 53 37 ba e8 8b e9 bc 9d 9a 82 3e
       0.25795975 -0.00069933396 -0.028509095 0.25508586
000320 2f 02 0a 3e af ba 29 3e 06 4a 1a 3e ed 37 93 bc
       0.13477395 0.1657512 0.150673 -0.017971003
000330 16 8c 7c 3e 6f 63 e8 bc ce 83 f6 bd 68 4a 84 be
       0.24662814 -0.028367726 -0.120368585 -0.25838017
000340 0c 2b 5b 3d 78 12 56 be ea c3 b6 3d 7a bf cb bd
       0.05350785 -0.20905483 0.089240864 -0.09948631
000350 1c 63 f3 3d c6 bd 2d be 62 8b 09 3e 28 57 65 3e
       0.11884138 -0.16966924 0.13432077 0.22396529
000360 72 8f 30 3e 8a 52 76 bb 0d 51 a6 bd da 5c 8d 3e
       0.1724222 -0.0037585818 -0.08120928 0.27609903
000370 08 74 60 3e 00 17 1b 3e eb 3b 22 3e d1 b5 6c 3e
       0.21919262 0.15145493 0.1584317 0.23116232
000380 3a 15 55 3b 14 83 5c 3e 58 ef 10 be c1 b6 90 3e
       0.0032513873 0.21534377 -0.14153802 0.2826443
000390 c1 81 03 be 9b 37 85 3e 05 37 17 3e 47 5c 64 be
       -0.12842466 0.26018986 0.14767082 -0.22300826
0003a0 e8 2a 87 be e7 01 00 3e ea c0 b0 be a2 0c 73 bd
       -0.26399922 0.12500726 -0.34522182 -0.05933822
0003b0 0b ca 5d bd 3d 02 04 3e b2 8f ac bd 2d 51 f6 bd
       -0.05414776 0.12891479 -0.08425845 -0.12027202
0003c0 e8 82 36 3d 4a ae d0 3d e4 61 52 3e 1a 1f 02 3e
       0.044558436 0.10189493 0.20545155 0.12707177
0003d0 d5 43 4c 3e 80 38 c2 3d 00 7b 46 3e dc 8f f8 bd
       0.19947751 0.09483433 0.19382858 -0.12136814
0003e0 dc 1d 90 3d ca 70 89 be e2 94 e0 bd d0 7b d0 bb
       0.07036945 -0.26843864 -0.10965897 -0.006362416
0003f0 81 96 8a 3d b4 9b 8f bc 89 10 96 be d9 12 56 3e
       0.067669876 -0.0175303 -0.2930949 0.20905627

conv1.bias f4 [32]
000000 1f 51 86 be ef d7 35 be 68 87 03 3e 13 e5 9c be
       -0.26233765 -0.17758153 0.12844622 -0.3064352
000010 cd 52 f2 3d 40 fa 7b 3e 12 1b 1a 3e 13 08 63 3d
       0.11832199 0.24607182 0.15049389 0.055427622
000020 71 bb 8a bc b2 57 3e 3a db bf 7c 3e 89 0c d1 bb
       -0.016935082 0.00072609924 0.24682562 -0.006379668
000030 ae d4 01 3e f6 29 1f 3e ea 5a 0e bd a7 24 06 bc
       0.12678787 0.1554335 -0.03475467 -0.00818745
000040 38 f6 29 be c6 24 30 bd 3a 6f 34 3e 53 4e b1 bd
       -0.16597831 -0.04300382 0.17620555 -0.08657517
000050 9c 31 a8 3d 15 d9 bb 3c e0 59 ab 3d 43 e4 0b ba
       0.08212587 0.022930661 0.08366752 -0.0005336443
000060 9c 05 34 be 93 3c 30 3d 81 63 88 bd 92 85 a3 bd
       -0.17580265 0.043026518 -0.06659604 -0.07984461
000070 09 73 31 3e 3c 63 90 bd 3f a4 98 3d 41 6e 82 3d
       0.17329039 -0.070501775 0.074532025 0.063686855

conv2.weight f4 [64, 32, 1]
000000 8e 4b ec 3d 54 ad 6d 3d 92 24 28 be c6 e6 22 bd
       0.115378484 0.058026627 -0.164202 -0.039770864
000010 c3 2b aa bd e7 5f 09 3e 03 f8 34 be d8 af 14 3d
       -0.08309128 0.1341549 -0.17672734 0.03630051
000020 17 63 07 3c c6 69 c5 3d 46 dd 0c be 63 c7 18 3d
       0.008263371 0.09639315 -0.13756284 0.037299525
000030 28 27 d5 bd 7a ad 70 3d 69 e5 ae 3c 7c be b4 bd
       -0.10407859 0.05875919 0.021349626 -0.088253945
000040 a5 f0 2e 3d f0 6b ae bd 95 35 6b 3d b0 55 dc 3d
       0.042709965 -0.08516681 0.057424147 0.10758531
000050 9d 75 82 3d 71 60 43 bc ab 73 48 be a4 93 fc 3d
       0.06370089 -0.011924849 -0.19575374 0.12332848
000060 5a bd 3c bd bc 36 2b 3d 5e b9 92 3c 44 21 21 3e
       -0.046079017 0.041800246 0.017910656 0.15735346
000070 fa c8 3b 3d 19 db 20 3e dc 95 08 3d cf 09 8c 3d
       0.045845963 0.15708579 0.033346042 0.06837808
000080 79 dc c4 3d 41 bd 01 be cc 4e 7e 3d 11 6f ac 3d
       0.09612364 -0.12669851 0.062086865 0.08419622
000090 01 c8 30 be c0 31 f6 bc 4e 91 cf 3d 27 f7 2d bc
       -0.17263795 -0.03005302 0.101351365 -0.010618008
0000a0 ca 0e e9 bb 40 bf 9e 3d cd e5 75 bd ac 02 8b 3d
       -0.0071123587 0.07751322 -0.06003361 0.06787619
0000b0 d4 50 c2 3a 84 5f 0d 3e 4d 2b 0a be 08 ee e7 3d
       0.0014825114 0.13805968 -0.1349308 0.11324698
0000c0 39 17 7b 3d e0 3b 9c 3d 4b 5a 71 3d 92 4b 27 3e
       0.061301444 0.07628608 0.058924 0.16337422
0000d0 83 73 cd 3d ea 0d 10 3c f8 fc 0b 3e ac 3e 83 bc
       0.10031798 0.00879238 0.13670719 -0.016021095
0000e0 36 50 e2 bd 28 4e 29 3e 72 1b 99 bd e8 8b e1 bd
       -0.11050455 0.1653372 -0.07475938 -0.11013013
0000f0 fe fc 72 bd bb dd 62 3b 08 fe c5 3d ea ee 3b 3e
       -0.059323303 0.0034617025 0.09667593 0.18352857
000100 3d 7f 1f 3d 13 46 07 3e 4b 7e f8 bd ce 74 4f bc
       0.038939703 0.13210325 -0.121334635 -0.012662126
000110 15 fd 04 bd 23 5e 90 bd d0 38 16 3e 58 44 a3 bd
       -0.03246792 -0.07049205 0.1467011 -0.0797202
000120 26 c8 de 3d e5 3c 93 3c 93 25 b2 3c 49 ba f1 3a
       0.10878019 0.017973373 0.021746432 0.0018442358
000130 c0 71 8b bd df ad 37 3e da 61 37 be a7 10 4e 3d
       -0.068088055 0.1793742 -0.17908421 0.05030885
000140 39 57 bb ba 4b b3 fa 3d 64 0a 2d be 7e 38 31 3e
       -0.0014292962 0.12241229 -0.16898495 0.17306706
000150 9a 91 db 3b b6 5f 4f 3d 4b c3 af bc 0c 42 26 3e
       0.0067007067 0.050628386 -0.021455428 0.16236132
000160 e5 bf ca bd 2d 8c 12 bd 91 45 e3 3c 7d ec d3 3c
       -0.09899882 -0.035778213 0.027743133 0.025869602
000170 26 08 29 3e 4b df be bd 58 41 0b be 02 8a 18 be
       0.16507015 -0.093199335 -0.13599145 -0.14896396
000180 3f 57 c7 bd a0 e1 03 be f4 2b 27 bc 06 82 90 3c
       -0.09733438 -0.12879038 -0.01020335 0.017640125
000190 82 3c 36 3e f0 d7 e2 3d 55 02 17 be ee 7a 0e bd
       0.1779652 0.11076343 -0.14746983 -0.034785204
0001a0 4e 2f 77 bd 9a 27 f9 3d f8 e8 00 3e af 7b 4c 3d
       -0.060347848 0.121657565 0.1258887 0.04992264
0001b0 c7 f6 28 3d b3 52 0a 3d ed 5b f6 bc f3 1e a9 3c
       0.04125097 0.033770274 -0.03007313 0.02064464
0001c0 1c 22 c1 bd fa be 6d 3d ad 37 a1 bd be c5 52 3d
       -0.09430334 0.058043458 -0.078719474 0.051458113
0001d0 7d 68 f8 bd 72 82 43 3e d5 bc c9 3d de 34 38 3d
       -0.121293046 0.1909273 0.0985047 0.044972293
0001e0 a7 97 c5 3c 0a 33 0c be e3 bb 58 bd ab 9e 43 3e
       0.024120165 -0.13691345 -0.052913558 0.19103496
0001f0 8f 45 17 be 05 96 5f bc 07 cb 00 be 66 65 14 be
       -0.14772628 -0.013646607 -0.12577449 -0.14491805
000200 b2 a3 10 be c8 04 70 3d 4c fe 19 3d b4 ee 46 bb
       -0.14124945 0.05859831 0.037596032 -0.003035468
000210 ba b0 7c 3c aa ac be bd fb f7 b9 bc 82 30 18 be
       0.015422994 -0.09310277 -0.022701254 -0.14862254
000220 db 92 29 be d2 d6 df bd f3 c6 1b 3e f2 5e 6d bc
       -0.16559927 -0.109296456 0.15212612 -0.014487969
000230 36 8d 11 be 97 43 23 3e 23 41 4d 3d 35 d9 41 be
       -0.14214024 0.15943752 0.050110947 -0.18930514
000240 d3 14 b9 bd 62 bf 24 be c1 68 0c bd 56 d5 11 3e
       -0.09037175 -0.16088632 -0.03427959 0.14241537
000250 dc 6d c7 bd aa 4e 62 3d 1a 1c 80 bd fd 81 2c be
       -0.09737751 0.0552508 -0.0625536 -0.16846462
000260 13 5f ff bd 4a 51 ab bd ee 33 87 3c 93 78 10 bd
       -0.12469306 -0.08365114 0.016504254 -0.03527124
000270 2d 7d ad bd 5e 34 ad bd 95 48 b0 bd 41 ee 61 3b
       -0.08471141 -0.08457254 -0.08607594 0.0034474286
000280 4b 04 ce bd 61 ed 1f 3e 84 c0 25 3e 87 81 f8 bd
       -0.100594126 0.15617897 0.1618672 -0.121340804
000290 78 55 c2 bd 09 24 20 be f9 8a e7 3d 37 3c 1f be
       -0.09488958 -0.15638746 0.11305804 -0.15550314
0002a0 9a a2 d3 bc eb 41 c4 bd 6d 71 4b 3d 14 a5 e1 bd
       -0.02583437 -0.09582885 0.049668718 -0.11017814
0002b0 70 8f f4 3d ee 95 4e 3d 68 52 48 3e cb 86 99 3d
       0.11941421 0.050435953 0.19562685 0.07496413
0002c0 ef 52 11 3e f3 39 0e be 3b 4a aa bd a0 d6 31 be
       0.14191793 -0.13889293 -0.083149396 -0.17367029
0002d0 ad 61 77 bd 11 fc 01 3d e5 b9 22 be c4 b2 26 bd
       -0.060395885 0.03173453 -0.15891226 -0.040697828
0002e0 24 04 36 bd d2 8a f7 b9 60 fd 19 3e 85 36 cb 3d
       -0.044437543 -0.0004721494 0.15038061 0.09922508
0002f0 43 d1 2e be fd 7c 46 3e 9f 2c 2d be d0 72 1b bc
       -0.17072015 0.19383617 -0.16911553 -0.009487823
000300 7c 68 1a be f9 f0 22 bc 42 e3 89 3d a3 b5 42 bd
       -0.1507892 -0.009945148 0.06732799 -0.047536504
000310 f3 96 37 be 49 10 22 bc 5d 53 a1 3d 50 fb 1c 3e
       -0.17928676 -0.009891578 0.078772284 0.15330243
000320 50 13 fc bd df 42 be 3d f7 ff 83 bd 7d 97 e5 3d
       -0.12308371 0.092900984 -0.06445306 0.11210535
000330 78 a3 9b bd 59 1c ae bd 98 d7 ea bd 14 15 36 3e
       -0.075995386 -0.08501501 -0.114669025 0.17781478
000340 85 1e 53 bd 28 b0 3c bc f3 dd b8 3d 33 5a 1b 3e
       -0.051542778 -0.011516608 0.090267085 0.15171127
000350 19 41 45 3c 1b 30 52 be c2 b9 85 3c ef 8e ac 3c
       0.012039446 -0.20526163 0.016323928 0.02106425
000360 b0 4f c2 3d d9 2e 48 3d 02 ef 19 3d ed aa 2c 3e
       0.094878554 0.048872802 0.03758145 0.16862078
000370 a6 1f 30 3e fe 15 14 3e a2 b5 0e bd da d5 38 bd
       0.17199573 0.14461514 -0.034841187 -0.04512582
000380 2c 3a fa bd f9 55 8f 3b 6b 5d 2c be a5 52 86 3d
       -0.12218127 0.0043742624 -0.16832511 0.06558732
000390 be df 9d bd f8 22 ff 3d b2 b3 85 3d e1 c8 2c be
       -0.07708691 0.12457842 0.06528415 -0.16873504
0003a0 7b c7 1c 3e 08 d0 e2 3d 30 d1 a1 bc e9 a3 e1 bd
       0.15310471 0.11074835 -0.019753069 -0.110175915
0003b0 13 73 06 3e 14 75 10 be d8 be 85 3d bf 07 41 be
       0.13129835 -0.14107162 0.06530541 -0.18850611
0003c0 5b f0 eb 3d b9 47 33 3e c7 f1 0a be 0d 1b 33 3e
       0.115204535 0.17507829 -0.13568793 0.17490788
0003d0 42 6c e5 bc 0e b9 64 bc f5 06 13 3e ac 8c 8d 3d
       -0.028005723 -0.013960136 0.14358123 0.06911597
0003e0 1b 94 0f be ec 94 07 bc a9 ea ed 3c db 53 d9 3d
       -0.14021342 -0.008275252 0.029042559 0.10611697
0003f0 3a 9e 0e 3d df f3 8b bd 4f 07 ba 3b a2 33 12 3e
       0.034818865 -0.06833624 0.005677141 0.14277509

conv2.bias f4 [64]
000000 ce 97 71 3d 6a 07 4d 3b a1 cc 14 3e 0c 55 0b bc
       0.058982663 0.0031284937 0.14531185 -0.0085041635
000010 42 15 dd 3d 88 6f b8 3d 63 43 b1 3d ec ee a6 3d
       0.1079507 0.09005648 0.08655431 0.081510395
000020 54 af a4 3d 13 a8 a2 bd 6f 8a 14 be 67 ff b5 bd
       0.08041254 -0.07942214 -0.14505933 -0.08886605
000030 56 f6 1f 3e f2 c3 03 3e 0c 82 c0 bc 88 13 0c be
       0.15621313 0.12867716 -0.023499511 -0.13679326
000040 72 d4 89 bd ee 47 0b 3e 99 a1 9d 3d 09 4f 0b be
       -0.06729974 0.13601658 0.07696838 -0.13604368
000050 a3 cf c5 bd c4 04 8d 3d 10 ec 0a be e1 cf d9 3c
       -0.09658744 0.068856746 -0.13566613 0.026588382
000060 9d c4 17 bc 9a 8c c6 3d d7 66 b4 bd b4 b8 2c be
       -0.009263185 0.09694786 -0.08808678 -0.16867334
000070 40 77 a1 3c cb 06 76 bd 15 f8 80 3d ab 6d 9a 3d
       0.019710183 -0.060065072 0.06297318 0.07540449
000080 00 a0 57 bd bc 36 ee bd ba 28 a2 bd e0 96 35 bc
       -0.052642822 -0.116315335 -0.07917924 -0.011083335
000090 67 b8 ca bd 71 3e 94 3c 16 1d 15 bd 16 79 03 be
       -0.09898453 0.01809618 -0.03640469 -0.1283916
0000a0 23 62 62 3c 78 d2 05 3e 7f fa 16 3e 6f 56 a9 3b
       0.013817343 0.13068569 0.14743994 0.0051677744
0000b0 c0 a0 29 be 57 d6 d5 bd 3d 84 90 3c b8 c1 51 3d
       -0.16565228 -0.10441273 0.017641181 0.051210135
0000c0 73 18 63 3d ac 5b 02 be e8 c7 36 be 53 46 0e 3e
       0.05544324 -0.12730283 -0.17849696 0.13894014
0000d0 54 24 11 bc 71 13 21 bd af 95 f3 3d 9f ca 1e 3e
       -0.008858759 -0.03932518 0.11893784 0.15506981
0000e0 5b 4a b8 3d cc a7 49 bd 62 43 92 3d 37 50 76 3d
       0.08998557 -0.04923229 0.071417585 0.060135093
0000f0 37 45 99 3d 0f 27 3c 3e c8 e9 1b be 34 8e af bd
       0.07483905 0.18374275 -0.15225899 -0.08572045

fc1.weight f4 [32, 1920]
000000 94 98 45 bc f6 a0 76 3b c8 8e 05 ba 5a 0b 9a bc
       -0.012060303 0.0037632561 -0.00050948234 -0.018804241
000010 c6 38 de bb f7 6b 06 bc e8 8d a1 bb f2 9d 44 3c
       -0.0067816703 -0.008204452 -0.0049302466 0.012000548
000020 b8 84 af 3c 24 e6 16 bb 21 f0 37 3a a3 03 c1 3c
       0.02142559 -0.0023025358 0.0007016678 0.023561304
000030 47 72 bf 3c cf 12 49 3c fa d0 45 bc 26 8b bf bc
       0.023369921 0.012272551 -0.01207375 -0.02338178
000040 40 4a 1d 3c 46 ce d0 bc 20 1a e5 bc 4d b4 b4 3b
       0.009600222 -0.025488984 -0.027966559 0.0055146576
000050 2f 99 da bc 9e 80 54 bb a2 40 1c bc f6 63 b0 bc
       -0.026684372 -0.0032425295 -0.009536894 -0.02153204
000060 87 bb b1 3c cd 68 84 bb f8 37 f4 3a 4e 35 b5 bc
       0.021695865 -0.0040408135 0.0018632403 -0.022120144
000070 eb c2 08 3c 88 2c c5 3c fe fc e4 3b 05 12 c3 3c
       0.008347253 0.024069086 0.006988167 0.023812303
000080 3e 41 9d 3b 98 26 44 3c 8f e4 fe 3b 85 4d c4 3c
       0.0047990372 0.011972092 0.007778711 0.023962745
000090 04 25 d3 3c a3 cf ab bc 78 ff d9 bc 84 ac 59 3b
       0.025774486 -0.020973032 -0.026611075 0.00332144
0000a0 8e 67 5a bc 4e 7e cd 3b bf 03 24 bc 36 97 e6 3c
       -0.013330353 0.00627116 -0.010010659 0.028148275
0000b0 99 da 09 3c 0b 5d a8 bb 63 18 37 bc e1 65 24 bb
       0.008413934 -0.0051380447 -0.011175248 -0.0025085139
0000c0 93 e7 96 3c 0d 77 ad 3c 8c 4b 11 bc 3f 80 46 bb
       0.01842097 0.021174932 -0.008868109 -0.0030288843
0000d0 90 af 8c 3b c9 e4 85 3c 03 87 c8 3c c2 d6 73 39
       0.0042933896 0.016344445 0.024478441 0.0002325429
0000e0 b7 ed 71 bc 0b fe 09 3c 73 e5 a3 bc 60 b6 97 bc
       -0.014766148 0.008422385 -0.02000687 -0.01851958
0000f0 f2 a9 74 bc ed 4a 32 bb 34 5d b8 bc 32 fd ed 3c
       -0.014933096 -0.0027205304 -0.02250538 0.029051397
000100 8e 3e 50 3a 26 39 c9 3c e9 53 cb 3c f6 ba 3d 3d
       0.00079438917 0.024563383 0.024820285 0.046320878
000110 e0 97 1c 3c f5 7b 2c 3d 7f 03 dc 3c 6c 95 8c 3c
       0.009557694 0.042110402 0.026857136 0.017161094
000120 e4 fb b4 bb a5 12 a5 bc cf cd 71 3c e5 0f 84 3d
       -0.0055231918 -0.020150492 0.014758541 0.06448344
000130 d0 7c 13 3d 17 22 d0 3c 4c 0d e0 3b 43 f0 8d 3c
       0.036007702 0.02540688 0.0068375226 0.01732648
000140 f8 67 9f bb aa 52 8a 3c dc 3b d9 3c cd 9a b2 3c
       -0.004864689 0.01688512 0.026517801 0.02180233
000150 e5 ef 07 3d 6e ab 97 3d 25 e3 69 3d 93 13 1c 3d
       0.033187766 0.074057445 0.057101388 0.038104605
000160 01 14 b3 3c 95 bd 60 3c 28 1e f4 bb 65 8e 1b bc
       0.021860125 0.013717075 -0.007449884 -0.009494399
000170 d5 6c 3f bb 74 d7 1c 3c 74 ac bd bc 54 f5 5e bc
       -0.0029209156 0.009572852 -0.023153521 -0.0136082955
000180 77 55 ec bc e5 3b b4 bc 56 07 9e bb da 79 96 39
       -0.028849347 -0.022001216 -0.004822652 0.00028701016
000190 f2 17 05 3d 5d d6 cc 3c 3d 9e a5 3c 38 7d ad ba
       0.03249354 0.02500456 0.020217055 -0.0013236171
0001a0 29 bd 4d 3c 08 a5 8b 3b b1 6b 56 bc 55 38 10 bb
       0.012557306 0.0042616166 -0.013087199 -0.0022006233
0001b0 04 e2 3d 3c 38 cc 6c bd 24 ce be bc 74 9f 3f 3c
       0.011589531 -0.057811946 -0.023291655 0.011695731
0001c0 7c 89 0b 3c 19 47 06 3d 3e 7e 45 bb 61 23 6b bb
       0.008516666 0.032782648 -0.003013506 -0.0035879242
0001d0 d6 a8 7a bc b1 31 c3 bc 04 f6 93 bc ac 54 1b bd
       -0.015299043 -0.023827406 -0.018061645 -0.037922546
0001e0 af 27 94 bc 56 8c 7b 3c 3c e9 01 bc 28 72 58 bc
       -0.018085329 0.015353283 -0.007929143 -0.013210811
0001f0 06 9a 1c bd ad 08 04 bc 8b d0 8b bb 90 55 ad 3b
       -0.038232826 -0.008058709 -0.0042668036 0.005289741
000200 ea ac 21 3b 95 29 86 bc 21 53 61 bc de cb 8d 3c
       0.0024669715 -0.01637725 -0.01375273 0.017309126
000210 83 c7 fc 3b ba 4e 8a 3c 1b 2e 06 3d 14 0e 3b 3b
       0.0077142133 0.016883243 0.032758813 0.0028542327
000220 11 3d 17 3d 6d 1f 27 3d 05 7c cc 3c 09 30 87 3b
       0.03692347 0.040801454 0.02496148 0.0041255993
000230 be 12 b6 3c 13 a4 97 3c 38 a0 06 bc fc 01 46 bc
       0.022225734 0.018510854 -0.00821691 -0.012085434
000240 f6 3d a4 3c 38 9e 48 3d 6d 78 79 3d 05 91 33 3d
       0.020049077 0.048979014 0.060905863 0.043839473
000250 fe 42 bd bc 6c a7 a0 bc 76 c9 94 bd dd ef 1e bd
       -0.023103233 -0.019611083 -0.07264988 -0.03880297
000260 33 37 31 bd e3 2c 26 bd b8 3d 15 bd 79 4e 68 bc
       -0.043265533 -0.04057015 -0.036435813 -0.014178866
000270 7e 59 c7 bb 4e 09 8c 3c f6 c8 1d 3c cd b4 0d bd
       -0.0060836663 0.01709428 0.009630432 -0.034596253
000280 a1 5e 34 3b f4 d4 21 bc ef f7 24 bd b8 da 66 bd
       0.0027522224 -0.009877432 -0.04027551 -0.05636093
000290 9c 23 98 bd d9 4a 3f bd c1 36 cf bc 99 e2 23 bd
       -0.07428667 -0.04670224 -0.025294663 -0.040011022
0002a0 8b 37 7f bd 86 b1 12 bd 26 9f 01 bd 8b 19 bd bc
       -0.06230883 -0.03581383 -0.031645916 -0.023083469
0002b0 f5 09 4b bd 4a ca 6c bd 8f 69 63 bc 3b c0 89 ba
       -0.049570043 -0.057810105 -0.013880148 -0.001050956
0002c0 73 c7 40 bc 9f 88 03 3b 33 68 87 bb bb c4 4c 3a
       -0.011766302 0.0020070446 -0.0041322946 0.00078112975
0002d0 a9 12 b7 bc fb 82 a1 bc 89 2c 0e 3c 81 3e b3 bc
       -0.022347765 -0.019715777 0.00867761 -0.02188039
0002e0 14 ec cc bb e9 5c 3e 3c 83 cf 91 ba 46 0f 2c 3c
       -0.0062537286 0.011618831 -0.0011124465 0.010501688
0002f0 a6 2a 27 3c 60 57 80 3c e9 c3 70 3c fc 65 97 38
       0.010203039 0.015666664 0.014695146 7.219237e-05
000300 9f 7c bf bb b5 4a c8 bb 7a b2 d7 bc de 76 86 3c
       -0.0058437134 -0.0061124214 -0.026330221 0.016414102
000310 36 cc 30 3d f1 02 29 3d 4b 27 b5 3b 21 98 0f 3c
       0.0431635 0.04126257 0.0055283657 0.008764298
000320 28 43 59 bb 48 c8 c6 bb ee fe c0 3b 53 13 5e 3b
       -0.00331516 -0.006066356 0.005889765 0.003388603
000330 f1 26 1e 3c c2 db f8 bb b2 17 b1 3c 06 c9 eb 3c
       0.009652839 -0.0075945565 0.021617744 0.028782379
000340 ca 99 95 3c 45 1c 3d 3d 8c 45 f1 3c 40 67 b4 bb
       0.018261809 0.046169538 0.029452108 -0.0055054724
000350 83 35 0e 3d 9f 0d f3 3c 23 3a 91 3c b5 1a dd 3c
       0.034719 0.029669581 0.017727917 0.026990274
000360 2b 8f 45 3d e9 0c a4 3c 39 6b 84 ba c1 e7 8d 3b
       0.04823224 0.020025687 -0.0010102756 0.0043306057
000370 33 fc 31 3d 4f 8e 14 3c 26 5a a3 3c 4c ff 04 3d
       0.043453407 0.009067132 0.019940447 0.032470033
000380 01 ec 34 3d e5 6d b2 3c a2 00 a5 3b 23 a9 a7 3b
       0.044170383 0.021780917 0.005035476 0.005116598
000390 34 f5 34 bc 07 74 68 3c e7 99 81 bc 58 b2 35 3c
       -0.011044789 0.014187819 -0.015820457 0.011089884
0003a0 6f c2 09 bc 7f 17 00 3d 84 5c 83 3c 8d f2 66 3a
       -0.008408173 0.031272408 0.016035326 0.00088099466
0003b0 46 34 fa bb 45 71 bb b9 80 c2 12 bd 32 b2 4e bd
       -0.007635626 -0.00035751812 -0.03583002 -0.05046291
0003c0 82 69 e7 3c 77 36 18 3d 73 e4 cc 3c bf f9 9f 3c
       0.028248552 0.037161317 0.025011277 0.019528268
0003d0 28 9b d8 3c c4 72 ad 3c 07 90 12 3d eb e2 41 bb
       0.026441172 0.021172889 0.035781886 -0.0029584717
0003e0 b6 50 b7 bc b2 c0 bf 3b d7 37 c3 3c 35 aa f3 3c
       -0.022377353 0.0058518285 0.023830337 0.029744247
0003f0 34 f4 3f bc 7b 33 2b bc 57 a0 e7 3c e1 f7 7c 3c
       -0.011715937 -0.010449286 0.028274698 0.015439958

fc1.bias f4 [32]
000000 7a d3 0e bc 1d 0b eb 3b 17 7f 1c bb 93 5c 7d ba
       -0.008717412 0.0071729557 -0.0023879462 -0.0009664979
000010 fc 66 c3 bb dc 1e 1c bc 23 68 1b bb b2 49 0b 3d
       -0.0059632044 -0.009528842 -0.0023713193 0.03400583
000020 16 67 7f bc a9 d3 36 bc 3a 46 41 3c d0 a0 01 3d
       -0.015588542 -0.011158862 0.0117965285 0.031647503
000030 47 8e ab ba 9b d6 c4 bb 09 6c d1 bc 47 b9 77 bc
       -0.0013088667 -0.0060070283 -0.02556421 -0.015119857
000040 ca 63 f3 b9 23 3d 18 bc 2f 57 26 bc 55 4d 5f 3c
       -0.0004642292 -0.00929192 -0.010152622 0.013629277
000050 d7 94 92 3c 60 36 9b 3b f3 ca b6 bc b0 4a cf bc
       0.017893238 0.0047367066 -0.02231357 -0.025304168
000060 92 c7 70 3c cd 12 b2 bc 05 ac ea bc 45 61 03 3b
       0.014696019 -0.02173748 -0.028646478 0.002004699
000070 e9 06 52 bc 30 e6 54 3c ba 0f b8 3c aa 14 7a 3c
       -0.01281903 0.012994334 0.022468437 0.015263716

fc2.weight f4 [1, 32]
000000 78 73 6d bd c3 50 19 be b4 b3 1a 3e 94 2d 4b 3e
       -0.057971448 -0.14972214 0.15107614 0.19841605
000010 f9 9a 16 bd 27 88 00 3e 29 0e 05 be 22 03 44 bd
       -0.036768887 0.12551938 -0.12993683 -0.04785455
000020 89 2f 22 3e 00 57 20 3e 3e 55 03 be 54 4a 22 be
       0.15838446 0.15658188 -0.12825486 -0.15848666
000030 dd e3 eb bd c8 6f fc 3d 41 04 de 3d 08 04 2e 3e
       -0.11518071 0.12326008 0.10840655 0.16993725
000040 61 35 07 be 8a f2 0b be ee a2 0c 3d 79 7c 29 be
       -0.13203956 -0.1366674 0.03433507 -0.16551389
000050 90 b9 cf bd 4e 16 25 be 9b 07 2e 3e 11 48 1a 3e
       -0.10142815 -0.1612179 0.16995089 0.15066554
000060 9e de dc 3d fb c5 0f 3e b9 da 9a 3d a6 7e 80 3c
       0.10784648 0.14040367 0.07561249 0.01568539
000070 d1 b0 78 3d 6e 5e 97 3b 17 ea 77 3d c7 82 29 3e
       0.0607155 0.004619411 0.06052598 0.16553794
