models/saved_models/cnn_1d_1.pth (torch, 129292 bytes, 7 tensors)

conv1.weight f4 [16, 12, 1]
00000000: 7b6f 5bbe 753c 6cbe 16df 40bd abf8 4dbd
00000010: 3eee 8abd 69b9 02bd a847 01be 75ff b4be
00000020: d257 b9be 97a9 8e3e e13e 55be 5148 233e
00000030: 288d 31bd a1ea 7cbd 4651 cb3b 3395 193c
00000040: 0833 b2bc b1d9 183d d726 d5be 4af4 bebe
00000050: d19d 3f3e d4da c13e 9041 2d3d 2351 8dbd
00000060: cd60 5ebe e632 103d 6b4f 793e ec17 8e3c
00000070: 4126 11be 630f b33e a260 b4bb f22d fabd
00000080: 319d c33e 8cf1 c0bd d60e f43d 0d64 7e3e
00000090: 5cf0 9cbe 37b6 2f3e 8375 b83d a27a 33be
000000a0: 2d04 83be faee 9eb9 3046 173e 926a 1d3d
000000b0: 72df 153e aaa7 c03b 805e ef3c 9193 f53d
000000c0: 5bfe 993e 60bd ca3b fb88 933d 5c45 11be
000000d0: 43b3 b6be 047a 033d cb98 7dbe 29d8 ffbd
000000e0: ecb8 23bc 8ad8 103e 45cd d63d 54c8 da3d
000000f0: eb9e 04be 211f 063e a131 3f3e a636 e2bd
00000100: da86 603e 2f69 e0bd 9226 cbbd d8c7 0e39
00000110: aba8 3a3e 6043 67bd e8c7 6ebe 826b a0bd
00000120: f8ec b1bd 43ff 2a3e 00c4 5e3e b175 11bb
00000130: 3313 57be 8c2d 58be 11fb a33d 34eb 503e
00000140: f7b4 1c3e ac6f b83d c166 3fbe 4c53 7a3e
00000150: 6d44 c4bd 3077 8cbd 466a 55be 2e96 663d
00000160: 969e a0bc be38 a73e ab6c 5abe e432 1bbe
00000170: 7e20 57bd d703 2fbd cf46 3fbe 4ef4 b03b
00000180: b278 01bc ee7a 7b3e c232 743e 9cf9 a03d
00000190: 2efa efbd 12e1 32be 11b5 73be 05f9 a23d
000001a0: 3f52 683d 18fa a83d 15cf 2ebe 9919 653e
000001b0: 5662 24be a8be 88be 57fa 8abe 3123 41be
000001c0: aec8 51be 3df2 983e 1820 47be bbf3 c53c
000001d0: e15b 6a3e 5ba2 763e 8312 9cbd d083 a5bd
000001e0: c5c4 2ebe b571 c23d b067 77bd 9e16 a5be
000001f0: f196 43bd ffc8 51be 1be4 44be 0e1a 183e
00000200: 00e1 8b3b f989 a1be c825 2b3e e627 573e
00000210: 06f8 16be 8d70 16be c88d cbbc 7332 76bd
00000220: e328 103e 990d e6bd f731 9a3d 601c a43e
00000230: b70a 103d e057 a6bd 7560 d53d 9157 773e
00000240: 8eff 393e 40b8 a6bd 2eff 2abe 8141 b73d
00000250: 4c74 d83d b984 14bd 7afa 41be 1dca 88be
00000260: 2e03 bdbc 8d27 8f3e 7647 563c 22bf 6a3d
00000270: 6f55 52be 4880 3c3e 6d3b 95be 5d26 32be
00000280: 0d62 bebe 3797 273e e7f1 093e 909f fdbd
00000290: 6bbe f73d 3624 353e 7e84 c0bd b024 263e
000002a0: 5e90 903d 42d0 0f3d 49a2 743e c796 633e
000002b0: 9e33 813e 32cf 4a3e d823 0f3e 2f9f 9e3c
000002c0: 7ef3 5c3e a06d 5a3e 3e8d 393e e5c1 99bc
000002d0: 28d3 10bd 681a 553e 2a03 85be 3b14 63be
000002e0: e350 43be d85b febd 04b3 4fbd 8290 70bd
000002f0: d5f1 17be e1c7 b13e f004 8c3e 4832 09bc
-0.21429245 -0.23069938 -0.04708775 -0.050285976 -0.06783722 -0.031915102 -0.12624991 -0.35351148
-0.36199814 0.27863762 -0.20824768 0.15945555 -0.043347508 -0.061747197 0.006204757 0.009373951
-0.02175285 0.03731698 -0.41631195 -0.37295753 0.18712546 0.37862265 0.042298853 -0.06900241
-0.21716614 0.03520479 0.24346702 0.017345391 -0.14174749 0.34972677 -0.0055046836 -0.122157946
0.38205865 -0.094210714 0.11916892 0.24842854 -0.3065213 0.17159353 0.090067886 -0.1752725
-0.25589123 -0.0003031416 0.14772868 0.03843171 0.14636019 0.005879362 0.029219866 0.11991037
0.3007687 0.006187126 0.07203861 -0.14186615 -0.3568364 0.032098785 -0.24765317 -0.12492401
-0.009992819 0.14145103 0.10488371 0.10682741 -0.12951247 0.13097812 0.18671276 -0.110455796
0.21926442 -0.10957562 -0.09919466 0.00013616623 0.18228404 -0.05646074 -0.23318446 -0.078330055
-0.08687776 0.16698937 0.21754456 -0.0022195394 -0.21003418 -0.21111125 0.080068715 0.20402223
0.15303408 0.09005675 -0.18691541 0.24445838 -0.09583364 -0.06858671 -0.20841321 0.056295566
-0.01960687 0.32660478 -0.21330516 -0.15156132 -0.05252122 -0.04272827 -0.18679355 0.005400217
-0.007902311 0.24558613 0.23847488 0.07860109 -0.1171764 -0.1746867 -0.2379954 0.07957653
0.05671906 0.082508266 -0.17071183 0.22373046 -0.16053137 -0.2670796 -0.2714412 -0.1886108
-0.2048671 0.29872313 -0.19445837 0.024164071 0.22886612 0.24085371 -0.07620718 -0.08081782
-0.17067249 0.09494344 -0.06040162 -0.32243818 -0.04775137 -0.2048683 -0.1922764 0.14853689
0.0042687654 -0.31550577 0.16713631 0.21011314 -0.14743051 -0.14691372 -0.02484788 -0.060106706
0.14078097 -0.11233062 0.07529061 0.32052898 0.03516647 -0.081222296 0.10418788 0.24154498
0.18163893 -0.08140612 -0.16698906 0.08948041 0.10569057 -0.036259387 -0.18943205 -0.267167
-0.023072805 0.27959862 0.013078561 0.057311185 -0.20540403 0.1840831 -0.291469 -0.17397447
-0.37184182 0.16366278 0.13471185 -0.1238395 0.12096866 0.17689595 -0.09400271 0.16224933
0.07058786 0.03511072 0.23890032 0.22225486 0.25234693 0.19805601 0.13978517 0.019363014
0.2157726 0.21330881 0.18120286 -0.018769214 -0.035357624 0.20810854 -0.25978976 -0.22175686
-0.19073825 -0.124198616 -0.050707832 -0.058731563 -0.14838345 0.34722808 0.27347517 -0.008373804

conv1.bias f4 [16]
00000000: 0e89 8c3d db38 30be 131b f13c 975a 09bd
00000010: d0f9 6b3e f904 2e3e e79f 21be 23c7 3cbe
00000020: 9eef fb3c 5a13 203e c43b 283e 59b9 1cbe
00000030: 8ec6 ef3d fc70 febd 5ca3 9f3b c1ee c8bc
0.068620786 -0.17209189 0.029431855 -0.03353366 0.23044515 0.16994084 -0.15783654 -0.1843534
0.030753907 0.15632382 0.16429049 -0.1530508 0.11707793 -0.12423894 0.004871769 -0.02452791

conv2.weight f4 [32, 16, 1]
00000000: ffc3 4e3e d351 4d3d 0d80 90bd 1b1b 37be
00000010: 8b7c 83bd fe42 6d3d 8cf1 893d ac13 793e
00000020: 208f dabc 218b 963d a223 653d 8106 b3bd
00000030: f79c 713e 9ab0 013c 9171 3c3e 5f81 5d3e
00000040: 3bf8 6a3d cc78 893e a57c 203e 1596 173d
00000050: a075 333e 2754 ce3d d841 0e3e 4ae5 60bd
00000060: c674 29bd 606c 2dbe 9b65 3abe 5575 7ebd
00000070: bb5f 24be 846a 87be bda8 e3bd a642 073e
00000080: 1332 35bd 0a7c dabc 3925 363e 6e36 043e
00000090: d0e5 8abe 52eb 603e 1fa8 a1bd 3d55 9a3e
000000a0: f133 7e3e fd02 763d b08a 08bd 1a75 a5be
000000b0: 8e49 1bbe 376c 3cbe a3af 543d 94ba 50bd
000000c0: a168 33be cbe4 6bbe 0f99 fc3b 0139 40be
000000d0: 10e8 513e a54e 313c 306a 49be 21d8 cf3d
000000e0: 65d6 9fbd b9d9 3cbe 764e bdbc 587e 7ebe
000000f0: fe7c 313e 545b 6a3e 1662 adbb e4d1 ffbc
00000100: 4962 f0bd 1530 e8bd 7cde 90be 89ff 34be
00000110: 0239 4d3e 8199 ed3d b17d 11bd a05e a1be
00000120: 826b 703e db6c 893d 1a3f 26be 59a1 c2be
00000130: 2943 e2bd b037 e0bd adee dbbc aa77 583e
00000140: 4459 5f3e 052c bfbe c49a 37be 3d8b 793e
00000150: 47c8 8abe aefd 213e fbbe 2fbe d3ab d43d
00000160: 6b27 4a3d fd19 6dbe 3f8b 83bd 9eb3 eabc
00000170: 0ffb 02bd f56e e43c a616 ac3d 57be 20bc
00000180: 9bf1 92be fd03 303e 77b4 d93c 06c6 203d
00000190: 7312 693e 9a99 2bbe f2b9 3b3d 5f87 16be
000001a0: 324e 94bd 9a9e b5bd 530c f83d 4af3 b63d
000001b0: 753c 9a3d 0380 3e3e 0f99 1ebe 1436 553e
000001c0: 4fcf 62be 59e1 b0be 124d 52be e80c 83be
000001d0: 4e00 f03d 9f70 833e d1bd 823e 0d6c 12be
000001e0: 2a4e dbbc 7e13 a5bd b41a 343e bc64 77be
000001f0: 2818 a5bd 4799 41be ae4c 363e 9f1d bd3c
00000200: da5b dc3d a1bc a03e 20b9 65be 19c0 51bd
00000210: bcb7 1abd 72c2 443d 9340 e23c bf97 8f3d
00000220: c872 063e 7166 5dbe 3665 ac3d e9e7 7bbe
00000230: bf77 babd 3fee 8a3c 7b48 34bc 9155 4e3e
00000240: 4084 21be 5f9a 88be addd 2ebc eeaa 16bd
00000250: 4060 923a 7906 05be 7658 4fbe 373b 553e
00000260: e142 a9be 6ece 3bbe 9b9d 653e 85e7 31be
00000270: df19 363d a834 8e3d fc56 043e 1f27 8d3d
00000280: 36e6 7dbe 00c2 1a3c c0e1 ad3e 2353 95bd
00000290: f7ea e3bc 85f6 8f3d 75c8 24be ff24 51be
000002a0: 9fb6 d33d 1bb4 10be 583e 593d 3a7d 80bb
000002b0: ea24 1cbe c5a3 95be ea92 14be 6a2b c83d
000002c0: 700b 6b3e 004f 623d 5fb6 afbd 832b 14be
000002d0: ece9 19be 2985 af3c ee18 29bc 2269 d63d
000002e0: 2efe 823e df9b 9c3c 012a a43d d8e4 cbbb
000002f0: 0047 083c d203 cdbe 788e b0be ea23 90be
00000300: 7de4 0abe 339d 873d c44f 623e 68b7 42be
00000310: fb9e 86bc 2f37 cdbd 3cdc 493e 09c8 4a3e
00000320: 654d 76bd 61e3 2fbe ca11 0bbe 83dd 0c3e
00000330: 44af 59be eb64 1ebd f819 173e 63bd ccbd
00000340: 7c5f 8b3e f9be 2f3d 89d5 3dbd de01 103e
00000350: 431f 953e d886 bcbd 88b9 eabc d3df 43bc
00000360: c6d5 30be 9aef 4abe bf7f 83bd 1027 3dbd
00000370: 5502 633e 4582 dabd 36cb 47be 3f2f 01be
00000380: 11b7 9ebd 02b3 eb3b 445b 203e 6745 083e
00000390: 1499 70be a6e7 943d cac9 5d3c aee6 c33b
000003a0: 103c 6d3d 97d2 54be 5a51 2d3e 8a7f e23d
000003b0: 6c1c ff3d f9db 4bbd 4dcd 0f3e 1247 113e
000003c0: abca df3d 854d 79bd c1f9 8d3e af18 33bd
000003d0: c892 7ebe 0ffc 0a3e d7ab 30bd 90eb 483e
000003e0: 8a7b 733e 670e 6cbc a17a 183d 6981 e23c
000003f0: 8717 5cbe 557b 7cbe 8318 9a3d db96 84be
0.20191954 0.05012686 -0.07055674 -0.17881434 -0.06420239 0.057925217 0.067355245 0.2432391
-0.026679575 0.073507555 0.055942185 -0.08741475 0.23595034 0.00791564 0.18402697 0.21631382
0.057365637 0.26849973 0.15672548 0.037008364 0.17525339 0.100746445 0.13892305 -0.054906167
-0.04137113 -0.16935873 -0.18202822 -0.062123615 -0.16052143 -0.26448452 -0.11116169 0.13209018
-0.044237208 -0.026670475 0.17787637 0.12911388 -0.27128458 0.21964768 -0.07893395 0.30143157
0.24824502 0.060061444 -0.033335388 -0.32315904 -0.15164778 -0.18400656 0.051925313 -0.050959185
-0.17520382 -0.23036496 0.0077086757 -0.18771745 0.20498681 0.010821973 -0.19669414 0.10148645
-0.078045644 -0.1844243 -0.023108702 -0.24852884 0.17332837 0.22886401 -0.005291234 -0.031228013
-0.117374964 -0.11337296 -0.28294742 -0.17675604 0.20041278 0.11601544 -0.03552026 -0.31517506
0.23478511 0.06710216 -0.16235009 -0.38013723 -0.11047966 -0.109481215 -0.026847208 0.21139398
0.21811396 -0.37338272 -0.17930132 0.24369521 -0.27105924 0.15819427 -0.17162697 0.10384335
0.049354 -0.23154445 -0.064230435 -0.028650101 -0.03197771 0.02788494 0.08402757 -0.009811006
-0.28699955 0.17189021 0.02657531 0.03925135 0.22760944 -0.16757813 0.04583163 -0.14700077
-0.07241477 -0.088681415 0.12111726 0.089331225 0.075310625 0.1860352 -0.15488075 0.2082141
-0.22149394 -0.34546927 -0.20537212 -0.25595784 0.11718808 0.2567186 0.25535443 -0.1429903
-0.02677067 -0.080603585 0.17588311 -0.24159521 -0.08061248 -0.18906127 0.17802688 0.023085414
0.10759707 0.31393912 -0.22433901 -0.05120859 -0.03777288 0.048037 0.027618682 0.07011365
0.13129723 -0.2162111 0.08417742 -0.24600185 -0.09104871 0.016959308 -0.011003609 0.20149828
-0.15773106 -0.26680276 -0.010672969 -0.036784105 0.0011167601 -0.1299075 -0.20248589 0.2082337
-0.33058837 -0.18340465 0.22423403 -0.17373474 0.044458266 0.06943637 0.12923807 0.068922274
-0.2479485 0.009445667 0.33961296 -0.07291248 -0.027822 0.07029442 -0.16092093 -0.20424269
0.103375666 -0.14131205 0.05303797 -0.003921178 -0.15248457 -0.2922651 -0.14509168 0.097739056
0.22953582 0.05525112 -0.085797064 -0.14469723 -0.1503064 0.0214258 -0.010320885 0.10469271
0.2558455 0.019117294 0.08015824 -0.0062223487 0.008317709 -0.40041977 -0.34483695 -0.281524
-0.13563724 0.0662178 0.2210074 -0.19015276 -0.01643323 -0.10020291 0.19712919 0.1980287
-0.060132403 -0.17176582 -0.13581005 0.13756375 -0.21258265 -0.03867046 0.14756 -0.0999706
0.27221286 0.042906735 -0.04634622 0.14063212 0.29125413 -0.09205407 -0.028652921 -0.011955219
-0.17269048 -0.19817963 -0.0642085 -0.04617983 0.22168858 -0.10669378 -0.19511113 -0.12615679
-0.07749761 0.0071929703 0.15659815 0.13307725 -0.23495895 0.07270746 0.01353688 0.005978427
0.05791861 -0.20783459 0.16925564 0.110594824 0.12456593 -0.04977033 0.1404316 0.14187267
0.10927328 -0.060864944 0.2772961 -0.043724712 -0.2486068 0.13572715 -0.04313263 0.1962111
0.23777595 -0.014407731 0.037226323 0.027649598 -0.2149335 -0.24656422 0.075242065 -0.25896344

conv2.bias f4 [32]
00000000: 174b 62be 6f09 bd3d 8213 63bd e1d3 c03d
00000010: 8aec 303c 3929 ae3d b724 3ebe a126 5ebc
00000020: cfe6 e53c 7d69 3c3d c61e 523e 012a 25bd
00000030: a592 623e 54c9 05be 09f1 873d 8f81 843e
00000040: e149 ecbd 58b1 c43d dad0 063e 0e3a 313e
00000050: 1c75 b93d f38c 47be 7f29 2abe dbc1 4a3e
00000060: 0680 183e 0aba 723e a973 6dbe 08b9 4fbe
00000070: 3e14 a13c cd9f c53d 39ce ae3d 3ec3 1d3e
-0.22098957 0.09230315 -0.055438526 0.09415413 0.010798583 0.08503956 -0.18568693 -0.013559015
0.02806416 0.04599904 0.20519552 -0.04032326 0.22126253 -0.13065082 0.06637771 0.25880095
-0.11537529 0.09604138 0.13165608 0.17307302 0.0905554 -0.19487362 -0.16617392 0.19800512
0.14892587 0.23703781 -0.23188652 -0.20285428 0.019662973 0.0964962 0.085354276 0.1540651

fc1.weight f4 [32, 960]
00000000: d09e 06bd 9501 cdbc 4821 9a3c 689c 12bd
00000010: 7219 1f3c 6ac6 f9bc ba2a fcbc b534 973c
00000020: c439 b03c 16c8 c8bc 8e02 53bb 8f1e 1d3c
00000030: 00ea 11bd e263 d7bb 9263 9bbc 68af acbc
00000040: 8d88 953c 06d5 57bb 3b68 663c e85c a73c
00000050: e3f4 c9bb 22eb 883b 533d abbc 203b 373c
00000060: 068f c6bc a891 4abc 295d 9a3a 30a9 9abc
00000070: 530b 793c b2ef 05bd 18f2 8ebc 8fba 8d3b
00000080: 1801 fdbc a435 d13c ee6e d23b 0e5f dfbc
00000090: 2d07 143c 1713 063c 76a3 d73c f8be cbba
000000a0: 56b6 8b3c baf9 c33c d9d9 853c 9b12 2cbc
000000b0: 4154 f6bc 8dbf 1cbc 4a00 08bc a19e be3c
000000c0: d759 0838 4e8f 303b 6a23 2a3c 8682 ff3a
000000d0: 5e0f 40ba 6034 fdbc 87e1 723b e301 6dbc
000000e0: d986 a33c c3b5 d63c 6189 f2bc 89a5 aebc
000000f0: ca45 76bc 9655 08bc bd69 01bd 2ace 3fbc
00000100: 53bf 9c3c 9992 43bb a520 3d3c 9db9 0cbd
00000110: 8896 dfbc 01cd 92bc 5f67 b43c e72e fb3c
00000120: 9504 e5bc 12e8 bcbc ad05 003d 2039 833c
00000130: fbf4 bcbc b9a5 8d3c 4658 e13c ab55 c53c
00000140: 0438 4bbb d6c7 db3c 6f1d b83c ceb0 ea3b
00000150: ba46 05bd 1276 e5bc 55fa e2bb cf9a f93b
00000160: 18aa 90bc da9b de3c d6ef 3b3c bb4c 00bd
00000170: 0424 a3bc 9522 02bd 104b 523a 030f 9abc
00000180: a81a b3bb 0b27 be3c 2d99 76bc bca9 96b9
00000190: a028 e9ba 6078 893c 0f3b 97bc a3bd 8f3c
000001a0: 1dfe cdbc e9b8 d33c 9e6a bcbc 90be 11bd
000001b0: 800a 4d3c 24f8 b73c 33f2 99bc 2f82 cfbb
000001c0: 6bea e83a aa9c b0bc d9aa f7bc 9867 7b3c
000001d0: 1b58 813a 94e9 963c 0be6 7e3c f756 e7bc
000001e0: f433 dcbc 95f0 4b3c 9a1d 42bc 912f f83c
000001f0: de3b b83c 2763 823c afa4 f33c 3db3 8f3c
00000200: 818f 14bd d22d 8bbc b946 cbbc 8435 cdbc
00000210: 7bcc 173a bcaa d3bc b531 66bb 7689 2e3b
00000220: 3b98 853c e042 773c ce4d 48bb 1805 383c
00000230: 3984 d73b 5c4b e13b 2ac3 94bc 099d 0cbd
00000240: 42c8 153c 81b3 273c 4734 e5bc f4bd ba3c
00000250: 5c19 17bc 7812 ee3c a20e 81bb aa6e 883c
00000260: ae36 f6bc 24da c7bc a04b 0c3c 4198 eb3b
00000270: b44f 523c d546 97bc cab4 6ebc b458 d8bc
00000280: 6e52 b5bc 9d7f d23c 2c46 c4bc 06c2 973c
00000290: 7333 80bc ef06 b93c 2941 283c 1ccf 46bc
000002a0: 27c2 35bc f140 743c 7b94 b53c c247 483c
000002b0: e6e6 7dbc acd3 0abc c401 75bc 422c 9a3b
000002c0: e292 903c 9682 edbc 6614 ad3b b4f5 3a3c
000002d0: 42ae b9bc faa5 f23b a60a 14bd 6044 91bc
000002e0: 9cc3 a03c 883e 11bd 5af1 cfbb 61b7 b93c
000002f0: d15d e7bc 885a 883c 5f6f c3bc 6cc4 42bc
00000300: 5766 71bc 4d0e 963c 8ff0 adbc 13f4 e0bc
00000310: 346d 063b 2201 a8bc 1026 003c 0d36 13bc
00000320: 3c6a eabc 1e5d f5b9 6376 8dbb a964 03b9
00000330: 5419 0bbd c535 b23c 899e 2e3b 58b8 12bd
00000340: d8b9 c33c 153f c3bc ce12 b4bc d2dc 78bc
00000350: 400d ccbc 837c ea3c 1e82 8b3b c68d d5bb
00000360: fd12 853c 0662 86bc d262 4fbb 3e34 b23c
00000370: 3919 57bc 8758 6dbc ce00 afbc f7e1 f7ba
00000380: d3d6 00bd f4d8 18bb 416a 9fbc 67ea 8f3c
00000390: 5d2d ca3c 4d16 b23b e87e 8dbc b7e5 c33c
000003a0: 4c4e 96bc 698b e23c 428c 813c 3293 8fbb
000003b0: 3cae e43c 2026 c8bc dfc6 c3bb bd72 43bc
000003c0: b10b d7bc 4cec a1bc e113 f5bb b91c 863c
000003d0: 0450 143c 5255 0ebc 9b23 9e3c 9ab9 033c
000003e0: 1bc0 3f3c dcf1 1e3c 7246 dfbb 6535 c2bc
000003f0: b6bd d8bc 8e76 28bc 3024 903a 58f3 0bbc
-0.0328663 -0.025025168 0.018814698 -0.035793692 0.0097106565 -0.030490119 -0.030782092 0.01845775
0.02151192 -0.02450947 -0.0032197568 0.009589805 -0.03562355 -0.0065731863 -0.018968377 -0.021079734
0.018253589 -0.0032933368 0.014062936 0.020430043 -0.006163226 0.0041784206 -0.020903265 0.01118353
-0.02423812 -0.012363829 0.0011777031 -0.018879503 0.015200454 -0.032699294 -0.017449424 0.004325218
-0.03088431 0.025538273 0.0064219153 -0.027267005 0.009034914 0.008183262 0.026323061 -0.0015544584
0.017054718 0.02392279 0.01633923 -0.010502483 -0.030069472 -0.009567154 -0.00830085 0.023269
3.2508597e-05 0.0026940885 0.01038442 0.0019493855 -0.00073265086 -0.030908763 0.0037060694 -0.014465782
0.019961761 0.026209718 -0.029606523 -0.021319168 -0.015031287 -0.0083211865 -0.03159498 -0.011706868
0.0191342 -0.0029842018 0.011543428 -0.034356702 -0.027293459 -0.01792002 0.022021947 0.030662013
-0.027956286 -0.023059878 0.031255413 0.01601845 -0.023066035 0.017290937 0.027507912 0.024088701
-0.003100873 0.026828688 0.022474973 0.00716219 -0.032538153 -0.028010402 -0.0069268146 0.0076173316
-0.017659232 0.027173925 0.011470756 -0.031323176 -0.019914635 -0.03177126 0.00080220494 -0.018805986
-0.005465824 0.023211977 -0.015051168 -0.00028736691 -0.0017788596 0.016781032 -0.018460779 0.01754648
-0.025145585 0.025845008 -0.023000058 -0.035582125 0.01251471 0.02245719 -0.018792247 -0.0063326578
0.0017770057 -0.021559078 -0.030232834 0.015344523 0.0009868176 0.018421926 0.015557776 -0.02823971
-0.026880242 0.012447496 -0.011847878 0.030296119 0.022489484 0.01591642 0.029741613 0.017541522
-0.03626967 -0.016989622 -0.024813997 -0.025049932 0.0005790663 -0.025838248 -0.0035124843 0.0026632226
0.01630794 0.015091628 -0.0030563953 0.011231683 0.0065770415 0.0068754386 -0.018159468 -0.034329448
0.009141983 0.010235668 -0.02797903 0.022795655 -0.009222355 0.029061541 -0.003938512 0.016654331
-0.03005537 -0.02439601 0.008562952 0.007189781 0.0128363855 -0.018466393 -0.014569471 -0.026409484
-0.022134032 0.025695616 -0.023959242 0.018525135 -0.015649533 0.022586314 0.010269442 -0.01213434
-0.011093653 0.014908061 0.022165528 0.01222414 -0.015496945 -0.008473318 -0.014954034 0.004704983
0.017648164 -0.028992932 0.0052819727 0.011411119 -0.0226661 0.00740504 -0.036142968 -0.017732799
0.019624524 -0.035460025 -0.00634591 0.02267045 -0.028242977 0.016644731 -0.023856817 -0.011887651
-0.014733872 0.018317366 -0.021232871 -0.027460134 0.0020511867 -0.020508353 0.007821575 -0.008985055
-0.02861511 -0.0004679942 -0.0043170913 -0.00012530632 -0.0339597 0.021754155 0.0026644787 -0.035820335
0.023892328 -0.02383379 -0.021981623 -0.015189366 -0.024908662 0.028623825 0.0042574545 -0.006517145
0.016244406 -0.016404163 -0.0031644595 0.021753427 -0.013128572 -0.014486439 -0.021362688 -0.0018911947
-0.031454872 -0.0023322674 -0.019459845 0.017567826 0.024679834 0.0054347874 -0.017272428 0.023913248
-0.018347882 0.027654367 0.01581395 -0.0043815607 0.027915113 -0.024432242 -0.005974635 -0.011929211
-0.026250692 -0.019765995 -0.0074791764 0.016371118 0.00905228 -0.008687334 0.019304087 0.008039856
0.011703516 0.009701218 -0.0068138177 -0.023707101 -0.026457649 -0.010282172 0.0010997113 -0.008541904

fc1.bias f4 [32]
00000000: 303e fabb 7c34 f73c 33fb 3b3d e87b a23c
00000010: c5f0 08bc 67a5 383b 95a2 6bbb 731b 093d
00000020: 15c7 563b 8b6c 0d3d d8df 633c a497 c93c
00000030: 2db0 ef3c a07e d2bb b949 9ebc 5838 3a3d
00000040: bdf0 01bd 8eca 36bd 5f34 f9bc e320 0ebc
00000050: bd81 3f3d 9d12 bfbc 2901 6dbc 1989 033d
00000060: 73d4 f53c 4142 68bc a980 c53c 780c a5bc
00000070: ebe7 b4bc 2cd0 83bb 305e 88bb 5232 1a3c
-0.007636808 0.030176394 0.04589386 0.019834474 -0.008358185 0.002817476 -0.003595506 0.033473443
0.003277247 0.034527343 0.013908349 0.02460844 0.029258812 -0.0064237863 -0.019322263 0.04546389
-0.031723727 -0.044626765 -0.03042048 -0.008674833 0.046754587 -0.023324305 -0.014465609 0.03211317
0.03000853 -0.014175952 0.024109202 -0.020147547 -0.022083243 -0.0040226188 -0.0041616186 0.009411411

fc2.weight f4 [1, 32]
00000000: 760b 14be 79ef 0d3e 714f 67be fdea b53d
00000010: 5522 013e 8b16 4abe a5b6 073e 4247 84be
00000020: 5a44 153e ea1a 22be afce a33d 2e58 31be
00000030: b577 4f3e 5d54 c3bd 3f0d 8a3d 88e3 4abd
00000040: 166e db3d 5c93 bfbd 02c6 27be ded9 693d
00000050: d227 51be 5401 f3bd 9f0c 8fbd 147b a73d
00000060: 2a8d dbbd 1439 52be 157d 0f3e 17e1 063e
00000070: 50cd 043e 9c04 173e abbd bcbc 3feb d63d
-0.14457497 0.13860883 -0.22588898 0.08882711 0.12610753 -0.19735162 0.13253267 -0.25835615
0.14576855 -0.1583058 0.07998406 -0.17318794 0.20260508 -0.095375754 0.06740808 -0.049533397
0.107143566 -0.093542784 -0.16384128 0.05709254 -0.20425346 -0.11865488 -0.06984829 0.08177772
-0.10720284 -0.20529586 0.14012559 0.13171802 0.12968946 0.14747852 -0.02303966 0.104940884
