models/saved_models/cnn_1d_76_76.pth (torch, 129292 bytes, 7 tensors)

conv1.weight f4 [16, 12, 1]
000000 bc 52 a4 ba 52 db 3f be a8 9c 89 be 78 c9 4b 3e
       -0.0012536864 -0.18736008 -0.26877332 0.19901073
000010 a1 51 3c be c5 89 e2 3d e2 1c 15 3e de 77 7a be
       -0.18390514 0.11061434 0.14561799 -0.24459788
000020 2d 8d a9 bb d7 c3 bf bd 47 8c e3 bc e3 9a 1b bb
       -0.0051743 -0.09363525 -0.02777685 -0.0023743443
000030 bb 42 d4 3d 49 8e e6 bc 83 30 27 bd 0b b5 3f 3e
       0.1036429 -0.028144019 -0.04081775 0.18721406
000040 d6 e0 8c 3e 6c 4d 96 3e 1b ed 24 3d 9d 38 3a be
       0.27515286 0.29355943 0.040265184 -0.18185659
000050 f2 ed 8b 3e 92 65 8b be 14 82 86 be c9 d0 ca bd
       0.27329975 -0.2722593 -0.26271117 -0.09903104
000060 18 76 67 3e f9 88 f2 bc 51 3d 2b 3e 74 2f cb bd
       0.22603643 -0.02960633 0.16722609 -0.0992116
000070 4e 48 55 3e e9 03 15 be 18 bd d3 bd 22 b3 a2 3e
       0.20828363 -0.14552273 -0.10338801 0.31777292
000080 db b7 6b 3d 70 23 0a be 3b 47 67 be af 11 90 3e
       0.057548385 -0.13490081 -0.22585766 0.28138492
000090 ec ce bd 3d 19 34 6b be dc d2 4c be 9d 28 95 bc
       0.09267983 -0.22969092 -0.20002311 -0.018207842
0000a0 45 8c 73 be c4 b2 ee 3d 64 b6 a3 3d 83 78 3d 3d
       -0.23783977 0.116551906 0.079937726 0.046257507
0000b0 bd e0 75 bd a6 04 36 3e 2e b4 46 bd 1f 3b 4a 3e
       -0.06002878 0.1777521 -0.048511676 0.19749115
0000c0 a1 2c 56 be ad e9 4a be 0e ba 68 3e 05 1f 3c 3e
       -0.20915462 -0.19815703 0.22727224 0.18371208
0000d0 cc 63 dc 3d 63 75 f7 bc d1 fa ca 3d 47 d8 20 be
       0.10761222 -0.030207342 0.09911121 -0.15707503
0000e0 46 b6 5c 3e d9 26 5d be 5a 69 08 be f0 c2 73 3c
       0.21553907 -0.2159685 -0.13321438 0.01487802
0000f0 e6 95 5a 3d 5a ec 0b 3e b5 68 7c be 00 19 1d bd
       0.05336561 0.1366438 -0.24649318 -0.03835392
000100 ca 34 d0 bd 48 00 f0 bd 27 50 08 be 1d e1 15 be
       -0.10166319 -0.11718804 -0.13311826 -0.14636655
000110 ac e8 48 be 5d 06 34 3e 8e be 86 3c 54 c8 4c 3e
       -0.19620007 0.17580552 0.016448285 0.19998294
000120 4e dd 42 3e e1 81 a8 3d a8 66 6b 3e 7c 44 38 be
       0.19029734 0.082278974 0.22988379 -0.17994875
000130 37 e7 41 be 7a 0d 74 be cc c0 86 3b 4d 6b 20 be
       -0.18935858 -0.23833266 0.0041123386 -0.15665932
000140 44 67 ce 3d 81 6e 85 3e 87 ba 22 be fa bf ac 3d
       0.1007829 0.2606087 -0.15891467 0.08435054
000150 35 1c 96 be b8 49 fe 3d 57 78 12 3e 43 bb c3 3d
       -0.29318395 0.124164045 0.14303719 0.09557202
000160 0b 97 e7 3c 27 4c a3 be 91 d6 59 3e 17 f4 50 3e
       0.028270265 -0.31894037 0.21273257 0.20405613
000170 5d 3e 93 3d 35 8d 61 be 77 db 01 be 80 1e 66 3e
       0.07189629 -0.22026522 -0.12681375 0.22472572
000180 ce d3 8b bd 00 37 52 be d8 fc bc 3c 0a ea e5 bd
       -0.06827508 -0.20528793 0.023069784 -0.1122628
000190 8f d5 60 3e c4 11 13 3e 31 6a d4 be 29 dd b2 3d
       0.21956466 0.14362246 -0.41487268 0.08733589
0001a0 d2 cd 80 3e ba 2d 33 39 45 29 1e 3c b0 27 01 be
       0.25157028 0.00017087805 0.009653394 -0.12612796
0001b0 2d 05 49 3e 39 24 8a 3d 1b 11 47 be 5d af 63 3d
       0.1963088 0.0674519 -0.19440119 0.05558716
0001c0 0b 26 43 be 5e c9 ac 3c 18 bc bf 3d 07 c7 dd bc
       -0.19057481 0.021092113 0.09362048 -0.027072443
0001d0 48 86 de bd 53 7f 74 be e7 aa f3 bb 7f 7e 34 3e
       -0.10865456 -0.23876695 -0.0074361446 0.1762638
0001e0 b8 99 0f be 6d eb 21 3e 77 8f 78 bd 33 eb 9d 3e
       -0.14023483 0.15812464 -0.060683694 0.30843505
0001f0 cc 6a 0f be 4c b7 55 3d 52 93 99 3e e6 21 8f 3e
       -0.14005584 0.05217676 0.2999521 0.2795555
000200 5d f4 82 3d 63 09 52 be de b1 98 bd 17 f7 58 3e
       0.06394265 -0.20511393 -0.074558005 0.21188007
000210 6a aa 3e 3e b6 e6 a0 bd 6c 47 4a bc 2c 78 a3 be
       0.18619695 -0.078565046 -0.01234613 -0.3192762
000220 2e f8 3b 3d f5 6f d4 3d c9 38 02 3e ad ea 34 be
       0.04589098 0.103729166 0.12716974 -0.17667647
000230 27 58 5d bd 9c 93 2d be ed f6 e0 bd c1 9b 64 3d
       -0.054039147 -0.1695084 -0.10984597 0.0558126
000240 4d 59 28 3e b6 55 11 3e 36 42 72 be fa d6 60 3d
       0.16440316 0.14192852 -0.2365807 0.054892518
000250 e6 c1 3a be 7c ad 42 3e 56 dc 7f 3e 9d 4e 48 be
       -0.18238029 0.19011492 0.24986395 -0.19561239
000260 e3 d1 ab 3d 39 96 ec bd 5f 77 51 bc 98 a1 2b 3e
       0.08389642 -0.1155209 -0.012784808 0.16760862
000270 49 f0 60 bc 9d a6 89 3d f4 dc 51 3e 0f f5 47 3e
       -0.013729163 0.06721232 0.20494443 0.19527076
000280 e4 e2 5c 3e 86 75 55 be 77 37 6a be d4 48 64 be
       0.21570927 -0.20845613 -0.2287272 -0.22293407
000290 45 19 ad 3d 2d 88 91 3e 92 c0 18 3c 11 22 8b be
       0.084520854 0.28424206 0.009323256 -0.27174428
0002a0 f9 ef cc bb 3c 2f f6 bd 36 e6 c0 bd 59 d6 a8 3d
       -0.006254193 -0.12020728 -0.09418909 0.082440086
0002b0 53 ad af 3d 36 28 34 bd a6 be da bc 1d c9 59 be
       0.08577981 -0.04398366 -0.026702236 -0.21268125
0002c0 f7 b9 ae bd 67 d2 3e 3e 86 0c 37 be 9d 6b 2a 3e
       -0.08531564 0.1863495 -0.17875871 0.16642614
0002d0 5a 71 f3 3d 25 24 34 bd 0e cb bf 3d e3 97 d2 3c
       0.118868545 -0.043979783 0.093649015 0.02570719
0002e0 64 ed 88 be 95 27 9b 3d 5b 5c a7 bd ef aa ab be
       -0.26743615 0.07575909 -0.08171912 -0.3352885
0002f0 08 c6 8b be e5 18 d4 bd 9c 3e 9a bd 33 72 87 be
       -0.27299523 -0.10356311 -0.07531473 -0.26454315

conv1.bias f4 [16]
000000 45 47 00 3e 0b 3a 97 3d 3a 76 88 3e 90 5c 04 3e
       0.12527187 0.07384118 0.266527 0.12925935
000010 03 bd c5 3c e5 5f 67 3e 71 e1 2e be fe 7c 7b bb
       0.02413798 0.22595175 -0.17078187 -0.0038374062
000020 68 86 4b 3e 75 52 72 be 95 1f 53 3e 98 92 5e 3e
       0.1987549 -0.23664267 0.20617516 0.21735609
000030 70 58 e7 bd 3b 9d c1 3c 18 e4 bd 3d 61 9a 42 be
       -0.11296165 0.023634544 0.09272021 -0.19004203

conv2.weight f4 [32, 16, 1]
000000 31 48 89 3d 9e e9 75 3d 7e 7a 9b bd b6 7a 75 3e
       0.067032225 0.060037248 -0.07591723 0.23972592
000010 4b 97 27 3e ee 6a 3c bd 45 45 52 3d 03 60 68 be
       0.16366307 -0.046000414 0.05133559 -0.22692876
000020 ea b4 5f be d4 8a b6 bc a6 59 06 3d cf 0a 46 3e
       -0.21846357 -0.022282995 0.03280034 0.1934006
000030 20 9e bf bd f1 fe 14 bd 65 ba b0 bd 9f 5e 2f 3e
       -0.09356332 -0.036375944 -0.08629302 0.17125939
000040 2d 4a 2f 3e 8d ed a4 bc ff 53 30 3c 6d 7e 0d 3c
       0.1711814 -0.020132804 0.010762214 0.008636099
000050 cc 2f b0 3c 9a aa 29 3e b4 77 53 be 3c b7 81 3d
       0.021507166 0.16568986 -0.20651132 0.06333777
000060 53 dc 62 3e 3b 97 1f bd bc f7 c8 3d b0 23 78 be
       0.2215436 -0.038962584 0.098128766 -0.24232364
000070 31 02 70 be 97 6a 13 3e f6 34 fe 3d 20 df 63 3e
       -0.23438336 0.1439613 0.12412445 0.22253084
000080 31 e1 7e 3e 2a d1 26 be 6f 30 20 be f4 99 18 3d
       0.24890591 -0.16290727 -0.15643476 0.037256196
000090 43 04 df bd 1a db 37 be 57 10 da bd f0 19 f6 3d
       -0.10889485 -0.17954674 -0.10647648 0.12016666
0000a0 f8 b2 6c 3d 4e 4c 01 be 57 51 0f 3e 85 ad e4 bd
       0.057787865 -0.12626764 0.13995872 -0.11165909
0000b0 81 60 00 be cd 82 80 bc 83 60 14 3e 57 38 be bd
       -0.12536813 -0.01568737 0.14489941 -0.0928809
0000c0 aa ce 19 bd 57 ef 19 3e 9d b4 13 3e 28 31 d3 3c
       -0.037550606 0.15032707 0.14424367 0.025780275
0000d0 19 5e dd bd 08 e1 6d be 59 ed 72 bc 85 3e 90 3e
       -0.10808963 -0.23230374 -0.014827096 0.281727
0000e0 72 26 b8 3d 45 75 12 3e e2 f0 0d 3e 47 78 57 be
       0.08991708 0.14302547 0.13861421 -0.21041976
0000f0 52 29 04 3d 7f 67 49 3e 21 8e 1f be 95 2e 9f bd
       0.03226597 0.19668387 -0.15581562 -0.07772557
000100 41 8b 17 3e 8e 8d dd bd 28 6a 16 be 0b 4e b9 3d
       0.14799215 -0.10818015 -0.14688933 0.09048089
000110 51 05 6e bd a6 e2 63 be d2 a8 81 be 1b ec e4 bc
       -0.05811054 -0.22254428 -0.25324112 -0.027944615
000120 94 b6 cc 3b bc 55 3d 3d 26 7d 64 bd c4 8f 7e be
       0.006247351 0.04622434 -0.055783413 -0.2485953
000130 d9 29 67 3e 3a c7 2e be 90 31 2b bd eb 03 c3 bc
       0.22574557 -0.17068186 -0.041795313 -0.02380558
000140 78 f9 33 be 60 22 5a 3e 73 a0 26 3e 8f 47 33 3e
       -0.17575634 0.21302176 0.16272144 0.17507766
000150 4f 56 03 3e 2c 5f 21 3e fb 40 3c bd ed dc 1d bd
       0.12825893 0.15758961 -0.045960408 -0.03854077
000160 e6 53 8c bd 6e 0e 45 be a9 d4 89 3d a5 9d 07 be
       -0.0685194 -0.19243786 0.06730015 -0.1324373
000170 1c 44 f2 bd b2 17 5f be 16 ea 49 be df 13 42 be
       -0.11829397 -0.21786383 -0.19718203 -0.18952893
000180 a7 d9 91 be 38 cf 6f be 1a c5 15 3e 99 eb fd 3d
       -0.28486368 -0.23418891 0.1462597 0.12398452
000190 ae 40 45 be c8 0a 1e 3e c6 81 a3 bd da d9 84 3d
       -0.19262955 0.154338 -0.07983737 0.064868644
0001a0 70 7a 21 bc 8b 6e c0 bd 51 a0 17 3e b1 fc 25 be
       -0.0098558515 -0.093960844 0.1480725 -0.16209675
0001b0 5c ae 6d be 17 21 0e 3e d4 7b 39 be 0e e5 21 be
       -0.23211044 0.1387981 -0.18113643 -0.15810034
0001c0 42 f8 2e 3e 32 19 30 3e 01 9a b4 bc ce 4b 7f bc
       0.1708689 0.17197111 -0.022046091 -0.015582038
0001d0 15 b8 e5 ba d7 64 a8 bc 20 36 9c bd e1 56 27 3e
       -0.0017526174 -0.020555897 -0.07627511 0.16341735
0001e0 2a 46 df bc 50 84 53 be 91 14 14 bd 83 01 55 be
       -0.027255137 -0.20655942 -0.036152426 -0.20801358
0001f0 5b 50 e3 3d 98 97 55 be cf 4b 0d bc 28 2f ec 3c
       0.11099311 -0.2085861 -0.008624031 0.02883108
000200 2a d5 87 bd c9 e5 9a be 90 e1 c0 bd 83 9b fb 3d
       -0.06632455 -0.30253437 -0.09418023 0.12285521
000210 82 26 34 3e eb 32 50 3d e0 ab 31 3e 2e 84 39 3e
       0.17592815 0.05082981 0.17350721 0.18116829
000220 e5 ce 8e be 9a 4c 35 3e 8d f5 7f bc 43 7e 53 3e
       -0.27892223 0.17705002 -0.015622509 0.20653634
000230 1a a3 2d 3e ef 65 fe 3c 06 41 0f 3e e9 c3 54 be
       0.1695675 0.031054465 0.13989648 -0.20777859
000240 5f af 70 3e 2b 7e 01 3e b3 34 11 be bd b2 5f 3e
       0.23504399 0.12645786 -0.1418026 0.21845527
000250 28 a6 74 be 2f f3 c1 bd d4 5f 70 3e 15 5d f4 bd
       -0.23891509 -0.09470212 0.23474056 -0.119318165
000260 83 8d 82 3e 38 c1 f3 bd 5a cd 91 be e9 87 e2 3d
       0.2549859 -0.11902088 -0.28476983 0.11061079
000270 46 06 a5 3c b1 bf 5d 3c c2 6e 86 3e 24 28 cf bd
       0.020144593 0.013534472 0.26256377 -0.10115078
000280 63 cc 85 3e 17 e5 c9 bd cb ab 18 be 0d 5c d7 bd
       0.26132497 -0.098581485 -0.14909284 -0.10515604
000290 3b 90 9d bd 92 2d 43 be 76 fc 10 be 49 ef 33 be
       -0.076935254 -0.19060352 -0.14158806 -0.17571749
0002a0 c9 91 71 be 5f 08 73 bd 0e 32 98 3e b9 c9 1b bd
       -0.23590769 -0.059334155 0.2972569 -0.038034175
0002b0 90 27 3c be 3a 5b 81 bc 7d 3c 1a 3e 60 79 6b 3e
       -0.18374467 -0.01579057 0.15062137 0.2299552
0002c0 51 72 a5 bd 66 4b d8 bc 82 d1 86 3e 55 76 53 3d
       -0.08078445 -0.02640314 0.26331717 0.051626522
0002d0 6f da 0b be 92 e6 34 be 7d 4b e3 bd 11 71 4e 3d
       -0.13657545 -0.1766608 -0.110983826 0.050400797
0002e0 2b 33 06 be 11 d9 be 3d 3f 48 2c 3e ce 1e cd 3d
       -0.13105457 0.09318746 0.16824435 0.10015641
0002f0 7c 2a 07 be cd 66 17 3e f1 4d 49 be d0 64 c8 bd
       -0.131998 0.14785309 -0.19658639 -0.097848535
000300 38 37 9a 3d 73 bc 0c bc 5f b2 0a 3e dd ac ec 3c
       0.075300634 -0.008589852 0.13544606 0.028891021
000310 fa db de bd cf 56 4a 3e 9a d9 9b ba e2 0b 39 be
       -0.10881801 0.19759677 -0.0011890412 -0.18070939
000320 bf 79 ee 3d e8 eb cf 3d 47 08 88 be c0 41 25 be
       0.11644315 0.101524174 -0.26568815 -0.16138363
000330 cb 65 a2 bc 21 9f 8a 3c 95 27 a4 3d 78 e4 62 3e
       -0.01982393 0.016921582 0.08015362 0.22157466
000340 1a 91 34 bc a7 a8 0c be 36 9f 2f 3c d7 d4 e4 bd
       -0.011020923 -0.13736211 0.010719111 -0.111734085
000350 71 f5 e2 bd c4 da 37 3e 59 22 66 3c c2 18 0a 3e
       -0.110819705 0.17954546 0.014046275 0.13486007
000360 00 26 88 3e 9c 5e 73 be bc 85 94 be 78 3d 8b bb
       0.26591492 -0.2376656 -0.2900828 -0.004249271
000370 9e 99 5c bd 9e fa 77 bd de ce 1b 3e ad ab 94 bc
       -0.05385744 -0.06054174 0.15215632 -0.018148268
000380 6e 5f ee bd 8e c0 69 3b f9 88 83 3a d3 03 59 be
       -0.116392955 0.003566775 0.0010035328 -0.21192865
000390 94 8f 17 be 4e 29 71 bc 97 f6 54 be 96 f9 d1 bb
       -0.14800864 -0.01471932 -0.20797192 -0.006407927
0003a0 13 91 06 3e 1e 80 ad bd 6a 0a 8f 3e 45 aa 71 3d
       0.13141279 -0.08471702 0.27937633 0.059000272
0003b0 d4 73 41 be 87 25 19 3e cf bc 12 3d 5b 2c fb bc
       -0.18891841 0.14955722 0.035824593 -0.030660799
0003c0 79 ba 2d be 66 74 61 3e 93 23 15 3c 2e 12 9e 3d
       -0.16965665 0.22017059 0.00910272 0.07718311
0003d0 a7 a2 d3 bd 72 a2 39 be ac 80 5c be e4 77 34 be
       -0.10333758 -0.18128374 -0.2153346 -0.1762386
0003e0 49 58 a2 bb 58 2a 21 3e 13 d3 15 be 93 bc 0a be
       -0.004954372 0.15738809 -0.146313 -0.13548498
0003f0 a3 f8 27 bd 4e 21 77 3e 17 f3 e9 bd 2c d1 0e bd
       -0.041008603 0.24133798 -0.11423319 -0.03486745

conv2.bias f4 [32]
000000 4e 9c 29 3e cc d4 b2 bd f9 83 10 be f5 c2 ba bd
       0.16563532 -0.08731994 -0.14112844 -0.09119216
000010 34 c3 62 bc 54 01 48 bc eb 8d 5e 3e f0 a2 28 3e
       -0.013840485 -0.012207348 0.21733825 0.16468406
000020 6f 24 54 3e 6c a1 82 3d f7 e3 ae bd 00 43 85 3e
       0.20717023 0.06378445 -0.085395746 0.2602768
000030 d1 4e 46 3e f3 ae a1 bd 44 0a 58 3e e5 07 9d 3d
       0.19366004 -0.07894697 0.21097666 0.076675214
000040 41 32 a3 bd 43 31 a5 bd b1 ec 2a 3e 11 bc 5f be
       -0.079685695 -0.080660366 0.16691853 -0.21849085
000050 29 40 5f be ae 2b 55 be 53 6b 71 3d 44 10 85 3e
       -0.21801819 -0.20817444 0.058940243 0.25988972
000060 5f ec e6 bd 23 d6 b9 bd 6f 09 3e bc af 33 f1 bc
       -0.11275553 -0.090740465 -0.011598929 -0.02944359
000070 65 d4 dc bc 87 c2 38 3e 8b d8 f6 3d 72 5c 69 3b
       -0.026956746 0.18042956 0.12053021 0.003560808

fc1.weight f4 [32, 960]
000000 4b e2 4d bc 8e 4c 0c bd 41 54 18 bd 63 54 ca bc
       -0.0125661595 -0.034252696 -0.037189726 -0.024698442
000010 e5 01 c8 3c 84 25 d4 3b 09 d5 19 bd f1 4a c8 bc
       0.024414966 0.006474199 -0.03755668 -0.024449797
000020 b2 b4 fb bc 2e af 69 bc 04 bd c8 bb 4d 8b 1c 3c
       -0.03072581 -0.0142629575 -0.006126048 0.009554696
000030 8d e3 19 bd b2 f1 d9 bb 2f 38 cc bb 9c 12 de bc
       -0.037570525 -0.006651127 -0.0062322835 -0.027108483
000040 2a a9 ee 3a 2b 76 c5 3c 29 82 cd bc 2f ed 8c 3c
       0.0018208374 0.024104198 -0.02508648 0.017202942
000050 8e d1 4c bc 79 11 0a bd 53 1a db ba 39 e3 95 3c
       -0.012501134 -0.03370807 -0.0016716219 0.018296825
000060 59 ee b5 3c 8e 15 17 bc e0 8d d2 bb 5a 6b 12 bd
       0.02220838 -0.009221448 -0.006425604 -0.03574691
000070 f1 4f c4 bc 5a c1 23 3c d4 39 c6 bb e1 53 69 bc
       -0.0239639 0.009994829 -0.006049374 -0.01424119
000080 d9 11 07 3c 1c 22 ad 3c bc 3e 92 bc 79 4c 08 bd
       0.008244001 0.021134429 -0.01785218 -0.033276055
000090 22 7c ba bc c1 72 98 bc d5 68 f3 bb 72 4d 9b bc
       -0.02276427 -0.018609406 -0.0074282684 -0.018957827
0000a0 04 24 53 3a fb e1 a0 3c 1a 48 9b 3b ad 7a 85 3c
       0.0008054378 0.019639006 0.00473882 0.016293848
0000b0 db b2 f1 bc 46 31 d9 bb 3f 7c e3 3a c2 d4 12 bd
       -0.02950423 -0.0066281883 0.0017355754 -0.035847433
0000c0 50 84 b3 bc 37 2a 95 bc d5 85 d5 ba 12 4d e2 bc
       -0.021913677 -0.018208606 -0.0016290495 -0.02762464
0000d0 bd fc 1f bd a9 e5 a1 3c f6 98 5e bc 8e 9a 73 bc
       -0.03905939 0.01976283 -0.013586273 -0.014868392
0000e0 8d 66 c0 bc 6b ea b3 3b 47 ba 8b 3c a3 5b f5 ba
       -0.0234864 0.0054905913 0.017056597 -0.0018719326
0000f0 2d 74 a1 bc 28 90 a5 3b e0 2d b8 ba 89 00 fb bc
       -0.019708717 0.005052585 -0.0014051758 -0.030639904
000100 64 71 69 3c 70 ac ea 3c 81 83 50 3c f8 49 fb bc
       0.014248226 0.028646678 0.0127266655 -0.03067492
000110 a9 76 64 bc 6e 5d 8b bc 85 0b de bc 70 0b 8e bc
       -0.013944306 -0.017012324 -0.027105102 -0.017339438
000120 ca e1 8b 3c db f4 72 3c f7 56 9b bc cf 09 30 bc
       0.017075438 0.014828886 -0.018962367 -0.010744526
000130 2c 6f 8e 3c 35 46 ea bb 30 e8 0b 3b cf fd 02 3d
       0.017386995 -0.0071494826 0.0021348111 0.031980332
000140 5b 6f f5 bb 06 bb 00 bd bc 11 3c bb fc a7 47 bc
       -0.0074900812 -0.03142836 -0.0028697094 -0.012186047
000150 85 26 f3 bb 4f 3d ae 3b b1 51 e1 3c 8a b7 b5 3c
       -0.0074203634 0.005317367 0.027504774 0.022182245
000160 74 6d 8c 3c 8a 85 83 ba 7b 68 71 bc 87 60 a6 bb
       0.017142035 -0.0010034305 -0.014734383 -0.005077425
000170 2d e9 8a 3c 19 ca c9 bc cd 18 15 bb ac 1c 9e 3c
       0.01695689 -0.0246325 -0.0022750378 0.019300781
000180 e8 98 04 bc 34 db 07 3d 60 7f a8 3c a2 5e 5e 3c
       -0.008093096 0.033168033 0.02056855 0.013572367
000190 bb 32 b9 3b 40 0e 07 bc 4e fa a7 3c 68 15 a4 3c
       0.0056517995 -0.008243144 0.020505097 0.020029739
0001a0 d3 ef e6 bc be 65 99 bc a5 39 80 bc 5c 07 e1 ba
       -0.028190529 -0.018725272 -0.015652487 -0.0017168331
0001b0 74 eb f3 bb bb e0 6e bc 4c 17 eb bc 0f 49 d8 bc
       -0.0074438397 -0.014579947 -0.028697632 -0.026402025
0001c0 70 89 03 bb 90 9e 6e 3b a9 d4 5d bc 50 c8 3c 3c
       -0.0020070933 0.0036410429 -0.013539472 0.011522368
0001d0 02 fe ab bc 09 41 51 bb 8f 6f 0c 3d 8e 6d eb bc
       -0.020995144 -0.0031929633 0.034286078 -0.028738763
0001e0 88 00 31 3c 69 e3 c9 bb ed 97 6e 3a 87 6c d9 bb
       0.010803349 -0.0061611426 0.0009101618 -0.006635252
0001f0 5e e5 76 bc 29 92 19 3c 83 fb 4c bc 01 b8 05 bc
       -0.015069334 0.009373226 -0.012511137 -0.008161546
000200 6c 7e a5 3c 24 3c 9f 3c b2 96 ae bb a0 ab ee bc
       0.020201884 0.019437857 -0.005328023 -0.029134572
000210 0a df 85 3b ec 10 9a 3b 64 7b 91 bc f8 ab 11 bc
       0.004085426 0.0047017243 -0.017759033 -0.008891098
000220 6f 36 31 bc fa 3a 7a bc 36 b5 e5 3c 80 5f f8 3c
       -0.010816201 -0.01527285 0.02804051 0.030318975
000230 bd 4b 9b 3c 9c 65 f2 3c 8e 8f 57 3b 0b 96 95 bc
       0.018957013 0.029589467 0.0032891962 -0.018260023
000240 9c 97 d2 3c a5 4d 00 bd a0 5d 79 bc 62 b9 71 3c
       0.025707059 -0.031324048 -0.015220076 0.014753671
000250 18 10 92 b9 06 66 c6 bc 37 b6 c3 3b 71 d4 be 3c
       -0.0002785928 -0.02421857 0.0059726494 0.02329466
000260 c5 d5 83 bb a8 f5 8a bc 2b 42 de 3c 48 83 df bb
       -0.004023286 -0.016962841 0.02713116 -0.00682107
000270 c4 c8 18 3d 7f 4f 9e b9 40 6d de 3b c0 08 fd 3c
       0.03730084 -0.00030195338 0.006787926 0.030887961
000280 03 2a 08 3c a9 00 a4 ba 10 10 88 bb d5 a6 06 bc
       0.008310798 -0.0012512404 -0.0041523054 -0.008218487
000290 88 f1 52 bb 0f 00 20 3c 4b e0 17 3c cb c5 03 bc
       -0.003218742 0.009765639 0.009269784 -0.008042763
0002a0 01 d7 00 bc 3c 34 55 bc cd 19 85 bc c6 10 52 ba
       -0.007863761 -0.013012942 -0.016247654 -0.00080133637
0002b0 50 12 af bb 64 87 b7 3b 0f 73 96 3c ac 4f 4a bc
       -0.005342759 0.0056008566 0.018365411 -0.012348097
0002c0 69 c9 12 bd 3e 9b af bc 8b 9a 46 3c a4 ad ed 3c
       -0.03583661 -0.02143633 0.012121807 0.029013462
0002d0 32 cf 81 3c e7 39 de ba 1a fd cb bc 4c a1 ca bc
       0.015845869 -0.0016954512 -0.024900962 -0.024735115
0002e0 e3 1b ad 3c 16 1a a4 bc 16 22 e4 bc 95 a7 02 3c
       0.021131461 -0.02003197 -0.027848285 0.007974525
0002f0 6b 64 c6 3c 0d 41 90 bb 4c ae 04 bd 2b 68 82 bb
       0.024217805 -0.004402286 -0.032392785 -0.003979703
000300 f6 c8 39 3b bf ac 31 bc 70 44 ac 3b 9b a8 a2 3b
       0.0028348542 -0.010844409 0.005257182 0.004963947
000310 83 d9 fb bb e2 dc fc 3b 33 30 7c 3c 97 d6 1e 3c
       -0.0076858415 0.007716761 0.015392351 0.009694717
000320 c6 2c f1 3b 05 b6 e6 bc 50 9e 65 bc 77 35 14 3c
       0.0073600737 -0.028162966 -0.014014795 0.00904595
000330 29 26 b3 3c 34 d9 94 bc 22 40 d3 3c f1 eb 8d 3b
       0.021868782 -0.018169977 0.025787417 0.004331105
000340 b2 2b ed bc 00 d1 01 bd a9 31 a1 bc 86 fb ba b9
       -0.0289515 -0.03169346 -0.019677 -0.00035664084
000350 f3 a8 5a 3c 87 3f e8 bc 13 aa 5c 3c 0e fd ae 3b
       0.013345945 -0.028350605 0.013468283 0.005340225
000360 6b e5 6c 3c 05 4d c0 bc 01 e9 10 bd 66 c5 86 bc
       0.014458994 -0.023474226 -0.03537846 -0.016451549
000370 5a 5e 6e 3c a2 43 b7 3c b0 54 b4 bc 03 6e 2b 3c
       0.014548862 0.022371117 -0.022013038 0.010463241
000380 1c ee 6a 3c 37 b3 9f bc 45 b6 f4 ba 9f 5f a4 3b
       0.014338996 -0.019494636 -0.0018670043 0.0050162817
000390 91 2c da 3c 00 47 14 bd 80 26 ab bc ee 6f b7 3c
       0.026632579 -0.036200523 -0.020892382 0.02239224
0003a0 20 80 65 3b 62 66 c5 3b 9a cb 1f bc 48 9e 82 3c
       0.0035018995 0.006024168 -0.009753132 0.015944615
0003b0 93 34 bf 3c f9 7b 13 bd 9c d1 05 bd 0f 11 18 bd
       0.023340499 -0.0360069 -0.032670602 -0.037125643
0003c0 ec 79 90 3c 2a 3a 82 3c ce 3d 8a 3c 1c 6f d7 bb
       0.017636262 0.015896875 0.016875174 -0.0065745246
0003d0 85 78 eb bc ae 25 06 3c 87 30 63 3c 00 91 fb bb
       -0.028743992 0.0081876945 0.01386655 -0.0076771975
0003e0 26 3d 7f bc a3 f8 0b bd 63 c0 1a bc 25 df 0f bd
       -0.015578544 -0.034172665 -0.009445283 -0.035124917
0003f0 d2 b3 4f 3b 1c 8d 2b 3c 6b f4 98 bc c9 b4 0b bd
       0.0031692875 0.010470655 -0.018671235 -0.034107957

fc1.bias f4 [32]
000000 98 3d fa bc 72 bc a9 bc 08 0c 2b 3c b3 9d 8e bc
       -0.030546948 -0.02071974 0.01043988 -0.017409181
000010 68 cf f8 bb c7 d5 c5 bc 97 cc 88 3c 37 1e 32 3c
       -0.007593084 -0.024149789 0.016699119 0.010871462
000020 2e 82 af 3c 8c d8 79 3c 43 f7 de 3a a3 75 d5 bc
       0.02142438 0.015249383 0.0017010946 -0.02605707
000030 b4 c8 04 bd 99 2f 88 bc 64 94 1b bd bf 58 18 3c
       -0.032417968 -0.016624259 -0.037983313 0.0092985025
000040 d3 43 d9 3c 9b 25 6d bc 97 ce 06 bd 60 44 ff bb
       0.026521599 -0.014474298 -0.032911863 -0.0077901334
000050 f7 08 e7 bb d3 cd f5 bb 9a 36 70 3c f5 d9 18 3a
       -0.0070506292 -0.007501343 0.0146614555 0.0005830818
000060 89 73 09 bc 8a bd 06 bd ae 0f 17 bd 31 07 53 bc
       -0.008389362 -0.032895602 -0.036880188 -0.0128801325
000070 b8 7f 1e bc b1 f5 27 3d 1a bc 06 bd 9b a2 94 3c
       -0.009674005 0.041005794 -0.03289423 0.018143943

fc2.weight f4 [1, 32]
000000 3d 06 16 be 93 d1 3c ba 9d 08 18 3e 06 30 af bd
       -0.14650817 -0.000720286 0.14847036 -0.085540816
000010 dd 8d 4b bd 6b 5c 97 3d a4 2b 26 3d 11 1a 7c bd
       -0.04969584 0.07390674 0.040568963 -0.061548296
000020 85 0d 45 be bc d6 98 3a 50 70 7a bd ee 5c 2c 3b
       -0.19243439 0.0011660676 -0.061142266 0.0026300508
000030 ac 97 1a 3e 17 fc 1f 3e fc a4 fb bd f2 88 84 39
       0.1509692 0.15623508 -0.12287328 0.00025279034
000040 8f 2d 77 3d 14 bc 75 bd 65 8f 23 3e e9 b9 de 3d
       0.060346182 -0.05999382 0.1597267 0.10875303
000050 6d 35 77 bd ec 1f 50 3d b9 ee 04 be 00 07 a8 bd
       -0.060353685 0.050811693 -0.1298169 -0.0820446
000060 a7 66 e2 bb 33 a9 78 3d 1d 90 35 3e 56 d9 03 3e
       -0.00690921 0.060708236 0.17730756 0.12875876
000070 1e ab 34 3d fc 6b e4 bd 32 62 41 3b 7b f7 a0 3d
       0.044108503 -0.11153409 0.0029507992 0.07859703
