models/saved_models/CNN_1D_2.pth (torch, 258908 bytes, 7 tensors)

conv1.weight f4 [32, 12, 1]
00000000: db4e 42be e256 233e a2fd 6a3e 912c cc3c
00000010: b6da 53be f04c 313e 3568 363d 28c4 1a3e
00000020: e3b3 493e f854 80be ef0b 243e 7b9f 053e
00000030: f7e0 9ebe 1a2f 013e 6b95 0fbe 5cf5 2e3e
00000040: 4538 59bc 3948 80be f76f be3d ab68 d53d
00000050: ab72 9dbc 3cb5 81be 8644 233e 1a01 283e
00000060: f645 00bd e1e2 193e 899e 363e c349 073d
00000070: c4af dcbd 289d 21be d828 5fbe 7832 4c3e
00000080: ec16 f5bd 63d4 3cbe 91f3 57bc c438 373e
00000090: a129 0fbd 5f07 663e 4a51 713e a914 b23d
000000a0: fe71 69be 8099 b0bd 6085 a9be 94a6 82bd
000000b0: 1ca1 8ebe 162a d4bd ac85 cbbc d856 3a3e
000000c0: 418c 07be fcc6 97bd 570f 00bc e7f7 003e
000000d0: 500d 723e 2977 5bbd efef c8bd 0407 1d3e
000000e0: c337 19be bea3 883e ccf7 cebc 4594 123e
000000f0: cc0f 213e 44e9 393d 72ed 86bd c6b4 1b3d
00000100: 4f34 86be 3ae9 6d3e 80f3 8e3d a72a 8dbe
00000110: 4b9f f23d 4d33 a7bd 1794 6a3e 99cd 0a3d
00000120: 31b3 483e d48f f7bb 2e13 58be 2bb1 73be
00000130: 2753 83be e03b 5abe 5cb7 99be 8518 bdbd
00000140: cfe0 463e f0aa ab3e 6c35 3abe 000f ccbc
00000150: c422 90be 3d88 7bbd 35e7 823e 56c6 8abe
00000160: bb29 f63c 7fd8 98be 8ec9 22bd 49d9 22be
00000170: 1687 18be 81bb 0d3e aa62 3fbe 6767 743e
00000180: 45f7 183e a389 603e 1f7a 70be 92f1 77be
00000190: 8b3f 8dbe cb25 913d fd77 993e 0733 cdbd
000001a0: 4bff f8bd 3218 05be 9e25 9dbd ed12 0a3d
000001b0: b079 d7bd c753 e4bd c729 8dbe 38f4 a1bd
000001c0: f94a c4bd 929a 71be e9b9 d93d 7f8e 883d
000001d0: 99eb 42be 269d cf3d 8c45 80be 8d1e 073d
000001e0: 4be3 43be 800f 2e3e a2e5 eabc 444c 67bd
000001f0: 357c b5bd ec38 08bc 516f 2e3e 84a3 30be
00000200: 9077 85bb 4472 e1bd c61f bb3d ea10 59be
00000210: 3b73 863d 4c23 683e bdcf 363c 008f 88bc
00000220: e22e 833d b26d f03d 3441 2e3e 96d1 2b3e
00000230: 824f debd e915 16bd 487f ae3d 41b5 833e
00000240: ba1e 4fbd cc80 b3bb a8a7 ad3e 03f9 603e
00000250: 4bde a6bd 4829 943e 6d27 d5bd 6781 39be
00000260: c480 4c3e 24f0 89be 9f29 90bd 4f60 13be
00000270: 6bfa 9bbd 6155 813e ce0c a93b cc75 823e
00000280: f4b4 853e 4308 69bd ea34 c13d 38b1 92bd
00000290: 5a3e af3e 0d2d 843d 6072 073e 3e5c 22be
000002a0: 9015 98bd dbf2 8c3e a734 603c aaef 4dbd
000002b0: 13d9 83ba bb69 e93d 2959 15be 66fd 99be
000002c0: 015d 08bd 0e48 f23d 46a2 e73d 0d70 e4bc
000002d0: 3a42 c13e 9562 4bbe 099b 62be 86b0 1e3e
000002e0: 9a6f 693e f629 03bd 5569 57bd e172 cebd
000002f0: e6b6 f0bb c1d9 20be 35a5 f73d bf69 053b
00000300: a956 c93d 0c58 763e d579 afbe 0c29 9bbd
00000310: 1649 8b3e c06f 863e 683f d7bd 04dc 03be
00000320: 2abd 333e 3ae4 37be cf83 323e c7ac 7fbe
00000330: 9a0a e3bd 5097 9f3e 708d ddbd ffa0 003c
00000340: 33ee 25be ff3f e4bd 3439 3cbe 5beb 5dbe
00000350: 4dba 473e 1ca0 63be eacb ca3d 1573 e6bd
00000360: 6a5e f03d 93f8 833c 4a6e 47be 5652 8ebe
00000370: e3ac e0bd 4953 063e 2f96 ebbd 48a8 0a3e
00000380: dd94 9b3e 6767 8abe 27ed 493d 3da3 113d
00000390: 18ac 343e 4526 3f3c ac3a 3c3d d0e6 e13b
000003a0: e7cf ecbd 7cab 81bd 7881 ff3d 7464 8abe
000003b0: 6624 113e f58d 0ebe de93 39be aeca 523e
000003c0: 85c3 2a3c 857f 733e 8ee7 7cbc 71e4 6cbe
000003d0: 6e47 8abe d5e6 84bd 23f1 353d dac0 793e
000003e0: 7f92 223e 235f 613e f0f4 04be 79d1 42be
000003f0: 7abe 353e f109 853d 1c3a ef3d 124b 6c3e
-0.18975393 0.15951112 0.22948316 0.024923595 -0.206889 0.17314506 0.044532973 0.1511389
0.19697528 -0.25064826 0.16020177 0.13049118 -0.3103101 0.12615624 -0.14021842 0.17085785
-0.013258045 -0.25055102 0.09298699 0.104203545 -0.019219717 -0.25333583 0.15944108 0.1640667
-0.03131672 0.15027954 0.17833914 0.03302933 -0.10775712 -0.15782607 -0.21792924 0.19941127
-0.119672626 -0.18440394 -0.013180629 0.17892748 -0.03495181 0.2246375 0.23566166 0.08695347
-0.22797391 -0.08623028 -0.3310957 -0.063794285 -0.27857292 -0.1035959 -0.024844013 0.18197191
-0.13237096 -0.07411 -0.007816157 0.12594567 0.23637891 -0.053580437 -0.09811389 0.15334707
-0.14962678 0.26687425 -0.025264643 0.14314373 0.15728682 0.045388475 -0.06588258 0.038014196
-0.26211783 0.232335 0.06980038 -0.27571604 0.11846789 -0.08164082 0.22908054 0.03388748
0.19599606 -0.0075549874 -0.21101066 -0.23798053 -0.25649378 -0.21311903 -0.30022705 -0.09233192
0.19421695 0.33528852 -0.18184441 -0.024909496 -0.28151524 -0.061409224 0.25567022 -0.27104443
0.030049196 -0.29852673 -0.039743 -0.159032 -0.14895281 0.13841058 -0.18689981 0.2386757
0.14938076 0.21927504 -0.23484086 -0.24213246 -0.27587542 0.070872866 0.29974356 -0.10019498
-0.12158068 -0.12997511 -0.076731905 0.033709455 -0.10521257 -0.11148792 -0.27570936 -0.07907909
-0.095846124 -0.2359412 0.10631163 0.06667804 -0.19035186 0.101373956 -0.2505306 0.03298812
-0.19129674 0.169981 -0.02867395 -0.056469217 -0.08861581 -0.0083143525 0.17034651 -0.17249876
-0.004073091 -0.110081226 0.0913692 -0.21197858 0.06564947 0.22669715 0.011157927 -0.01666975
0.064054266 0.11739673 0.1701706 0.1677917 -0.10855009 -0.03664199 0.08520371 0.25724223
-0.050566413 -0.0054780003 0.33916974 0.2196999 -0.08147868 0.28937745 -0.104079105 -0.1811577
0.19970995 -0.26941025 -0.070391886 -0.14392208 -0.07616123 0.2526045 0.005158997 0.25480497
0.2611462 -0.056892645 0.09433921 -0.07162708 0.34227258 0.06453905 0.13227224 -0.158555
-0.07425988 0.27529034 0.013684428 -0.05027739 -0.00100592 0.113971196 -0.14584793 -0.3007614
-0.03329182 0.118301496 0.11310248 -0.027885461 0.3774584 -0.19861825 -0.22129454 0.15497026
0.22796479 -0.03202244 -0.052590687 -0.10080505 -0.007346022 -0.15708067 0.120920576 0.002035722
0.09830982 0.24057025 -0.34272638 -0.075761884 0.27204198 0.26257133 -0.10510141 -0.12876898
0.17552629 -0.17958155 0.17433093 -0.24968253 -0.110860065 0.3117013 -0.10817993 0.007850884
-0.16204147 -0.11145019 -0.18381196 -0.21671812 0.19504662 -0.22229046 0.09902175 -0.11252419
0.11736758 0.01610974 -0.19475666 -0.27797192 -0.109704755 0.13117708 -0.115032546 0.13540757
0.3038701 -0.27032015 0.04929843 0.035556067 0.17643774 0.011666839 0.04595439 0.00689397
-0.11563092 -0.06331536 0.12475866 -0.27029765 0.14174041 -0.1392134 -0.18122813 0.20585129
0.010422592 0.23779114 -0.015436066 -0.23134018 -0.27007622 -0.0648934 0.04441942 0.24389973
0.15876196 0.22008948 -0.12984061 -0.1902522 0.17748442 0.06496037 0.11681005 0.23075512

conv1.bias f4 [32]
00000000: 279d 413e 2af7 a63c 5117 8c3e 8456 633e
00000010: 09d8 9e3c 9abd 21be 9d8e 58be 1f6e 78be
00000020: d8d4 90bd e550 b43d 70f8 f13d 2a78 85be
00000030: b3d3 4f3e a7e9 bf3b d3b4 29bd 348f a63d
00000040: a075 65bd c7ae 30bd 4c06 353e 4728 36be
00000050: 08bb 943e 595e 163e 8aef c83d 6627 493e
00000060: b595 65be 8f9b 8fbd e20d 5c3e 5211 fabd
00000070: 488f c73e 1f52 6f3e eda3 963e b486 90bd
0.18907605 0.020381529 0.2736154 0.22200972 0.019390123 -0.15794984 -0.21148153 -0.24260758
-0.07071847 0.08804492 0.11814964 -0.2606824 0.202956 0.005856711 -0.041432213 0.081327826
-0.05602038 -0.04313543 0.17678183 -0.17788802 0.29048944 0.14684428 0.098113135 0.19643936
-0.2242039 -0.07012092 0.21489671 -0.12210335 0.38976502 0.2337117 0.2942194 -0.070569426

conv2.weight f4 [64, 32, 1]
00000000: 96a6 e7bc 8ae0 00be f236 39be 2bf6 d3bc
00000010: 3d00 0f3e 30a5 aabd 7859 a2bb a6dd 1fbe
00000020: e6c3 c9bb f1c4 0f3e fb55 1c3d 6fcc 36bd
00000030: 578c b7bd 1c38 ef3d 90b1 243e 6cbd b73d
00000040: fd5e 6a3d 5401 823d 3abf cc3d cd2f c3bd
00000050: b9be fa3d 97e7 57be 8b18 3cbe a074 9a3c
00000060: f347 36bd 6d6b 07bc 7a5f 9a3c c96a 62bc
00000070: d966 913d bfa5 3c3d fa5c b43d 8902 eb3d
00000080: 180a afbd 2207 ba3d 47fd fdbc c5a7 31bd
00000090: 8b2f 0e3e fca7 e23d 160f 0e3e 442e f23d
000000a0: 58a1 09be 1808 f7bd bc22 793d 4098 88bb
000000b0: 7803 1a3e 7e73 43be 182b fc3d 4f03 8a3d
000000c0: b79e 1c3d b019 ea3d 236a eb3d 1bfe 11be
000000d0: 0a2d 53bc 1015 b9bd f631 adbc 7c5c 2cbc
000000e0: 6721 273d b459 56bc cc97 cdbd 7df3 1bbe
000000f0: 87e4 2dbe 8d1c 143d 3bbb fcbc 4411 093e
00000100: f0f9 8cbc ed3d 143e a4b4 0b3e a060 a6bd
00000110: f161 52bd 5e71 8d3d d93c 81be f588 08be
00000120: fd9f 51bd 69c5 0bbe 1823 c8bd d4d6 fbbd
00000130: d72a 28be ec81 62bd 0aa8 bdbd 74b4 81bc
00000140: 2cdf 423d 5ae7 3abd 69bc 6bbd b00d 703d
00000150: 943f 863d 3628 39be f1c5 37bd 8805 da3d
00000160: 7222 063c 1126 033e 5aa3 2f3d 8354 40be
00000170: 4f53 863d 7a46 48bd 8e31 623e 6b11 30be
00000180: eeea b73d 6550 d9bd d740 303e af3e 45bd
00000190: 98e7 033e d8d2 25be 282b 853d 5ab2 4abe
000001a0: 13d4 cebc 239a 0dbe ae3a ee3d dc40 a6bd
000001b0: 678e 663b 25a4 28be fd7c 3cbd 02bc 073e
000001c0: 36ee 063e af57 143e 5d62 37bd a61f 0c3e
000001d0: 3081 a6bd 30c1 a6bd bb36 debd 2e6f aabc
000001e0: 0f7e d5bd cb92 2fbc 30c3 793b 59b0 0fbe
000001f0: 38f9 06be 869a 2e3d b2c6 003e 9f33 733d
00000200: 6f91 283c a945 eabd 5ae7 183e da31 1b3d
00000210: d8fc 4bbe b38c 543e f616 703d 42d7 43be
00000220: 3fed aa3c 3b0b e83d c591 6ebd 009a 6d3e
00000230: 2e48 963c 7eb0 d0bd c2a6 973d 5b26 eb3d
00000240: d445 5f3c 5a14 e7bc acbf 24be a77f 3f3e
00000250: 6a9f b53d 7154 6a3d 39e0 14be 1e8b 10be
00000260: f603 413e 3600 52be 6972 ac3c f27a f7bc
00000270: 92b9 ce3d 5f47 8fbd 06ec e0bd 6995 d8bd
00000280: e215 153e 1566 033e ee61 083e 3df3 a03c
00000290: d0f9 34be a3f9 343e 5a22 2ebd 88f4 93bd
000002a0: d1a5 aa3d d851 fcbd c23d ef3d bcce 383d
000002b0: 72db 0a3e ce89 4e3d 4791 1b3d e872 513d
000002c0: 3a3a 893d af72 9e3d 97dc 373e 6a61 fdbd
000002d0: f348 c6bd a79c 533c 9f62 753d 62ce 42bc
000002e0: a7cd 3ebe 9a87 35be fa96 183e d211 523e
000002f0: 7734 903d f689 0c3d a460 22be 738a 2b3b
00000300: 3207 ee3d cb22 433d f8d4 063e 0eca a23d
00000310: 264c 283e e7b5 dcbd 91f6 dbbd ffd7 bfbd
00000320: 6eb9 babd c892 04be 70ac 5bbe fbb7 1cbe
00000330: 260a 07be 6786 0cbd 4e24 f83d 5713 a4bd
00000340: f7af b8bd 8ee7 f43d baf1 c53d 73c9 0fbe
00000350: 62f8 1f3e 5e38 933d d182 493d 8831 d6bd
00000360: d6c7 24bd 8ee5 c9bd 105b 01be 803c eabd
00000370: 7128 d93d 5557 44bd 60b3 093d e4a9 df3d
00000380: c7e8 f3bd a038 253d dc6f 2b3d 9bc2 b63d
00000390: 6039 9fbd 504f 223e 8ac6 9cbd 7776 12be
000003a0: d74c 4abe 7f09 d03c 713a f1bd 8f0f 2dbe
000003b0: 7928 13be f67f a23d e0c3 603c 7733 fabd
000003c0: 4fef 313e 83b1 d23d 325d 203e ba24 8cbd
000003d0: a4aa 09be 6ca5 2f3e 4f63 2abe 1515 1b3e
000003e0: dcb3 413e 7cb9 033d 45de 213d 692e 013e
000003f0: 62b8 af3d 0447 263e 7706 e3bd 2f23 f03d
-0.028277677 -0.12585655 -0.18087366 -0.025874218 0.13964935 -0.08332288 -0.004954513 -0.15611896
-0.006157386 0.14039971 0.038167935 -0.044628557 -0.089623146 0.11680624 0.1608336 0.08971676
0.057219494 0.063479096 0.09997411 -0.09530602 0.12243409 -0.21084438 -0.18368737 0.01885444
-0.04450221 -0.008265358 0.018844355 -0.013819405 0.07099695 0.046056505 0.08806796 0.11475093
-0.08546847 0.09083392 -0.031004561 -0.043372888 0.13885324 0.11067197 0.13872942 0.11825231
-0.13440454 -0.12062091 0.06082414 -0.0041685402 0.15040386 -0.19087026 0.12312907 0.06738912
0.0382373 0.11430681 0.11494853 -0.1425709 -0.012889156 -0.090372205 -0.021141987 -0.010520097
0.04080334 -0.01308291 -0.100387186 -0.15229602 -0.16981708 0.03616004 -0.030850997 0.13385493
-0.017209023 0.14476748 0.13643128 -0.081238985 -0.051362935 0.06906389 -0.25241736 -0.13333495
-0.051177967 -0.13649525 -0.097723186 -0.122968346 -0.16422592 -0.055299684 -0.092605665 -0.015833117
0.047576115 -0.04563079 -0.05755273 0.058606803 0.06555095 -0.18081746 -0.044866506 0.10645586
0.008186923 0.1280749 0.042880394 -0.18782239 0.065588586 -0.048895337 0.22089216 -0.17194144
0.08980356 -0.10611037 0.17212234 -0.048155483 0.12881315 -0.16193712 0.06502372 -0.19794598
-0.02524761 -0.1382833 0.11632286 -0.0811784 0.0035180093 -0.16468866 -0.046017636 0.13255313
0.13176808 0.14486574 -0.04477154 0.13683948 -0.08130109 -0.08142316 -0.10850283 -0.020804968
-0.104244344 -0.0107161505 0.0038110726 -0.14032115 -0.13181007 0.042627834 0.12575796 0.0593754
0.01028858 -0.11439068 0.14932004 0.03788934 -0.19920671 0.20756797 0.058615647 -0.19125083
0.02086508 0.11330267 -0.058244485 0.23203278 0.018344965 -0.10189913 0.074048534 0.11481925
0.013627488 -0.028207947 -0.16088742 0.18701039 0.088682964 0.057209436 -0.14538659 -0.14115569
0.18849167 -0.20507893 0.021050649 -0.030209992 0.100939885 -0.06996035 -0.10982518 -0.10575373
0.14559129 0.1283191 0.13318607 0.019647235 -0.17673421 0.17673354 -0.04251323 -0.07224375
0.08332408 -0.12320298 0.11681701 0.045119032 0.13560274 0.05042439 0.037980344 0.051134974
0.06700559 0.07736718 0.17955242 -0.12372096 -0.09681883 0.012915767 0.059908506 -0.011890026
-0.18633138 -0.17727509 0.14901343 0.2051461 0.07041257 0.034311257 -0.15857178 0.0026175051
0.11622466 0.047640603 0.13167179 0.07948695 0.16435298 -0.107768826 -0.10740388 -0.0936737
-0.09117399 -0.12946618 -0.21452498 -0.15304558 -0.13187465 -0.034307864 0.121162996 -0.08011501
-0.09017938 0.11958228 0.09665246 -0.1404169 0.15622094 0.071884856 0.049197022 -0.10458666
-0.04022964 -0.09858237 -0.12632394 -0.11437321 0.10603417 -0.04793485 0.03361833 0.10921076
-0.11909633 0.040337205 0.041854724 0.08923837 -0.07774615 0.15850568 -0.07655056 -0.14303003
-0.19755875 0.025395153 -0.11778725 -0.16900466 -0.14370908 0.07934563 0.013718575 -0.122168474
0.17376445 0.10287764 0.15660551 -0.068429425 -0.13444 0.17152947 -0.16639446 0.15144761
0.18916267 0.032159314 0.039518613 0.1261536 0.0858009 0.16238028 -0.110852174 0.11725461

conv2.bias f4 [64]
00000000: 2017 4b3d 62c3 6f3b 8984 023e 6299 343e
00000010: 3ab5 fabc 6eab 6dbd 2943 c6bd 6d81 29bd
00000020: 58a4 16be 9bbd 1abe c2a6 073e eee7 0dbe
00000030: fb3f 2f3d 4e5e b53d d0f4 af3d 04c5 c5bd
00000040: 6746 fb3d 9e0d fb3d ebb8 b8bd 0cbb 423d
00000050: 9750 1a3e aac0 f9bd e306 f1bd 916e 0bbe
00000060: 3854 133e 38ff c6bd 00dd 0d3e aa5b a9bc
00000070: 824d 03be e99b 1bbe 20cb 37bc 78aa 9ebc
00000080: ce08 cebd 0339 ca3c 824f b83c bc3a 77bc
00000090: 0192 7dbd 6a41 1fbe d94e 9a3d 27d8 98bd
000000a0: af08 d83d a977 ee3c b098 003d 1492 343e
000000b0: f686 0dbd b16f a7bd a4ea 0abe 7641 21be
000000c0: d604 90bd fef9 fbbd 818a 19bc a17d 79bc
000000d0: 2303 f03d a905 a9bd 279f b8bc dd4a 8bbd
000000e0: 4e63 f93d 38f5 ce3d 79ed ed3d 6974 3b3d
000000f0: 543c a7bd d62f cdbd 76c9 903d e289 89bd
0.0495826 0.0036584963 0.1274587 0.17636636 -0.030603994 -0.058024816 -0.096807785 -0.041383196
-0.1471113 -0.15111391 0.13247207 -0.13858005 0.042785626 0.08855878 0.08591616 -0.096567184
0.122692876 0.12258457 -0.09019645 0.047541663 0.15069805 -0.12194951 -0.11768892 -0.13616396
0.14387596 -0.09716648 0.13853836 -0.020673592 -0.12822536 -0.15196194 -0.011217862 -0.019368395
-0.10060273 0.024685388 0.02249885 -0.015089687 -0.06190682 -0.15552297 0.0753457 -0.07463103
0.10548531 0.029109793 0.031395614 0.1763385 -0.034552537 -0.081756 -0.13566071 -0.15747628
-0.070321724 -0.123035416 -0.009371401 -0.015227706 0.11719348 -0.08253033 -0.022536827 -0.068013884
0.12177144 0.101053655 0.1161756 0.045765314 -0.081658036 -0.100188896 0.070696756 -0.06715752

fc1.weight f4 [32, 1920]
00000000: 7904 923b 175c 60bb 8c1c debc 4d4b b5bc
00000010: 32f3 6fbc 15fe 823a 5a9d 5f3c 77cd a3bc
00000020: b655 a13b 9130 3cbc efab 243c 1833 94bc
00000030: 4e83 49bc 4cba 09bc 6246 e3bc 0f1d adbc
00000040: e093 6cbc f10a 0dbc 61f7 b7bb aa70 62bc
00000050: 8c29 faba d7cf 343c 98e8 f1bc d70c ae3a
00000060: e27a 49bc f3dd 97ba fd40 dabc 849d e8bc
00000070: d861 9cbb f2d0 1b3c bdd9 9cbc 9d82 e4bc
00000080: a27c 843c 7b89 4b3c 52ff 59bc 098e ca3b
00000090: 12b3 2bbc 37b7 9cbc a739 ad3b 31a7 013a
000000a0: 1787 933b d4da bfbb 4241 d23b fa59 24bb
000000b0: c111 83bc 5463 a6bc 576e 343c 36bb 053c
000000c0: 1b24 aebb 59e6 7cbc bc03 c7bb 87b5 71b7
000000d0: 281f 75ba bad4 ed3b 7e8c a3bc a574 243c
000000e0: a5df ddbc 7053 3f3b 0f67 02bd 26b4 98bc
000000f0: b29b 883c 5a15 d5bc ae4b 903c 8e33 a23b
00000100: 225d 47bc f519 903b 2cf7 19bc 609b 68bc
00000110: 8e51 a53c 97d4 7ebc e1f1 74bc 76d0 ce3b
00000120: fb8e b13b d93b bb3c d081 6ebc 9201 523c
00000130: dfcf a03c 0fe9 1c3b c781 113c 7dad 053c
00000140: 5794 8c3c c20b a53c 15c8 9dbb e8c4 a93c
00000150: eaad 833c c6ed 1c3c 4edc a93c bcba b23b
00000160: d876 3738 0466 43bb aa5c 773c 2824 773b
00000170: ab6a 13bb 4835 2dbc de0a 01bc 9f3d fcbb
00000180: 1402 d83c f2c2 ddba e4f5 6dbc 2e83 1ebc
00000190: 7866 aa3b b265 babc dfa0 73bb 6e6d 1abc
000001a0: a23c 29bc 30f8 273c 8beb e7bb 3f77 e63b
000001b0: bb3c f137 e861 12bc 4f63 843c 0baf 49bb
000001c0: eb31 973b 1151 113c cde5 b03c 1221 babb
000001d0: 87a5 82bb c216 e6ba 35ea 99bc 17d7 27bc
000001e0: 67f0 3d3c 4259 04bc 4633 92bb 44a1 84bc
000001f0: 3924 99bc 93bb 08bb e148 02bc f03b 8bbb
00000200: 2814 45bc 7c3a dfbb 5957 83bb c255 26bb
00000210: f327 cbbc feaf 0ebc 8fda 733c 2db4 5b3b
00000220: 0b46 64bc 25b2 073c 94c9 9dbc b1c0 7a3b
00000230: 80a2 ca3c 266c fc3b 7730 5b3c cbb0 4d3c
00000240: a410 f73b ab97 adbc 2a74 d83b 4ea8 b2bc
00000250: 0876 99bc 9e65 9fbc 4167 bbbc 3abe 96bc
00000260: 8eb5 82bc 6d67 5e3a a011 aebc 71b9 5f3a
00000270: 1b7a 7cbc 890c b4bc 7896 52bc 3eeb 2fbc
00000280: efa3 b83a 015f 393b 8a60 a4bc a61d a33a
00000290: 1491 dbbc 0ca3 2ebc 216c 333b cd61 2dbb
000002a0: b426 7abc f623 43b9 6e37 1c3c 320a 3c3c
000002b0: 31a5 49bc 4c44 313b 3583 2a3c 730e c8bc
000002c0: f3e7 6bbc 17c7 49bc 6b82 023b 0222 40bb
000002d0: 86bc e93c 301a 003c 0af6 b43c 27f3 a93c
000002e0: de53 173c ab12 4c3c 7c81 2e3c cdf4 d9ba
000002f0: 5881 a03b 0095 b7bc 6ced 7fbb ab75 7d3c
00000300: 62a6 9a3b a440 bcbc 0d3d bcb9 9260 853b
00000310: 0bd9 803c 7d8c 803c 16e6 b63a e686 56bc
00000320: 6533 503c e2e0 0fbc d65c 193b 29bf df3b
00000330: 5ab0 cf3c 9853 01bc b4d6 acbb bfab c03c
00000340: 6051 e93c 6dbd 833c cb74 09bd 9afc 33bc
00000350: 545e 183c b1db b6bc 2f4a 123b 6244 1cbb
00000360: 0809 7abc 07df 53ba 9f86 c73b 84de 3bbc
00000370: bf51 64bc c128 3d3c 5078 cdbc 9d9e 333c
00000380: 02fd a8bc 1cba a8bc d919 513c d5f0 173c
00000390: 2488 f9bb c5cd 863c 4f57 bdbc ad16 a5bb
000003a0: 20c0 d2bc 9775 41b9 d957 193c ae29 c33b
000003b0: 7ba5 bcbc 8bfd 9bbc 30c6 393b 7a5a 83bc
000003c0: bc0a a73a f8f2 af3c 7e6e d0bc e334 57bc
000003d0: 6649 903c 4114 a73b e4e9 353a ac8e 1bbc
000003e0: 414f 8e3c 73ff a2bb 7caf d7bc 4099 ec3b
000003f0: d819 3d3b 7900 b6bc 161f dbbc 465a 69bb
0.0044560996 -0.0034234577 -0.027113222 -0.022130633 -0.014645385 0.0009993935 0.013648355 -0.019995434
0.0049235476 -0.0114861885 0.010050758 -0.01809077 -0.012299372 -0.008406233 -0.027743522 -0.02113202
-0.014439553 -0.008608566 -0.0056142067 -0.0138208065 -0.0019085868 0.011035881 -0.029529855 0.0013278973
-0.012297364 -0.0011586532 -0.026642317 -0.028395422 -0.004772406 0.009510266 -0.019146794 -0.027894313
0.01617271 0.012422915 -0.013305502 0.0061814827 -0.010479705 -0.019130332 0.0052864137 0.0004945873
0.004502188 -0.005854944 0.0064164707 -0.0025078044 -0.015999677 -0.020311035 0.011012635 0.00816231
-0.0053143627 -0.015435779 -0.006073443 -1.44069845e-05 -0.0009350651 0.007258025 -0.019964453 0.010037576
-0.027084181 0.002919402 -0.031836566 -0.018640589 0.016675804 -0.026011158 0.017614212 0.0049499935
-0.012168201 0.0043976256 -0.009397309 -0.014197201 0.02018049 -0.015553615 -0.014950247 0.0063114716
0.005418656 0.022855686 -0.014557317 0.012817757 0.01963037 0.0023942625 0.008881039 0.008159039
0.017160578 0.020147208 -0.0048151114 0.020723775 0.01607414 0.009578174 0.020734932 0.0054543894
4.3741282e-05 -0.0029815445 0.015097776 0.003771076 -0.0022494 -0.010571785 -0.007876126 -0.0076977755
0.026368178 -0.001691906 -0.014523957 -0.00967483 0.0052002035 -0.02275357 -0.0037174744 -0.009425504
-0.010329397 0.010252044 -0.0070776395 0.007033258 2.8757719e-05 -0.0089344755 0.016160635 -0.00307745
0.004614105 0.008869425 0.021593953 -0.005680212 -0.0039870176 -0.001755439 -0.018788436 -0.0102441525
0.011592961 -0.008077921 -0.0044616787 -0.016190179 -0.01869403 -0.0020863756 -0.007951946 -0.0042490885
-0.012028731 -0.006812392 -0.0040082154 -0.0025380705 -0.024799323 -0.008708952 0.014883651 0.0033524141
-0.013932715 0.008282219 -0.019261159 0.0038261826 0.02473569 0.007703322 0.013378254 0.012554358
0.0075398255 -0.021190485 0.0066056447 -0.02180877 -0.01873304 -0.019457635 -0.022876384 -0.018401254
-0.015955713 0.00084840396 -0.021248639 0.0008534408 -0.015409972 -0.021978633 -0.012853257 -0.010737238
0.0014086942 0.0028285387 -0.020065565 0.0012444749 -0.026802577 -0.010658991 0.0027377682 -0.0026456
-0.015268017 -0.00018610046 0.0095347 0.01147704 -0.012307451 0.0027048765 0.010407259 -0.024420952
-0.014398563 -0.012315533 0.001991416 -0.0029317145 0.028532278 0.007818744 0.022089977 0.020745827
0.009236304 0.012455623 0.010650989 -0.0016628742 0.0048982315 -0.022409916 -0.0039051427 0.015469949
0.0047195414 -0.022980042 -0.0003590364 0.00407035 0.015728494 0.01569199 0.0013954069 -0.013093686
0.012707566 -0.008781644 0.0023401282 0.006828208 0.025352646 -0.007893465 -0.005274618 0.023519395
0.028481185 0.016081536 -0.033558648 -0.010985518 0.009299833 -0.022321554 0.002232205 -0.002384447
-0.015260942 -0.0008082245 0.006089046 -0.011466626 -0.013935505 0.011545361 -0.025081784 0.010963109
-0.020628456 -0.020596556 0.01276251 0.009273727 -0.007615106 0.01645554 -0.023112921 -0.0050381036
-0.025726378 -0.0001844972 0.009359323 0.0059558963 -0.023028126 -0.019041797 0.0028346889 -0.016034354
0.0012744288 0.021478161 -0.025443312 -0.013135168 0.017613124 0.00509885 0.00069394545 -0.009494465
0.017371776 -0.0049742996 -0.026328795 0.0072204173 0.0028854515 -0.022217022 -0.026748221 -0.0035606786

fc1.bias f4 [32]
00000000: a982 2f3b 0820 313b b3cd 28bc a0ff 12bb
00000010: f816 3b39 efcf 8c3a dde3 a0bc 9ccd ad3b
00000020: 501f 413c b57c b9bb 178b 0a3b 6120 003c
00000030: 0cc7 b73c 0ed0 893c 009d 81bc 5459 86bc
00000040: b9f3 483c 51fd 133d 2865 a33c 7378 463c
00000050: 2436 5f39 c9e7 823c c7fe ebbc 781b 6d3c
00000060: 32a3 32bc dc6f af3c 04d0 ed3a 5179 0c3d
00000070: af9a c8bc 690c b038 773b 84bb 7111 aab9
0.002678076 0.0027027149 -0.010302949 -0.0022430196 0.00017842266 0.0010743121 -0.019639904 0.0053040516
0.011787251 -0.005660618 0.0021140033 0.00782022 0.02243378 0.016822841 -0.015821934 -0.016400017
0.012265139 0.036130253 0.019945696 0.012113678 0.00021287106 0.015979664 -0.02880801 0.014471881
-0.010903167 0.021415643 0.0018143659 0.034295384 -0.024487821 8.3946456e-05 -0.004035409 -0.00032437922

fc2.weight f4 [1, 32]
00000000: f3bc 28be 17bc 09be 5e27 0ebe 0bde 5c3d
00000010: 6547 cd3d 7bf3 cd3d 6475 083e c77d 2a3d
00000020: 3d4f 983d 0c63 3fbd 3cff 2cbe 9114 673e
00000030: d284 0fbe 00cf bcbd f39c 813d b895 2d3e
00000040: c0da 993c a7a8 23be 9e09 04be 2560 f93c
00000050: 3b8b c53d 619f 043e 32d8 ef3d ffd4 08be
00000060: 587d 233e 57c5 65be 7f54 d03d 0997 17be
00000070: ce9d 833d 8048 b43d 6b7b cebd b2d5 13be
-0.16478328 -0.13450657 -0.13882205 0.053922694 0.10023383 0.10056206 0.13326031 0.041623857
0.074369885 -0.046725318 -0.16894239 0.22566439 -0.1401551 -0.092191696 0.06328764 0.16951644
0.018781066 -0.15982305 -0.12894294 0.030441353 0.09645697 0.12951423 0.11711158 -0.13362502
0.15965784 -0.2243856 0.10172366 -0.14803709 0.06426583 0.08802891 -0.10082134 -0.14436987
