models/saved_models/CNN_1D_3.pth (torch, 258908 bytes, 7 tensors)

conv1.weight f4 [32, 12, 1]
00000000: ce0f 4a3e 57ab 163d f402 93bd 247f 053e
00000010: 185f 68be 585a 2b3e 0005 45be bb73 25be
00000020: b3f4 0b3d afff 53bc 9e2a 32be 105e a7be
00000030: a516 f93d 7d7f 10bd b106 a3bd 4112 00be
00000040: 4d54 633d 5286 d3bd ef26 893d 00d8 073f
00000050: a9ff 793d 016d 863c b800 f33d e821 9abd
00000060: 8744 babc c86a 163e b9e6 e4bd f90c 463e
00000070: c8e4 ab3a 6f86 833d da57 82be 8920 1f3e
00000080: 6bec 823d dc44 213e 9cb9 1a3e 91c6 86bd
00000090: 179b 533e 7bb7 27bc 34a9 3f3e d6c5 dbbb
000000a0: 6979 0bbe 44c2 3f3c 9678 433e b804 2bbe
000000b0: 5dc8 64bd b6d5 353d 2362 813c 7dc0 853c
000000c0: 17a8 bcbe 6bea db3d 39e0 893e 72c0 053e
000000d0: e1cf 89be ef34 4a3e 7829 d03e f6a8 cc3e
000000e0: 4b07 c7bd 1a8c a0be 2403 ff3d d840 4d3e
000000f0: c4ba 0dbe a416 0abe 1083 5fbe 26a4 09bd
00000100: 6f30 7cbe 970d 143e 08e6 47be 35ab 1a3d
00000110: a259 87be 4191 b0be f21d 35bd ba9b a6bd
00000120: e3f6 29bd 64fe 153e 4f63 933e 7b17 43be
00000130: eb79 d33c 3189 e4be 630f b33e 052d 8a3e
00000140: 7dcc 473c 08a1 c73d 17b1 1d3e 3cea 513e
00000150: 8538 4bbe a1f9 153e 1dcf bf3e 4647 c2bb
00000160: b9c8 4c3e 09fb 3fbe 4e82 053d ec12 a5bd
00000170: 295e 543e 5264 08be bd24 fabd f9c0 6bbe
00000180: a69c 1b3d 3d5d d73d 284a f13e 594b 9ebd
00000190: 99f5 323e fec1 e7bd 6daf 953e 600d ad3e
000001a0: fe44 5f3e a9b3 adbe ec22 2abe 1fca 533e
000001b0: e179 75be 744a 6b3d 70d4 bcbd f4ca 89be
000001c0: 4404 eabc 5373 14be 5c2c c63e 2fa3 f33e
000001d0: c5b3 1abe 07c3 0a3e 4247 18bb 73c3 953d
000001e0: 483b cc3d abe0 6abe 4e0f 5f3e 9ed4 2abe
000001f0: 3c1f 4abe fc6c 023e 4942 93be 472a 20be
00000200: 0e90 063d 3f70 443d b2a4 893d 9671 85bb
00000210: 3030 f0bd d5f3 943e ff38 25be d7f6 dabd
00000220: 64d8 1dbe 3110 a23d caea 693e f825 133e
00000230: ecf7 a1be 26e0 d33d ac65 a2bd e337 76be
00000240: d5a1 2dbe a62f 593e 8bc6 83be 7990 303e
00000250: cddd ccbb 53f0 2e3d 2e90 843d fb2c 09be
00000260: 020b bbbe c07b 963e 45bc 1cbe 7d60 ff3d
00000270: 3f25 2dbe 7c41 a33d 769e 30be 0128 0abe
00000280: 33cc 9dbd 6b20 0a3e 088a d9be 0331 013d
00000290: 79ec 663e fcb9 a33c 085e 83bd 129e 083e
000002a0: a9b0 42be 86e1 963e c16f d73c f2e0 59bd
000002b0: 638b 12be 94ec 84be c742 d83e dd65 56be
000002c0: f10d 8dbb ebcb 76be 1c59 953d 7dce 303e
000002d0: fe95 a0be 39b3 2d3e 5a64 0e3e d804 a73d
000002e0: c2df 833e 0207 d6be 2358 82bc ca2b a23e
000002f0: 09e7 fdbb 75e0 e93d d1d3 743e 6370 893e
00000300: 0631 b3be f947 973c 330c d4bd 40ba c13d
00000310: c6c3 223e 4165 be3d bf3a 3a3e c59e 09bd
00000320: d66f d13e 5bbc 0a3d 36b1 9c3e 1168 6fbe
00000330: de08 793e fb66 6b3e 4544 1ebe 10b4 02bc
00000340: 3f81 96bd ed98 b7bd 279c dfbe aa82 5dbe
00000350: 8694 febd 480d 133e ca49 133d 7f82 753e
00000360: b0c5 0fbc a2be c73d b97c 8e3e e245 843e
00000370: 282a a2bd d00a 93bc 2fa8 bdbd 21ee c33e
00000380: 5742 f73d c517 273c 6982 1ebe 5b46 5cbd
00000390: e214 03bb cc87 0dbb 2659 0ebe 8fa5 3b3e
000003a0: afba 47be d1ed 393e a8c3 d53d 0b52 503e
000003b0: 9048 843e 425a b9bd 9be3 07bd 2108 f6bc
000003c0: d5b0 1dbd 8f07 5dbe a282 71be 0f58 523e
000003d0: 090b 0dbd f51b 383e 0543 47bd 67d0 06be
000003e0: d63b 7ebc 0541 bd3d 8376 6d3e ef2e 0c3e
000003f0: cdea df3d ea4e 22be 2cc6 b7be 5340 65bd
0.19732592 0.036784496 -0.07178298 0.13036782 -0.22692525 0.16733682 -0.19240189 -0.16157429
0.03416891 -0.012939378 -0.1739907 -0.32688951 0.12162522 -0.035277832 -0.07960261 -0.12506963
0.055500317 -0.10328354 0.06696879 0.53063965 0.061034832 0.016409399 0.118653715 -0.07525998
-0.022737755 0.14689171 -0.11176819 0.19340886 0.0013114447 0.064221255 -0.2545765 0.15539755
0.063927494 0.15748924 0.15109867 -0.06580842 0.20664631 -0.010236616 0.1871689 -0.0067069335
-0.13620533 0.011704031 0.19088969 -0.16701019 -0.055855144 0.044393264 0.015793866 0.016327137
-0.36846992 0.10738071 0.2692888 0.13061693 -0.26916412 0.19746755 0.40656638 0.39972657
-0.09718188 -0.3135689 0.12451771 0.20044267 -0.13840777 -0.13485199 -0.2182734 -0.03360381
-0.24627851 0.14458309 -0.19521344 0.037760932 -0.26435572 -0.3448582 -0.04421801 -0.08135171
-0.041495215 0.14647824 0.28786704 -0.19051926 0.025814971 -0.4463592 0.34972677 0.26987472
0.01219475 0.09747511 0.15399586 0.2049951 -0.19845779 0.14646007 0.37462702 -0.0059289066
0.19998445 -0.18748106 0.03259497 -0.0806025 0.20739044 -0.13319519 -0.122140385 -0.23022832
0.03799119 0.10515831 0.4712689 -0.07729215 0.174765 -0.11316298 0.29235402 0.33799267
0.21803662 -0.33926132 -0.16614884 0.20682572 -0.23972274 0.05744405 -0.09220207 -0.26912653
-0.028566487 -0.14497118 0.3870572 0.47585437 -0.15107639 0.1355096 -0.0023235832 0.073126696
0.099722445 -0.22937267 0.21783182 -0.1668267 -0.19738477 0.12736887 -0.2876151 -0.15641128
0.032852225 0.04795861 0.06720866 -0.0040723784 -0.11727941 0.2909228 -0.16135024 -0.10691612
-0.15414578 0.079132445 0.22843471 0.14369953 -0.31634462 0.10345487 -0.079295486 -0.24044757
-0.16956265 0.21209583 -0.25737414 0.17242612 -0.0062520267 0.04270966 0.064728126 -0.13396065
-0.36531836 0.2939129 -0.15306194 0.124695756 -0.1690874 0.079714745 -0.17247948 -0.13491823
-0.077049635 0.13488929 -0.42488122 0.03154088 0.22551145 0.019986145 -0.064144194 0.13341549
-0.19012703 0.29468936 0.026298406 -0.05319304 -0.14310984 -0.25961745 0.42238447 -0.20937295
-0.0043046405 -0.24101226 0.07292387 0.17266269 -0.31364435 0.169629 0.13905469 0.08155221
0.2575665 -0.41802222 -0.015911167 0.31674033 -0.007748489 0.11419765 0.23908927 0.26843557
-0.3499834 0.018466936 -0.10353889 0.094593525 0.15894994 0.092966564 0.18186472 -0.03359868
0.40905637 0.033871036 0.3060395 -0.23379542 0.24319789 0.22988503 -0.1545573 -0.007977501
-0.073488705 -0.08964715 -0.43673822 -0.21631876 -0.12430672 0.14360535 0.035959043 0.23975562
-0.00877516 0.09753157 0.2782953 0.25834566 -0.07918197 -0.017949492 -0.09260594 0.38267615
0.120732 0.010198538 -0.15479435 -0.053778034 -0.002000146 -0.0021595834 -0.13901195 0.18324874
-0.19504808 0.18157126 0.10437709 0.20343797 0.2583661 -0.090504184 -0.033176046 -0.030033173
-0.03849872 -0.21584915 -0.23584989 0.20541404 -0.034434352 0.17979415 -0.0486479 -0.13165437
-0.015517196 0.09240917 0.2318974 0.13689779 0.109334566 -0.15850416 -0.3589338 -0.055969547

conv1.bias f4 [32]
00000000: 357d 0e3e 1f8d 253e a596 b93d 25b4 123e
00000010: 0ced 923e 90b5 8ebe 74ec 973e 25a3 39bd
00000020: e134 863e 97ed 33be 078d a4be a540 55be
00000030: bf02 97be 44bb 373e 8207 6b3e fa87 92bd
00000040: ea86 503e 4763 80be 9bda 11bd a451 a23d
00000050: 8f4a 2e3e c560 82be 01ac c13d 02a1 53bd
00000060: c976 3d3e debd 35be b54f 3cbe e43a 14be
00000070: 75c4 a0be dac6 5b3e 8595 843d 34da c93d
0.1391495 0.16167115 0.09061936 0.14326532 0.28696477 -0.27872896 0.29672587 -0.045321602
0.26212218 -0.17571102 -0.32138845 -0.20825441 -0.29494283 0.1794253 0.22952083 -0.07154842
0.20363966 -0.25075743 -0.03560887 0.07925728 0.1702063 -0.25464454 0.09456635 -0.05166722
0.18502344 -0.1774821 -0.18389781 -0.1447559 -0.31399885 0.21462575 0.06473831 0.09856072

conv2.weight f4 [64, 32, 1]
00000000: c0d6 a13d 1f2b 42be e518 f23d 2814 36bd
00000010: 17c7 b2bd 154e 5dbe a069 2ebe 19a8 00be
00000020: 9435 c03d ee46 c4bc b2a7 593d 36ef 1dbe
00000030: 2084 69bd f569 1c3e 37e9 f1bd a4e9 11be
00000040: 21ba c73d 3792 46bd 0b1d cbbd d9f6 1f3d
00000050: af32 2cbe b559 253e d146 873d c753 78be
00000060: 558f a4b9 edaa e53d 8b41 22be d6e1 26be
00000070: 7f8e df3d dbf5 cfbc 88cd 0b3d fc7a 263e
00000080: 5e35 583d 4beb c43d f5aa c93b 2795 9dbd
00000090: 2db3 8d3c a1aa 20bd 8a62 06be 59e4 24be
000000a0: 2e70 56bd c080 fbbd d095 f43c ad6e 7d3d
000000b0: f9b1 9c3d 579f 063e 807f e4bc 2ab3 ff3c
000000c0: d4b2 233e 7f33 0dbe 8726 67be ff5b 053d
000000d0: 7fdb 8b3d e42e 2dbd 276d 0cbe e688 adbd
000000e0: 7683 2bbe ea11 65be d24d dbbd 836c 80be
000000f0: 3d38 823d 7fd4 9b3d cbee 643d 9d79 a03d
00000100: 3226 3fbc cf10 ae3d d530 243e 1dc1 9bbd
00000110: 48de 84bd 0f1d 5ebe d58d 84be d691 f73c
00000120: 0a14 9d3d 135b dc3b ca0b cbbd 9d2c 66be
00000130: 0e13 013e 236e 3e3e fa84 50be 5148 d93d
00000140: ff02 813d 11d2 15be 4b12 683e 9c47 20bd
00000150: 2502 5bbe a906 83bd 4893 24be b879 1c3d
00000160: 19f5 b73d 1c64 6dbd 9d44 723b b672 cbbd
00000170: 430f 64be b456 40bd c4b7 e6bd 501c cebd
00000180: ad1e 0fbe 8453 453b d08f 44be b6a4 103e
00000190: fd23 6dbd e5b3 99bd 9306 1f3d 6125 a63d
000001a0: c90a 87bd e756 393e 7180 093d fe69 28bc
000001b0: 3175 4abd 2359 8ebe be56 243d 92aa 0dbe
000001c0: 94d7 d33c 2028 803d 9afb 27be 221f bf3d
000001d0: 2457 0bbe 0a8e 073e 2b1d 37be d24a 273e
000001e0: f4ed 9a3d 4a41 59bd ff46 5abe ba7e 96bd
000001f0: e439 063e 7b72 83bc d2ce 1d3d c0c4 61be
00000200: 9f46 58be 7464 d5bd b95a 1bbe 5275 0b3e
00000210: a8aa 713d deb1 f2bc e76d 963d 2c8e 85be
00000220: 43f1 2bbd 037d 283c 473e 47bd 4722 ce3b
00000230: cd3e f0bd ae6f d7be ee96 8b3e bb68 3abe
00000240: 7320 92be 8032 fd3d c9a6 dabe 1b2b 79be
00000250: af16 c6bc e14b 96be ba08 67be acb7 e93d
00000260: 8ca5 91be 5f1c bdbe bc8b 003e 3651 81be
00000270: d6cc 4d3e 6844 f2bd f98a 39be ba16 b0bc
00000280: 551d 83bd 6acc 7d3d 2b00 67bc e737 693e
00000290: d1c2 13bd e54b 4cbe ff51 9f3d 8a64 04bd
000002a0: 06d1 02be be96 c5bd 012a 8cbd cb27 fd3d
000002b0: edc0 b73d 49e1 d1bd 8a43 f03d b50a cbbd
000002c0: 081f 1abe bc7b bb3d f2db 0dbe 5c04 01be
000002d0: d4ab d43c 48b9 783d 6559 80bd 0971 89bd
000002e0: a8f9 083d 6be4 8abc 3c35 60bd a41b 3abe
000002f0: e35f 62be c0e6 9d3d 3cbe 20bc 9f51 99bb
00000300: ad4e 553e 4ec0 1e3d cec8 90bd 15e0 3a3d
00000310: 6b38 86be b8ee 0a3e 58d1 4fbe 11b1 4abe
00000320: 12ab 3fbe 9a1c 4fbe b81e 89bd 4c2f dfbd
00000330: 6e8f 1fbd be1a 2cbd 2580 fe3c 6583 87be
00000340: 56fa ebbd c339 28be d114 a3be 6963 7f3d
00000350: e68f 563d ad65 393e f77c ef3d 669e c83c
00000360: 24b6 4c3e 4ae5 0d3e 7c4d 12bd 3c46 b0be
00000370: 928e 963d b7bb b3bc 03aa d7bd eba8 073e
00000380: e976 d0bd a42d 1bbe 9832 78be c854 fd3d
00000390: 1531 5cbe d68f a93d 4139 b33d 051e edbb
000003a0: 7fbc acbe 5203 22be a321 44bd 2921 febd
000003b0: 9edf bc3d db28 133e cf6f 1ebd ad29 c4bc
000003c0: 40a4 103e c511 3f3b ccd7 3a3d 8084 0e3d
000003d0: fd6e ed3d 79f7 bf3d 0621 fc3d ab5f 65bb
000003e0: 24d0 303e 8036 323c e8e0 2dbd d62f 76be
000003f0: bee1 29be cb2b 65be 8968 f4bd 1199 c83d
0.079022884 -0.18961762 0.118211545 -0.044452816 -0.087293796 -0.21611817 -0.1703248 -0.12564124
0.09385219 -0.023959603 0.053138442 -0.15423283 -0.05701077 0.15274794 -0.1181206 -0.14249283
0.09752298 -0.048479285 -0.09917649 0.03905377 -0.1681621 0.16147502 0.06605304 -0.24250709
-0.00031387308 0.11214242 -0.15845315 -0.16297087 0.10915851 -0.025385788 0.034131557 0.16257852
0.05278527 0.09615191 0.006154413 -0.07694464 0.017297352 -0.039225224 -0.13123527 -0.16102733
-0.052353077 -0.122804165 0.029856592 0.061873127 0.07651133 0.13146721 -0.027892828 0.031213362
0.15986186 -0.13789175 -0.22573291 0.032558437 0.06828975 -0.042281047 -0.13713513 -0.08473377
-0.16749367 -0.22370115 -0.107082024 -0.25082788 0.06358383 0.0760889 0.055891793 0.07835696
-0.011666821 0.084993 0.16034253 -0.07605193 -0.06487709 -0.21690772 -0.2588946 0.030220907
0.07669838 0.006724724 -0.09914358 -0.22477956 0.12604925 0.18596701 -0.20363227 0.106094964
0.062993996 -0.14630915 0.22663228 -0.039130792 -0.21387537 -0.06397755 -0.16071808 0.038202018
0.089822955 -0.0579568 0.0036967166 -0.09933989 -0.22271447 -0.046957687 -0.11265519 -0.10063994
-0.13976546 0.0030109594 -0.19195485 0.14125332 -0.05789565 -0.07505015 0.03882463 0.08112598
-0.06593854 0.18099557 0.033569757 -0.010279177 -0.04942817 -0.2780238 0.040121786 -0.13834599
0.025859632 0.06257653 -0.16404572 0.0933211 -0.1360746 0.13237777 -0.1788222 0.16337135
0.07564917 -0.05304078 -0.21316145 -0.0734839 0.13108021 -0.0160458 0.038527317 -0.2204771
-0.2112069 -0.104195505 -0.15171327 0.13618973 0.05900064 -0.02962583 0.07345181 -0.2608503
-0.041978132 0.010283711 -0.048643377 0.0062907073 -0.11730728 -0.42077392 0.27263588 -0.18204014
-0.28540382 0.12363148 -0.42705372 -0.2433285 -0.024180738 -0.29354766 -0.22561923 0.11411986
-0.28446615 -0.36935708 0.12553304 -0.25257272 0.2009767 -0.11829454 -0.1811942 -0.021495212
-0.06402079 0.061962523 -0.014099161 0.22775231 -0.036074463 -0.19950826 0.077793114 -0.032322444
-0.12775049 -0.096478924 -0.06843949 0.123611055 0.089723445 -0.10248048 0.11731632 -0.099141516
-0.150509 0.0915446 -0.13853434 -0.12599319 0.02596084 0.060723573 -0.06267051 -0.06711013
0.033441216 -0.016954621 -0.05473827 -0.18174607 -0.2210689 0.07710028 -0.00981098 -0.0046789194
0.20830794 0.038757615 -0.070695505 0.045623858 -0.26214918 0.13567626 -0.20294702 -0.19794108
-0.18717602 -0.20225754 -0.06695312 -0.10897693 -0.038955145 -0.04201769 0.031066963 -0.26467434
-0.11522357 -0.16428284 -0.3185182 0.062350664 0.052383326 0.18105192 0.11693757 0.024489593
0.19991356 0.13856998 -0.035718426 -0.34428585 0.07351412 -0.021940095 -0.10530474 0.13248031
-0.1017893 -0.1515413 -0.2423805 0.12369686 -0.21503098 0.08279388 0.08751155 -0.0072362446
-0.3373756 -0.15821579 -0.04788364 -0.124086685 0.09222339 0.14371054 -0.038680848 -0.023945654
0.14125156 0.0029154879 0.045615956 0.03479433 0.11593435 0.093733735 0.12310986 -0.003499965
0.172669 0.010877252 -0.042450815 -0.24041685 -0.1659002 -0.22379987 -0.11934001 0.0979482

conv2.bias f4 [64]
00000000: 0e16 0bbd db30 5cbd 0f05 29bc e667 a3bd
00000010: 7022 0ebe 6943 7dbd be4c ddbd 4ed4 0bbe
00000020: d104 e8bd 5af6 e2bd 6e65 cd3d bf66 e33c
00000030: 146e f2bd 2379 d2bd bbe2 353e 9b8b ffbc
00000040: 69ae d3bd c231 c23d 4477 81bd 27ec 9abd
00000050: 9f7b 31bc 930d 1d3e 1c33 20be cce4 923d
00000060: 7407 4cbe c678 f1bd 8196 9abd 590e 643e
00000070: 3553 9ebc 2daa f53d 1368 09be 0a16 05be
00000080: 18be 15be 9127 fdbd 48ed 2ebe fe2f 213e
00000090: 15ff e9bd 18b4 d6bc 17e2 cbbd 59c6 26bc
000000a0: dd93 fcbd 9643 41be e562 8f3d 1bb2 bcbd
000000b0: 8cbd be3b e47d 13bd 94d2 babc 3cc2 3c3d
000000c0: 6d94 a0bd df64 0cbd 555b 0dbc 1109 b03d
000000d0: 0ddb cebc d93c 55be 9a53 e93d 933c ae3c
000000e0: 3825 07be 6849 f53d 5752 113d d871 a33c
000000f0: d3b6 8ebd b74e dd3d 2ba3 193e 9e4b ba3d
-0.03395658 -0.05375753 -0.0103161475 -0.079788014 -0.13880324 -0.061831865 -0.10805653 -0.13655207
-0.11329044 -0.11082144 0.10029112 0.027758954 -0.11837402 -0.10277011 0.17762272 -0.031194499
-0.103360005 0.09482147 -0.06321576 -0.07564574 -0.010832696 0.1533721 -0.15644497 0.07172546
-0.19924718 -0.11790614 -0.075482376 0.22271098 -0.019326786 0.11995349 -0.13418607 -0.12996688
-0.14623296 -0.12361062 -0.17082703 0.15740964 -0.11425606 -0.026208922 -0.099552326 -0.010179126
-0.1233289 -0.18873438 0.070012845 -0.092136584 0.0058209356 -0.03600873 -0.02280549 0.046083674
-0.0784081 -0.034275886 -0.008627732 0.08595479 -0.025250936 -0.20823993 0.11392899 0.021269118
-0.13197792 0.11976892 0.035478916 0.019951746 -0.06968465 0.10806029 0.1500365 0.09096454

fc1.weight f4 [32, 1920]
00000000: cc97 c2bc 1c3d d0bc 2e4e e5bc 68d7 f7bc
00000010: 12bd edbc b27c 54bc c960 a5bc e47a aebc
00000020: 03fe 91ba 262b c1bc f43f 4cbc ec8d 52bc
00000030: 00f8 e938 7a83 f03b bdfb 15bc 469f abbc
00000040: 84ae 00bd fea8 29bd 7da3 09bb 94b9 1b3b
00000050: 2c7d 30bd 10e3 b1bc d842 1a3b 3aba 8f3a
00000060: 5317 07bd dab6 ddbb 666e 06bd 7129 0ebd
00000070: 116c 2abc f1fa c7bc 010d c5bb d146 ce3b
00000080: f9e7 31bb 2762 a5bc 8638 70ba b34c 16ba
00000090: 65ef e13b acad ccbc 5b93 8ebc ae59 78bb
000000a0: 38fb d3bb 0f9a 44bc b1dc 9a3a 1767 c5bc
000000b0: b586 60bc 94c1 a2bc 154a 203c d94e 0ebd
000000c0: 6713 e0bc cd37 22bc 4725 f33a abbd 8dbc
000000d0: f8c1 25bc 1d57 10bb a18a 72ba 8e94 fbbc
000000e0: bcba f1bc b0f2 11bd a7fc 43bc 0ab6 0fbd
000000f0: aab7 58bc b052 30bc 90ab e4bc d297 90bb
00000100: 9ff3 eabc 0c11 7ebb 5265 123c 1c85 35bc
00000110: 29e6 cd3b 6be5 c93b 5130 7e3b cca5 2a3c
00000120: f03b eabc 4c06 bcbc c8c5 8cbc 504f 803b
00000130: d081 acba e1f4 9e3a 1b75 bdbc 10d3 73bc
00000140: 3cc0 babc 05ca f7bc 4d3f 213c 6c8a d2bb
00000150: 0a08 6c3a 25a5 e63b 3447 8bbc ae4b 92bc
00000160: 1c7d 35bb fa6c 3f3c 2482 c8bc 870a e3bc
00000170: 5b40 fcbb 596e c2bc 9f7c e7bc 3a70 a2bc
00000180: fd41 b7bc f3af b4bc 843a 22bc cf99 dabc
00000190: a991 2ebc 5082 d0bc 4ef8 d7bb dd07 4f3b
000001a0: 0539 42bc 0dac a7ba 895e 71bc 0089 fbbc
000001b0: b855 fc3b 6922 1cbc b712 8cba 7480 d0bc
000001c0: bfdd 7fb7 7c97 ec3b 967a e6bc c051 2c3c
000001d0: ac4c 3a3c 72b3 883a 2d09 dabc 0946 7cbc
000001e0: fd34 8c3b 8e55 d7ba a03d 4bbd 6122 e1bc
000001f0: a253 02bd c319 13bd c795 f33b dc5c 29bc
00000200: 9eb6 60bd 2eac 253c 7746 a03c 4d26 38bc
00000210: 01d5 babc 16d8 1fbc 055a d7bb 5ac3 79bc
00000220: f07a a3bd 482e 59bd d014 1e3c 531b 3bbc
00000230: 0af7 063b bb2d 46bc 71fa 11bd c63b acbd
00000240: f93a 5b3c 8d0a 1fbd b1f1 7dbd 9750 ccbc
00000250: 308b 103c 2daf 0bbd b0de afbc d56a e13b
00000260: 531e b8bc fbd9 42bc 5c92 1bbd 4bf7 03bd
00000270: 6212 aa3b 9e6f c83b 47bb 193b e559 8b3b
00000280: 0dc6 8ebc dd26 2bbc 8082 68bc 406a f9bc
00000290: 24e4 51bc f853 c6bc 45da bc3a 2ed5 cfbc
000002a0: 2cf2 89bc 8a43 de3a 976b c0bc 46fa 59bc
000002b0: c1fe fbbb a9ba 11bc ef8f b13b f6b5 1ebd
000002c0: 8fff 8cbc 93a0 82bb 46b2 56bc 5bf4 b0bc
000002d0: a2bc 94b9 f010 1ebc d403 543b 7a54 babc
000002e0: e4f0 953b fbf0 95bc 7ef4 0abc 560c 5abb
000002f0: 8638 3dbb f59d d1bc a78a 6a3c 540d 8bbc
00000300: 252f 9fbc 8f06 b93a 5ecf 4fbc 89cc 58bc
00000310: 197d c2bc 0269 92b9 f405 1b3c 90c9 12bc
00000320: 263c dabc 9cfe d638 fbc3 33bd 1a68 f2bc
00000330: 30f9 9cbc 544b 2cbd 147b f7ba a9ea a2bc
00000340: 1fbc 15bd 6858 a3bc b525 08bc c270 cc3a
00000350: d840 99bc 08d1 2dbc 9797 073c 950c a23b
00000360: 406b 8e3b a1d0 173c 9e21 cbbc dbdb e53a
00000370: e1dd 183c 5607 dc3b bdf3 bcbc 9c59 7dbb
00000380: 4a00 85bc 5c48 04bc 3bee bebc bfd1 5dbc
00000390: deca d03b 9dde 5b3c 6cb6 37bb 175b 4cbc
000003a0: 86d6 8abc 58e0 963b 2f4d 38bc 81e5 e1bc
000003b0: 1619 b3bb 781a e3bc f969 cfbc 9906 893b
000003c0: 9011 3ebc bd83 debc fc5f fbbc 829e 67bc
000003d0: e0e8 0cbd d6ba e8bc 7d97 11bd 425d 64bc
000003e0: b02b 31bc 698d eebc bab3 8ebc 85cc febc
000003f0: 92d1 d2bc df9b dd3a 082e 0fbc 6d25 93bb
-0.023754023 -0.025419764 -0.02799138 -0.03025408 -0.02902082 -0.012969183 -0.020187752 -0.021298833
-0.0011138323 -0.023580145 -0.0124664195 -0.01285122 0.000111564994 0.007339892 -0.009154257 -0.02094997
-0.03141643 -0.04142093 -0.0021001988 0.0023761736 -0.043088123 -0.021714717 0.0023538377 0.0010965534
-0.032981228 -0.0067661824 -0.032820128 -0.03470749 -0.010401742 -0.02441165 -0.006013513 0.006295063
-0.0027146323 -0.020188404 -0.0009163696 -0.0005733475 0.006894993 -0.024985157 -0.017404249 -0.003789525
-0.0064691566 -0.011999621 0.0011815039 -0.024097009 -0.013703992 -0.019867696 0.0097832875 -0.034743164
-0.027353002 -0.009900999 0.0018550538 -0.017302355 -0.010117047 -0.002202458 -0.00092522247 -0.030710485
-0.029507987 -0.035631835 -0.0119620925 -0.035085715 -0.013227383 -0.010761902 -0.027913839 -0.0044126296
-0.02868062 -0.0038767485 0.008935289 -0.011079099 0.0062835407 0.006161382 0.0038786123 0.010415506
-0.028593034 -0.022952221 -0.017184153 0.003915705 -0.0013161246 0.0012127423 -0.02312713 -0.014881864
-0.022796743 -0.030247698 0.009841752 -0.0064251926 0.00090038835 0.0070387297 -0.017001726 -0.017858353
-0.002769298 0.011683697 -0.024476118 -0.02771498 -0.0076981015 -0.023734258 -0.028257666 -0.019828904
-0.022370333 -0.022056555 -0.0099016465 -0.02668467 -0.010654845 -0.025452763 -0.0065908795 0.003159038
-0.011854415 -0.0012792364 -0.014732012 -0.030704975 0.007700648 -0.009529688 -0.001068673 -0.025451876
-1.5250814e-05 0.007220207 -0.028134625 0.010517538 0.011370819 0.0010429455 -0.026615703 -0.015397557
0.0042787776 -0.0016428696 -0.049619317 -0.027482213 -0.03181804 -0.03591324 0.0074336263 -0.010337081
-0.054861657 0.010111852 0.01956485 -0.0112396 -0.022806646 -0.009756109 -0.0065720105 -0.015244329
-0.07982433 -0.053022653 0.009648517 -0.011420089 0.0020594024 -0.012095864 -0.03563923 -0.084098384
0.013380759 -0.03882842 -0.061998073 -0.024940772 0.008822247 -0.034102608 -0.02146849 0.0068791904
-0.022475397 -0.011892791 -0.037981376 -0.03221826 0.0051901797 0.0061168214 0.0023457573 0.0042526596
-0.017428422 -0.010446277 -0.01419127 -0.030446172 -0.012810741 -0.024209961 0.0014408311 -0.025370207
-0.01683911 0.0016957384 -0.023488803 -0.013304299 -0.007690281 -0.008894601 0.0054187695 -0.03874775
-0.017211704 -0.003986427 -0.013104027 -0.021600893 -0.00028369302 -0.009647593 0.0032350915 -0.02274536
0.0045758355 -0.018303385 -0.008481143 -0.0033271513 -0.0028872802 -0.025588015 0.014315284 -0.016974129
-0.01943166 0.0014116334 -0.0126837175 -0.013232359 -0.023741292 -0.00027925527 0.009461869 -0.008959189
-0.02664001 0.0001025174 -0.043888073 -0.029590655 -0.01916179 -0.042064026 -0.0018881285 -0.019887285
-0.03655636 -0.019939616 -0.008309771 0.0015597569 -0.018707678 -0.010608919 0.008275888 0.0049453476
0.0043462813 0.00926605 -0.024796303 0.0017536836 0.009330244 0.0067147417 -0.023065442 -0.0038658148
-0.01623549 -0.008073892 -0.023306957 -0.013538777 0.00637184 0.013419774 -0.0028032316 -0.012472889
-0.016947996 0.0046043806 -0.011248871 -0.027575256 -0.005465637 -0.027722582 -0.025319086 0.0041816947
-0.011600867 -0.027162427 -0.030685417 -0.014136912 -0.034401774 -0.028409403 -0.03554486 -0.01393825
-0.010813639 -0.029120164 -0.017419685 -0.031103382 -0.025734697 0.0016907415 -0.008739002 -0.0044905455

fc1.bias f4 [32]
00000000: 7755 1ebd 97a5 25bc 0a5f 8f3c be35 10ba
00000010: 3d52 70bc a913 443b 4bd8 333b 29c1 fbba
00000020: a274 10bd 1bb7 db3c 90a6 94bb 52b2 8cbd
00000030: c511 133c 92d9 f73c 5aae f5ba e726 a33d
00000040: ea7b 9abc 0dae ac3d 1372 8cbc e1ed f0bc
00000050: 2026 6a3c f039 acbc fc14 67bc 495c 9a3c
00000060: da91 853b 82e7 86bb f7f1 df3d 8e0a f0bc
00000070: dfdc 45bd 589d 9bbc b29f f23d c638 5d3d
-0.038655724 -0.0101102805 0.017501373 -0.0005501172 -0.014668045 0.0029918945 0.0027442153 -0.0019207346
-0.03526748 0.02682071 -0.0045364574 -0.068699494 0.008976405 0.030255113 -0.0018743977 0.079664044
-0.018857915 0.08431635 -0.017144239 -0.029410305 0.014291316 -0.02102372 -0.014104124 0.018842833
0.0040762248 -0.0041169534 0.10934823 -0.029301908 -0.048306342 -0.018995926 0.11846866 0.05400922

fc2.weight f4 [1, 32]
00000000: 3f10 bd3b ca96 873d 1604 ad3d c319 28bd
00000010: 0a63 853d 4ec1 343e 2289 f2bc cbc0 c1bd
00000020: f472 d3bd 17de d6bd 390d e1bd d2a6 ba3c
00000030: fafa d13e 896b d53c 22e8 dcbd 0fba 183d
00000040: 2972 2e3e 8977 763e 1cc2 fdbc 009f 98bd
00000050: 8503 173e cdb3 ea3c bf7e 7e3c 222e 893d
00000060: bf68 253c b5a8 15bd a185 3cbe b2f7 b93c
00000070: 98f5 b93d 4b07 843d a523 23be 83af 383e
0.005769759 0.066205576 0.08448045 -0.041040193 0.06513031 0.17651865 -0.029606406 -0.094606005
-0.1032466 -0.10491579 -0.1098885 0.022784624 0.41011792 0.026052253 -0.10786463 0.037286814
0.17035736 0.24069037 -0.030976348 -0.07452202 0.14747436 0.028650189 0.015533148 0.06698252
0.010095774 -0.036537845 -0.1841035 0.022701118 0.090800464 0.064467035 -0.15931566 0.18035702
