models/saved_models/CNN_1D_0.pth (torch, 258908 bytes, 7 tensors)

conv1.weight f4 [32, 12, 1]
0	0x3e02e102	0.12781146
1	0x3c0ef00e	0.008724226
2	0xbe916765	-0.28399196
3	0x3e5d921e	0.2163777
4	0xbb29383a	-0.0025820867
5	0x3e7866dc	0.24257988
6	0xbe48c04d	-0.19604607
7	0x3e7a45ee	0.24440739
8	0x3e18a9af	0.14908479
9	0x3ca262bb	0.019822469
10	0xbe65bbba	-0.22434893
11	0x3c2bf974	0.010496486
12	0xbdf63d1d	-0.12023375
13	0xbe689ebf	-0.22716807
14	0x3e9ccb3e	0.3062381
15	0x3e10ccaf	0.1414058
16	0x3dec2865	0.11531142
17	0x3e906fe9	0.2821038
18	0x3ddfd84c	0.10929927
19	0x3d20915a	0.039201118
20	0x3de97669	0.11399538
21	0x3e16280c	0.14663714
22	0x3e844e30	0.25840902
23	0xbe55ef75	-0.20892127
24	0xbdeadc6e	-0.11467825
25	0x3e6bcb6c	0.23026818
26	0x3e893a45	0.2680227
27	0x3e0ae042	0.1356211
28	0x3df1be15	0.118038334
29	0xbe8c71ef	-0.27430674
30	0xbc45054b	-0.012025188
31	0x3e811dde	0.252181
32	0xbe630506	-0.22169885
33	0x3daf60e6	0.08563404
34	0xbe7ae8d0	-0.24502873
35	0x3e932a9d	0.2874345
36	0xbe15b251	-0.14618804
37	0xbe915c70	-0.28390837
38	0xbde146d3	-0.10999837
39	0x3e788e86	0.24273118
40	0x3c139e31	0.009009884
41	0xbe7517b2	-0.2393482
42	0xbe76ce5f	-0.24102162
43	0x3c8c6e94	0.017142572
44	0x3e520fd5	0.20513852
45	0xbd95ebf6	-0.073203966
46	0x3d76c9da	0.060251094
47	0xbc4c8ced	-0.012484771
48	0xbe6157fa	-0.22006217
49	0xbd9fbc9a	-0.07799645
50	0xbd1f9e37	-0.038969245
51	0x3e928660	0.28618145
52	0x3dbce714	0.09223762
53	0x3e068708	0.13137448
54	0xbe4f694d	-0.20255013
55	0xbe968ac4	-0.29402745
56	0x3da170f9	0.07882876
57	0x3e56297a	0.2091426
58	0xbd9175a8	-0.07102519
59	0x3c48312c	0.012218755
60	0x3e0ccec6	0.13750753
61	0xbe811313	-0.25209865
62	0xbd2dac74	-0.042400792
63	0xbd57f148	-0.052720338
64	0x3cfb5f7f	0.030685185
65	0xbd728b87	-0.059215095
66	0xbd1d2ddf	-0.038373824
67	0xbea2c066	-0.31787413
68	0xbd804a5b	-0.06264182
69	0x3e61fe5c	0.22069687
70	0x3d4e6260	0.050386786
71	0x3d780df7	0.060560193
72	0xbdbe167b	-0.092816316
73	0x3d72a5ba	0.05924008
74	0x3e00fc03	0.12596135
75	0xbde29878	-0.11064237
76	0xbd804cb3	-0.06264629
77	0xbda30c61	-0.079613455
78	0xbd52a219	-0.05142412
79	0xbe047699	-0.12935866
80	0xbd558a88	-0.052134067
81	0xbd6905c2	-0.056890257
82	0xbdb44766	-0.08802681
83	0x3e09b995	0.134497
84	0xbc73192b	-0.0148375435
85	0xbe844d73	-0.2584034
86	0xbe963047	-0.29333708
87	0x3d374397	0.044742193
88	0xbe6a26b4	-0.22866327
89	0xbe14d46f	-0.14534162
90	0xbe995d4e	-0.29953998
91	0xbe647d52	-0.22313431
92	0xbe2dd0d2	-0.1697419
93	0xbd14b910	-0.0363093
94	0x3e0b93b9	0.1363057
95	0x3d988811	0.074478276
96	0x3e08c59c	0.13356632
97	0xbb87bcb6	-0.004142369
98	0xbcdd596a	-0.027020175
99	0x3de8a97b	0.11360451
100	0xbe8996e6	-0.2687294
101	0x3c0bd742	0.008535208
102	0xbe5e0db7	-0.2168492
103	0xbe596626	-0.21230373
104	0xbd3c5b8f	-0.045985755
105	0x3ccb3137	0.02480374
106	0xbe8f0b13	-0.27938136
107	0x3cf830d7	0.030296726
108	0x3da9e275	0.082951464
109	0x3da394aa	0.0798734
110	0xbdf4663d	-0.11933563
111	0x3e8d6df7	0.2762296
112	0x3d80358f	0.062602155
113	0xbe85d89f	-0.2614183
114	0xbe9c58b5	-0.30536428
115	0xbe98eb50	-0.2986703
116	0x3dcf6c48	0.10128075
117	0xbe2db0b2	-0.16961935
118	0x3db4a5a1	0.08820654
119	0x3e3772d9	0.17914905
120	0x3c86e2d8	0.01646559
121	0xbe1201f2	-0.14258555
122	0xbe7b2f89	-0.24529852
123	0xbde35ea8	-0.111020386
124	0xbe90272f	-0.28154895
125	0x3e063e79	0.13109769
126	0xbe4cde44	-0.20006663
127	0xbe825d4c	-0.25461805
128	0x3e8ba235	0.27272192
129	0x3c18ae1a	0.009318853
130	0x3e52d659	0.2058958
131	0x3e4d13a3	0.20027022
132	0x3bedb3d8	0.007254105
133	0xbe6a5105	-0.22882469
134	0x3e5240b6	0.20532498
135	0x3dd2740d	0.10276041
136	0x3defcedd	0.11709378
137	0xbdf97f1a	-0.12182446
138	0xbe1190a9	-0.1421534
139	0x3e97d256	0.2965266
140	0xbc905da5	-0.017622778
141	0x3dcce872	0.10005273
142	0xbca8743a	-0.020563234
143	0xbdf35994	-0.1188232
144	0xbe5a054c	-0.21291083
145	0xbe5bb213	-0.21454649
146	0xbd7e8767	-0.06214085
147	0x3d9089c1	0.070575245
148	0x3dff6344	0.12470105
149	0xbe34e25f	-0.17664479
150	0x3e4a9025	0.1978155
151	0x3e1d60ef	0.15369008
152	0xbd08d01c	-0.033401594
153	0x3d0cc7dc	0.03437029
154	0x3d61eebc	0.055159315
155	0xbe6212d3	-0.22077493
156	0x3e2b03bc	0.16700643
157	0xbe369cee	-0.17833301
158	0xbe6c99d5	-0.23105557
159	0xbe720909	-0.23636259
160	0xbe399a68	-0.18125308
161	0x3dafe8f9	0.08589358
162	0x3e216799	0.15762176
163	0x3d8f9c3c	0.07012221
164	0x3e99a6ea	0.30010158
165	0x3df642f5	0.1202449
166	0x3e5af32b	0.21381824
167	0xbdc61b37	-0.096731596
168	0xbe25a000	-0.16174316
169	0x3e794bb8	0.2434529
170	0xbe9b8196	-0.30372304
171	0x3e0a69cf	0.13516925
172	0x3bab4c3f	0.005227595
173	0x3e979ede	0.29613394
174	0xbea9565b	-0.33073696
175	0xbe9a5118	-0.30139995
176	0x3b857f0e	0.004073984
177	0xbd9c4849	-0.07630975
178	0x3e6344c1	0.22194196
179	0xbccf9861	-0.025341215
180	0x3ceaaa6a	0.028645713
181	0xbd4f14b3	-0.05055685
182	0xbe4656ad	-0.19369002
183	0x3c3efb2a	0.011656562
184	0xbe741df1	-0.23839547
185	0xbe0b5233	-0.13605575
186	0xbe6433ee	-0.22285435
187	0x3ddeb6ff	0.108747475
188	0x3e938ac4	0.28816807
189	0x3c03ce79	0.008044832
190	0xbcce5797	-0.02518825
191	0x3d0684b7	0.03284141
192	0xbdf73eba	-0.12072511
193	0x3e1e882b	0.15481631
194	0xbe8dbcf1	-0.27683213
195	0xbe41336d	-0.18867274
196	0x3d177db9	0.036985133
197	0x3db6354a	0.08896883
198	0x3d243bca	0.04009608
199	0xbc8ef170	-0.01744911
200	0x3c778b81	0.015108944
201	0xbe9c468e	-0.3052258
202	0x3df70cd8	0.120629966
203	0x3dc44cb7	0.09584945
204	0xbdfb8155	-0.122805275
205	0xbc84bfae	-0.016204681
206	0xbe905d86	-0.28196353
207	0x3d6677b7	0.056266513
208	0x3d5dd8d1	0.05416185
209	0x3d841b24	0.06450489
210	0xbe725079	-0.2366351
211	0xbe10083d	-0.14065643
212	0xbe891c84	-0.26779568
213	0x3d1fd1d8	0.039018482
214	0x3d6cacf7	0.05778214
215	0xbdc174d4	-0.09446111
216	0xbe2e9c82	-0.1705189
217	0xbe3d12b9	-0.18464173
218	0x3caf2231	0.021378608
219	0x3e83517e	0.2564811
220	0xbe3510eb	-0.17682235
221	0x3e415ba8	0.1888262
222	0xbd69c75c	-0.05707489
223	0xbe37581e	-0.17904708
224	0x3e0bf64f	0.13668178
225	0xbe91bb61	-0.2846327
226	0x3e73fbe2	0.23826554
227	0xbe26f5da	-0.16304722
228	0x3e71f949	0.23630251
229	0xbe57d9b6	-0.21079144
230	0xbe40224e	-0.18763086
231	0xbdb7064e	-0.089367494
232	0xbe49fbc0	-0.19724941
233	0xbd9e925c	-0.077427596
234	0xbe94c1ab	-0.29054007
235	0x3e24094f	0.16019176
236	0x3e41a336	0.18909916
237	0x3c282f50	0.010265186
238	0x3e5e3dd5	0.21703275
239	0x3c5a23b1	0.013314174
240	0xbe669846	-0.22519025
241	0xbe8da620	-0.27665806
242	0x3e129b4b	0.14317052
243	0x3e86795e	0.2626447
244	0xbe0daa7d	-0.13834567
245	0xbe647ef1	-0.2231405
246	0x3d6c5cfb	0.05770586
247	0xbe03c752	-0.12869003
248	0x3d6223af	0.05520981
249	0xbe9d358e	-0.3070492
250	0xbdd066bc	-0.10175845
251	0x3dcd1036	0.100128576
252	0x3884a362	6.324683e-05
253	0x3d3aa952	0.045571633
254	0xbd4e95e0	-0.0504359
255	0x3e8c5841	0.27411082

conv1.bias f4 [32]
0	0xbc8626ce	-0.016375925
1	0x3e0c597a	0.13706008
2	0x3dd92fc2	0.10604812
3	0xbe129408	-0.14314282
4	0xbe8b94cf	-0.2726197
5	0x3e8a066e	0.2695803
6	0x3d000969	0.031258974
7	0xbe8db3c3	-0.2767621
8	0x3a1eec2a	0.0006062413
9	0xbe91180b	-0.28338656
10	0x3e81a94f	0.25324485
11	0xbddd13fa	-0.10794826
12	0xbe5bc4d3	-0.21461801
13	0x3d0f9655	0.035055477
14	0xbe8b432d	-0.2719969
15	0x3e3b80f8	0.18310916
16	0x3ce19114	0.027534999
17	0xbe696709	-0.22793211
18	0xbdbba2c2	-0.09161903
19	0x3ca49222	0.020089213
20	0x3e9bdb35	0.3044068
21	0x3ca9777f	0.020686863
22	0x3c63d57e	0.013905881
23	0x3dfc6b25	0.12325124
24	0x3e6f0e33	0.2334526
25	0xbe02b5ea	-0.12764707
26	0xbe747e3e	-0.23876283
27	0x3c774cdc	0.015094008
28	0xbe52320c	-0.20526904
29	0x3e20f69b	0.15719073
30	0xbdde356f	-0.108500354
31	0x3e8bc91a	0.27301866

conv2.weight f4 [64, 32, 1]
0	0x3e18e565	0.14931257
1	0x3d7e0d09	0.06202415
2	0xbde7f33a	-0.11325689
3	0x3df82c27	0.121177964
4	0x3e28ed5f	0.164968
5	0x3e34dcc3	0.17662339
6	0xbd4867a9	-0.048926983
7	0x3e27e9b5	0.16397746
8	0x3d93a39c	0.072089404
9	0x3e104790	0.14089799
10	0xbe04d7d1	-0.12972952
11	0xbd42ffc9	-0.047607217
12	0x3dffbc87	0.124871306
13	0x3daacaff	0.083395
14	0x3d3fb228	0.046800762
15	0x3dd62176	0.10455601
16	0xbd7fbd48	-0.062436372
17	0xbdf38e20	-0.118923426
18	0xbd9c4459	-0.07630224
19	0xbdbaef3b	-0.09127661
20	0xbbd70f02	-0.0065630684
21	0x3e1caeee	0.15301105
22	0x3cb8327c	0.02248501
23	0xbe1055ce	-0.14095232
24	0xbe4ecda1	-0.20195629
25	0x3d6d5c0c	0.05794911
26	0x3e184f08	0.14873898
27	0x3d7e34ac	0.06206195
28	0xbe07a6ee	-0.13247272
29	0xbda1ea16	-0.079059765
30	0xbe21e2d8	-0.1580919
31	0x3dfab514	0.12241569
32	0xbe1a9be1	-0.15098526
33	0x3d996ade	0.074910864
34	0xbdc6a8d1	-0.09700168
35	0xbe06994f	-0.1314442
36	0x3e0f4ce3	0.13994174
37	0xbd1274b5	-0.03575583
38	0xbd46b28c	-0.04851012
39	0x3d8ebaae	0.069692
40	0xbdccf754	-0.100081116
41	0x3d5751e1	0.05256832
42	0x3bd2fbf5	0.006438727
43	0xbdf92543	-0.1216531
44	0xbe0e0385	-0.1386853
45	0xbe2336e2	-0.15938905
46	0xbe015d4a	-0.12633243
47	0xbda4be0a	-0.080440596
48	0x3d232e1f	0.039838906
49	0xbc6118ea	-0.01373885
50	0x3da970f2	0.08273496
51	0x3c3b83b2	0.011444973
52	0xba713b9b	-0.00092023023
53	0xbdfa1355	-0.122107185
54	0xbd96d996	-0.0736572
55	0xbd093632	-0.03349895
56	0xbe0291f4	-0.12750989
57	0x3d088faf	0.033340152
58	0xbd0a9bc7	-0.033839967
59	0xbbe9924b	-0.007128035
60	0x3e648b64	0.22318798
61	0x3d48bae8	0.049006373
62	0x3c9434ea	0.018091638
63	0xbd94a9b5	-0.072589315
64	0xbd5d55ca	-0.054036893
65	0x3e0d128b	0.13776605
66	0x3e234d8e	0.15947554
67	0xbe2417f7	-0.16024767
68	0xbdcaa017	-0.09893816
69	0x3d8ffca9	0.07030613
70	0x3d9ba2ed	0.07599435
71	0xbe005990	-0.12534165
72	0xbe2040a9	-0.15649666
73	0xbdd03dd5	-0.101680435
74	0xbdc8fc03	-0.098136924
75	0x3d569d6d	0.052396227
76	0xbdc072d8	-0.09396905
77	0x3e09b9e6	0.13449821
78	0xbd05ffc9	-0.03271464
79	0xbbf0e952	-0.0073520327
80	0x3de09dca	0.10967596
81	0xbdcbf5bb	-0.09958979
82	0x3c373b66	0.011183595
83	0xbdeefa9b	-0.11668893
84	0x3cf9a02c	0.030471884
85	0xbc35ab92	-0.011088269
86	0x3e07c003	0.1325684
87	0x3d0253b1	0.031818096
88	0x3cb60164	0.02221746
89	0x3d8c2adf	0.068441145
90	0x3ca317c5	0.019908795
91	0x3e122f53	0.14275865
92	0x3cf9f0ad	0.030510271
93	0x3d3c064e	0.04590445
94	0xbdd8b78a	-0.10581882
95	0xbd7c3de0	-0.061582446
96	0x3da33235	0.079685606
97	0xbdfa0536	-0.12208025
98	0x3d45ac39	0.048259947
99	0xbde1e1f7	-0.110294275
100	0xbda4639c	-0.080268115
101	0x3d1b0bd1	0.037853066
102	0xbe1211e0	-0.14264631
103	0x3e177e3d	0.1479425
104	0x3c77b6ae	0.015119238
105	0x3ddbfa97	0.107411556
106	0x3d60d019	0.054885957
107	0x3e1986c3	0.14992814
108	0x3e1fdddf	0.15611981
109	0x3d332529	0.04373661
110	0xbda13401	-0.07871247
111	0x3dd6cb41	0.10487986
112	0xbdef86af	-0.11695611
113	0x3dfead6a	0.1243542
114	0xbe2aedd7	-0.16692291
115	0x3e0ef379	0.13960065
116	0xbda4073a	-0.08009191
117	0x3e2b70fe	0.16742322
118	0x3dabef6d	0.08395276
119	0x3e4e15bf	0.20125483
120	0x3e11d77c	0.14242357
121	0x3da2fad9	0.07958002
122	0xbd726983	-0.059182655
123	0x3e2ae86b	0.16690223
124	0xbdb1dfde	-0.086852774
125	0xbcac085f	-0.021000085
126	0xbcc6ff3b	-0.024291625
127	0xbbc0ab31	-0.0058797826
128	0xbda8c92a	-0.08241494
129	0xbe151a7b	-0.14560883
130	0x3cb4d922	0.022076193
131	0xbdb6a5d0	-0.08918345
132	0x3dd1b1dd	0.10239003
133	0x3e35c3c0	0.17750454
134	0xbc2fe0a0	-0.010734707
135	0x3d2a52e7	0.041582968
136	0x3defbfe3	0.11706521
137	0x3d85fe37	0.06542628
138	0xbdf35bd2	-0.11882748
139	0x3d57fdf5	0.052732427
140	0xbd5202a5	-0.051272053
141	0x3e2362ea	0.15955701
142	0x3dd3e235	0.1034588
143	0x3dcb690b	0.09932145
144	0xbe173dcc	-0.14769667
145	0xbba70a67	-0.0050976756
146	0xbb73bec6	-0.0037192567
147	0x3ccb9990	0.024853498
148	0xbe3e7776	-0.18600258
149	0xbda71f7e	-0.081603035
150	0xbce4a0b6	-0.027908664
151	0x3d5912c0	0.052996397
152	0x3d12cce6	0.035839938
153	0xbde85c7c	-0.11345765
154	0x3e3856aa	0.1800181
155	0x3e099ab9	0.13437928
156	0x3dd728ec	0.10505852
157	0x3d9405d5	0.07227675
158	0xbe082d81	-0.13298608
159	0x3dc75710	0.09733403
160	0xbde2d49a	-0.11075707
161	0x3e2ab8f8	0.16672122
162	0x3d977363	0.07395055
163	0x3e0dffd6	0.13867125
164	0x3d1097fe	0.0353012
165	0x3d83f7b1	0.06443728
166	0x3e370c60	0.17875814
167	0x3de2ff0e	0.11083804
168	0xbcb7d29b	-0.022439292
169	0xbd7d0cee	-0.06177991
170	0x3e0bbe6c	0.13646859
171	0xbc653c94	-0.013991494
172	0x3e1d2ecd	0.15349884
173	0x3df4ee00	0.119594574
174	0x3e22077e	0.1582317
175	0x3dcc5659	0.09977407
176	0x3d541b9f	0.051784154
177	0xbdcb3564	-0.09922293
178	0xbe01fe3e	-0.12694642
179	0xbe1faadb	-0.1559252
180	0xbe29c9d8	-0.16580904
181	0xbde960be	-0.11395405
182	0x3de1b11c	0.11020109
183	0x3da718d6	0.08159034
184	0xbcb54dc6	-0.022131812
185	0xbd43194a	-0.04763154
186	0x3df50a25	0.119648255
187	0x3e0dfbc7	0.13865577
188	0x3cab4989	0.020909088
189	0x3cffbf05	0.031219015
190	0x3e12f09e	0.143496
191	0xbe3dc2b9	-0.18531312
192	0xbdd4d7cb	-0.10392722
193	0x3dc8b487	0.09800058
194	0x3dbdd34a	0.09268816
195	0xbe0258c4	-0.12729174
196	0x3dba11e1	0.090854414
197	0x3e181d9d	0.14855047
198	0x3e218350	0.15772748
199	0xbd011642	-0.031515367
200	0xbd6efdc5	-0.058347482
201	0x3daf34a2	0.08554961
202	0xbbb5c60f	-0.005547292
203	0x3d892a9f	0.066975825
204	0xbe1e400e	-0.15454122
205	0xbd66dc8d	-0.056362677
206	0x3cb2abcc	0.021810435
207	0x3e16f9f7	0.14743792
208	0xbc9ded98	-0.019278333
209	0xbe07486f	-0.13211225
210	0x3c46cd66	0.012133932
211	0xbd95c5b5	-0.073131
212	0x3e018fb0	0.12652469
213	0xbd69b2c5	-0.057055254
214	0xbe0d51f3	-0.13800792
215	0x3db958fe	0.09050177
216	0xbdbfd0c1	-0.093659885
217	0x3c896646	0.0167724
218	0x3db07d42	0.08617641
219	0xbd509482	-0.050922878
220	0x3d954e1c	0.07290289
221	0x3dfaa37b	0.12238213
222	0x3dd44a8f	0.103657834
223	0xbd84e6ec	-0.06489357
224	0xbe38c7f7	-0.1804503
225	0x3e122b11	0.14274241
226	0xbe268f3f	-0.16265582
227	0xbcf13dc0	-0.02944839
228	0xbdc780f0	-0.0974139
229	0x3e202284	0.15638167
230	0x3d9146ea	0.07093604
231	0x3d82662c	0.06367144
232	0xbd9c48a0	-0.076310396
233	0x3cca0f01	0.024665358
234	0xbc87ab76	-0.016561251
235	0xbd9961e6	-0.07489376
236	0xbe09bc55	-0.13450749
237	0x3c94cb7f	0.01816344
238	0xbe21ed75	-0.15813239
239	0xbe298047	-0.1655284
240	0xbbca83ff	-0.006180286
241	0x3e051b54	0.12998706
242	0xbe2c521b	-0.16828196
243	0xbe1b83e8	-0.15187037
244	0xbd4f347f	-0.050587174
245	0x3dc2f8e3	0.095201276
246	0x3d79d6bc	0.060995802
247	0xbe4a0683	-0.19729047
248	0x3d4aecc2	0.049542196
249	0x3e4085a1	0.18800975
250	0xbe580476	-0.21095452
251	0xbe34da70	-0.17661452
252	0xbd309c83	-0.04311801
253	0x3de3a787	0.11115938
254	0xbe412fa0	-0.18865824
255	0xbdb569a1	-0.08858038

conv2.bias f4 [64]
0	0x3d41c657	0.047308292
1	0x3d943d19	0.07238216
2	0x3dc570fe	0.09640692
3	0xbe05960b	-0.13045518
4	0xbd9515d4	-0.07279554
5	0x3c967f0c	0.018371128
6	0x3e1436c7	0.14474021
7	0xbdb247da	-0.08705111
8	0x3e0cda65	0.13755186
9	0xbe04bae3	-0.12961917
10	0x3dd68c5b	0.104759894
11	0x3d0356a2	0.03206504
12	0xbd3801ae	-0.044923477
13	0xbe259fcf	-0.16174243
14	0xbd9ca47f	-0.07648563
15	0x3dbf230d	0.09332857
16	0x3dc3ec60	0.09566569
17	0xbcae5e08	-0.021285072
18	0xbc96d902	-0.018414024
19	0x3c9b5c41	0.018964889
20	0x3e1a62d3	0.15076761
21	0xbd3a2fbb	-0.045455676
22	0x3d8320ce	0.064027414
23	0x3dba8d03	0.09108927
24	0x3e154a9c	0.14579242
25	0x3df6b94c	0.12047061
26	0x3d72221b	0.059114557
27	0xbc779b32	-0.015112685
28	0x3c0cb69c	0.008588459
29	0xbe23c9ee	-0.15994999
30	0x3d91e14a	0.071230486
31	0xbdb395c4	-0.087688
32	0xbe0333ac	-0.1281268
33	0xbe2164f0	-0.15761161
34	0x3e24fb64	0.16111523
35	0x3d974e21	0.07387949
36	0xbdb6eb94	-0.08931652
37	0xbda3db25	-0.08000783
38	0xbe1cc375	-0.15308936
39	0xbdd36f69	-0.10323984
40	0x3d12315f	0.035691615
41	0x3d6ab6a6	0.057303093
42	0x3bacca93	0.005273172
43	0xbbc00914	-0.005860457
44	0x3dcfea17	0.10152071
45	0xbe17b3dd	-0.14814706
46	0x3dd53e4d	0.104122736
47	0xbe20704d	-0.1566784
48	0x3db41353	0.08792748
49	0x3e147315	0.14497025
50	0x3c880764	0.016605087
51	0xbddc6d08	-0.107629836
52	0x3d3375bc	0.043813452
53	0xbe08583c	-0.13314909
54	0x3c06afc0	0.008220613
55	0xbd1285a3	-0.035771977
56	0xbe318165	-0.17334516
57	0xbd381dff	-0.04495048
58	0x3e3c6d0d	0.18400975
59	0xbb648095	-0.003486668
60	0xbd711674	-0.058859304
61	0xbc7b4fbc	-0.015338834
62	0x3e446a37	0.19181143
63	0x3b3bd1dd	0.0028659024

fc1.weight f4 [32, 1920]
0	0x3c15f994	0.009153742
1	0xbc9bb469	-0.019006925
2	0xbc9feee6	-0.019523095
3	0x3b8c3de4	0.004279839
4	0x3c4a83e6	0.012360549
5	0xbc3b1962	-0.011419626
6	0xbd0345de	-0.032049052
7	0xb9b3259a	-0.00034169556
8	0xbc29ff49	-0.010375806
9	0xbc65b4db	-0.01402017
10	0xbcb59090	-0.02216366
11	0xbcedb07a	-0.029014815
12	0xbc88e97a	-0.016712893
13	0xbc96fb54	-0.01843039
14	0x3c38525e	0.011250107
15	0x3c1b3bbd	0.009474692
16	0xbc941b3a	-0.018079389
17	0xba7d53a4	-0.00096636475
18	0xbc56d6c0	-0.013112724
19	0xbbfc8305	-0.0077060484
20	0xbba8de9b	-0.0051534898
21	0x3c078626	0.00827173
22	0x3a23c88a	0.0006247839
23	0x3c2cb8ba	0.010542089
24	0x3b5205cc	0.0032046912
25	0x3c5f5104	0.0136301555
26	0xbbb85211	-0.0056250175
27	0x3b0eb2e6	0.0021774112
28	0xbcc048d3	-0.023472225
29	0x3c584478	0.013199918
30	0x3b8d272d	0.0043076486
31	0xbc4f17d8	-0.012639962
32	0xbc550a5e	-0.01300296
33	0x3c940d60	0.018072784
34	0x3b7c0ae8	0.003845865
35	0x3cadce1c	0.021216445
36	0x3aee07ad	0.0018160247
37	0xbc648824	-0.013948474
38	0xbae8490d	-0.0017721966
39	0x3cbaf346	0.02282108
40	0x3cad0615	0.021121064
41	0x3c754186	0.014969235
42	0xbc8d7978	-0.017269835
43	0x3ca8635d	0.020555193
44	0xbcb99459	-0.022653745
45	0x3a923f4d	0.0011157781
46	0x3d012cc6	0.03153684
47	0x3c83d31b	0.016091874
48	0xbb7333b8	-0.0037109684
49	0x3c85709b	0.016289046
50	0xbc34166a	-0.010991672
51	0x3abb8c9a	0.001430887
52	0x3b3dc227	0.0028954835
53	0xbc15ede7	-0.009150959
54	0xba24d3d1	-0.00062876666
55	0x3b107340	0.002204135
56	0xbba19a60	-0.004931733
57	0x3ce7fc19	0.028318452
58	0xbc7a9411	-0.015294091
59	0x3d07e3b5	0.033176143
60	0x3caf677e	0.021411654
61	0x3b21d6c8	0.002469467
62	0x3c667c1b	0.014067675
63	0x3b978452	0.004623928
64	0xbc83a6b7	-0.016070707
65	0x3c23947f	0.009984135
66	0x3c3a6cb4	0.011378456
67	0xbca23061	-0.01979846
68	0xbc8dc7e8	-0.017307237
69	0xbcb743a0	-0.022371113
70	0x3c3125a1	0.010812194
71	0x3a3e82cf	0.0007267417
72	0xbc81ca27	-0.015843464
73	0x3c89e028	0.016830519
74	0x3a89e8ac	0.0010521612
75	0xbccaca8a	-0.024754781
76	0xbcd4db38	-0.025983438
77	0xbcb25c18	-0.02177243
78	0xbce59a1e	-0.02802759
79	0x3c10ad60	0.008830398
80	0xbc8598f1	-0.01630828
81	0x3c34575f	0.011007159
82	0xbc303197	-0.010754011
83	0xbcb1593a	-0.021648992
84	0x3bf9d824	0.007624643
85	0xbbb3a0db	-0.005481822
86	0x3c9081a0	0.017639935
87	0x3b03055c	0.0019992208
88	0x3c86ce8e	0.016455915
89	0x3ae9d644	0.0017840345
90	0xbceef522	-0.029169623
91	0xbce98543	-0.028505927
92	0xbb87b75e	-0.004141732
93	0x3bcd7aa3	0.006270723
94	0xbc637582	-0.0138829965
95	0xbbe2488c	-0.006905621
96	0x3bb8752a	0.0056292014
97	0xbb759e3f	-0.0037478355
98	0xbc60b206	-0.013714319
99	0xba25711c	-0.0006311105
100	0xbc970284	-0.018433817
101	0xbc837dc7	-0.016051186
102	0xbc53ae87	-0.0129200285
103	0xbd1618b7	-0.036644664
104	0xbbf28735	-0.007401372
105	0xba0bb1ce	-0.0005328924
106	0x3c1388fc	0.009004828
107	0xba6d43e2	-0.0009050948
108	0xbcb5cd3e	-0.022192594
109	0xbbe715ec	-0.007052174
110	0xbc904bf1	-0.017614337
111	0xbd03b574	-0.03215547
112	0x3b25a018	0.0025272425
113	0x3b4254c2	0.002965257
114	0xbcd1e332	-0.02562103
115	0xbc693e8b	-0.014236103
116	0xbc71cb25	-0.014757906
117	0xbc1ee1ef	-0.009697421
118	0xbc2ad8aa	-0.010427633
119	0xbd13c4fe	-0.03607654
120	0xbcbdfa68	-0.023190692
121	0xbc91a00e	-0.017776515
122	0x3c45308d	0.012035501
123	0xbb464dad	-0.00302587
124	0xbc97d0a5	-0.018532107
125	0xbcf8bdcb	-0.030363938
126	0x3b9651f4	0.0045874063
127	0xbca44744	-0.020053513
128	0xbc9ca072	-0.019119475
129	0xbb78e4b3	-0.0037978112
130	0xbce9bb42	-0.028531674
131	0x3b2dbcf7	0.0026510337
132	0x3ca8b38f	0.020593433
133	0x3c0326e6	0.00800488
134	0xbc73befa	-0.014877075
135	0xbc9ff19e	-0.019524392
136	0x3bfe3c0d	0.0077586235
137	0xbbcb70fa	-0.006208536
138	0xbcceb2d0	-0.025231749
139	0xbc90ea94	-0.01768998
140	0x3a94cbb8	0.0011352217
141	0x3c6e5089	0.014545568
142	0xbceff83d	-0.029293174
143	0x3c07a796	0.008279702
144	0xbc9f92ac	-0.019479118
145	0xba8337f8	-0.0010011187
146	0xbc43d1de	-0.011951892
147	0xbc7b75cf	-0.015347912
148	0xbc58c2b2	-0.013230013
149	0xbcae7a0f	-0.021298436
150	0xbbe8439c	-0.007088138
151	0xbb28e063	-0.002576851
152	0x3b72a2e6	0.0037023365
153	0xbc0dddfb	-0.008658881
154	0xbc0990f9	-0.008396381
155	0x3c2e3945	0.010633771
156	0xbbd24e29	-0.006418009
157	0xbc331daa	-0.010932365
158	0xbcf35728	-0.029704645
159	0x3b7cdffe	0.0038585658
160	0xbc070d5f	-0.008242934
161	0x3c518be5	0.012789701
162	0xbcfa311b	-0.030540993
163	0xbc2b8221	-0.010468037
164	0xbbed4da7	-0.007241923
165	0x3c18bff4	0.009323109
166	0xbc9fdb4d	-0.01951375
167	0x39681c9a	0.00022135899
168	0xbce0e59b	-0.027453234
169	0xbcb952ce	-0.022622492
170	0xbcf52955	-0.029926935
171	0xbca204c1	-0.019777657
172	0xbd0f3b2b	-0.034968536
173	0xbc87a5a5	-0.016558478
174	0x3abae39c	0.0014258507
175	0xbcd694e6	-0.026194047
176	0xbadef304	-0.001700968
177	0x3ba5354f	0.0050417553
178	0x3bf43e46	0.0074537126
179	0x376f1c2b	1.42520685e-05
180	0xbcd11227	-0.025521351
181	0xbcb11509	-0.021616476
182	0xbc830c4a	-0.01599707
183	0xbcce94a5	-0.025217364
184	0xbce1b3c8	-0.027551547
185	0xbcb7aa0c	-0.022419952
186	0x3ba8c816	0.005150805
187	0xbd091aae	-0.03347271
188	0xbcb09131	-0.021553608
189	0xbcd125d6	-0.025530737
190	0xbc954a1d	-0.018223817
191	0xbca42249	-0.02003588
192	0xbc048dbe	-0.008090435
193	0x3bda0be7	0.006654251
194	0xbd0758cf	-0.03304368
195	0xbca312df	-0.01990646
196	0xbcc110c5	-0.023567567
197	0xbd06f22f	-0.032945808
198	0xbb6e84fa	-0.0036395178
199	0xbcf6b6b6	-0.03011642
200	0x3bf78e47	0.0075548026
201	0xba957645	-0.0011403045
202	0xbc71bda9	-0.014754691
203	0xbd060907	-0.032723453
204	0xbc2c16b5	-0.010503461
205	0x35847a4e	9.870362e-07
206	0xbc9fdc7c	-0.019514315
207	0xbb801162	-0.003908322
208	0xbc8a26fa	-0.016864289
209	0xbc649a48	-0.013952799
210	0xbb17ef30	-0.0023183338
211	0x3bbce02f	0.0057640295
212	0xbbc3370c	-0.00595749
213	0x3b4e6e18	0.0031498726
214	0x3b9a5b07	0.0047105583
215	0x3c2e5ec4	0.010642711
216	0xbc46274e	-0.012094332
217	0x3c0befc2	0.008541049
218	0xbc3bbe44	-0.011458937
219	0xbc8e5d76	-0.01737855
220	0xbc8ac84a	-0.016941208
221	0x38c8aae9	9.568578e-05
222	0xba8383c2	-0.0010033774
223	0xb98d2359	-0.00026919952
224	0xbb9e3905	-0.0048285746
225	0x3c0b207d	0.0084916325
226	0x39ee9a33	0.00045509785
227	0xbcb8361c	-0.022486739
228	0x3b00f7bd	0.0019678914
229	0x3bac51ce	0.0052587753
230	0x3a3a24c0	0.0007100813
231	0xbccda890	-0.02510479
232	0xbc589d42	-0.013221087
233	0xbcc48372	-0.02398846
234	0x3b927ba4	0.0044703055
235	0x3c21b0c1	0.009868802
236	0xbca00cba	-0.019537318
237	0x3cae0cda	0.021246362
238	0x3c71adec	0.014750939
239	0xbc659232	-0.014011906
240	0x3a1b26bd	0.0005918553
241	0x3c5f565b	0.013631429
242	0xbcd0634f	-0.025437979
243	0xbc787b76	-0.015166154
244	0xbc21327c	-0.009838697
245	0x3c362ec0	0.0111195445
246	0x3cd2577b	0.02567648
247	0x3ccf4e0b	0.025305768
248	0x3ccd4076	0.025055151
249	0xbb705d84	-0.0036676833
250	0x3cc93a6c	0.02456399
251	0xbc6e486b	-0.014543633
252	0x3cd489ce	0.025944617
253	0xbb210734	-0.0024570944
254	0x3cbb8d56	0.022894543
255	0x3c534653	0.012895185

fc1.bias f4 [32]
0	0xbbe6ef06	-0.007047537
1	0x3ca5b204	0.020226486
2	0xbc6b155b	-0.014348353
3	0xbaa69241	-0.0012708382
4	0x3bf07df6	0.0073392345
5	0x3cffff43	0.031249648
6	0xbc977f70	-0.018493384
7	0xbce05c71	-0.02738783
8	0x3c92f79a	0.017940331
9	0x3d11b76f	0.035575327
10	0x3bea6cdb	0.00715409
11	0xbca6ed95	-0.02037696
12	0x3bd698d8	0.006548982
13	0xbcc05ab3	-0.023480749
14	0xbc04bbb7	-0.008101395
15	0x3b9f1984	0.0048553366
16	0xbcda8dae	-0.026678886
17	0xbca54893	-0.020176208
18	0x3babff96	0.005248974
19	0x3c49c4c6	0.012314981
20	0x3cb6efbc	0.022331111
21	0x3c3f57ef	0.01167868
22	0xbcaaefdd	-0.020866329
23	0xbcce0da6	-0.025152992
24	0x3c2c7bfd	0.010527608
25	0xbbd413a2	-0.006472067
26	0xbc275f47	-0.010215587
27	0xbbf3abd5	-0.0074362555
28	0xbc7875cf	-0.0151648065
29	0xbb4f246f	-0.003160741
30	0x3c0a22d0	0.0084311515
31	0x3d0ca076	0.034332715

fc2.weight f4 [1, 32]
0	0xbe03bae5	-0.12864263
1	0xbd809d72	-0.0628003
2	0xbdef9d93	-0.11699977
3	0xbe1b988c	-0.15194911
4	0xbe0ab0cb	-0.13544004
5	0xbe1151fe	-0.14191434
6	0xbe17fd0d	-0.14842625
7	0x3e107308	0.14106381
8	0xbe221d15	-0.15831406
9	0xbe279dbc	-0.16368765
10	0xbd8c98ea	-0.068651035
11	0x3dbc71e5	0.09201411
12	0xbcaf1be2	-0.0213756
13	0xbdaf687d	-0.085648514
14	0x3d7c95a7	0.061666157
15	0x3e16f9ca	0.14743724
16	0x3deadbca	0.11467703
17	0x3d83f260	0.06442714
18	0x3e107e7a	0.14110747
19	0x3e0fc772	0.14040926
20	0xbd5b9bae	-0.053615265
21	0x3e1dbb42	0.15403464
22	0xbca2fd0d	-0.019896055
23	0x3b6182e3	0.003441029
24	0x3de48380	0.11157894
25	0x3b3ed54a	0.002911883
26	0x3dbd63c8	0.092475474
27	0x3cdfdcca	0.02732696
28	0xbe1ae70f	-0.15127204
29	0x3da3ca1a	0.07997532
30	0x3bf2b3e8	0.0074067004
31	0xbe0b1cdd	-0.13585229
