models/saved_models/lstm1.pth (torch, 51204 bytes, 37 tensors)

lstms.0.weight_ih_l0 f4 [64, 1]
000000 7d cf 4c be 8a 8d 8b 3e ef ef 97 3d 00 65 8f 3b
       -0.20001025 0.27256423 0.074188106 0.004376054
000010 a6 51 0d 3e d5 1d 66 be f0 5f 20 3e 54 63 6d be
       0.13800678 -0.22472318 0.15661597 -0.23182422
000020 f7 a4 78 3e 00 8b 19 3e 5d fd 6d 3d 76 a7 8b be
       0.24281679 0.1499443 0.058102954 -0.272762
000030 37 44 07 be 89 3f 88 3e 14 7e bc bd 4e f9 73 3e
       -0.13209616 0.26610973 -0.09203735 0.23825571
000040 9d 5e 26 3d 6f 4a 71 3e 5b 74 6e 3e c4 f5 15 be
       0.040617574 0.2356355 0.23286574 -0.14644533
000050 7d ec 20 be 88 ae ad 3d b9 bb a4 3e 19 5b b3 be
       -0.15715213 0.08480555 0.3217447 -0.3503044
000060 81 d0 db bc 1d d9 7f 3e d5 10 51 3d 1d 41 36 bd
       -0.02683282 0.24985166 0.051041443 -0.04449569
000070 e9 a0 6e 3e 11 74 f7 3d 8f d4 2c bc af a4 7b 3d
       0.2330357 0.12082685 -0.010548725 0.06143635
000080 27 da 33 be 44 c5 15 be f4 33 34 be 82 4b 88 3e
       -0.17563687 -0.14626032 -0.17597944 0.26620108
000090 70 d5 9f 3e 9c a6 7a bd 1b 09 0f 3e 98 4d 39 3e
       0.31217527 -0.061194047 0.13968317 0.18096006
0000a0 dc 98 d0 bd 3d 05 14 3e 59 2d 97 be 51 02 12 3e
       -0.101854056 0.14455123 -0.29526785 0.14258696
0000b0 1e be b2 3e 52 c8 39 3e e2 ee dd 3c 60 90 61 3e
       0.34910673 0.18142822 0.027091447 0.22027731
0000c0 cf 42 f5 3c 3e f3 88 3e d3 b5 65 3e 49 61 da bd
       0.029939083 0.2674808 0.22432642 -0.10663087
0000d0 20 4b c6 3d 3b 84 3d be f1 ef 11 3e 53 4d b8 be
       0.09682298 -0.18507473 0.14251687 -0.35996494
0000e0 49 9b 95 3d 36 1e ec bd 7f 0e 01 3e 62 e0 44 be
       0.07305009 -0.115292 0.12603186 -0.1922622
0000f0 b0 05 81 3d e6 03 77 3e dd 9a 46 3e be 42 45 3e
       0.06299913 0.24122581 0.19395013 0.19263741

lstms.0.weight_hh_l0 f4 [64, 16]
000000 1d b5 0e 3e cb f8 68 3d d1 d5 bd bc f8 04 c0 3c
       0.13936277 0.056877892 -0.023173245 0.02343987
000010 15 74 c0 bd af f8 91 3e 36 39 4c bd d0 d5 12 be
       -0.09397141 0.28510043 -0.049859248 -0.14339375
000020 9f 32 32 3e b2 d0 71 be a2 41 a5 3e 73 0d 8a bd
       0.17402123 -0.23614767 0.32276636 -0.067408465
000030 67 59 07 be 10 35 88 be 72 5b e8 3c 11 06 21 be
       -0.13217698 -0.26602983 0.028363917 -0.1572497
000040 aa ac a5 3d f2 44 1b bd a9 0e 3d 3e c8 1a 0d be
       0.08089574 -0.03790755 0.18462624 -0.13779747
000050 2f ab 74 be 1a 53 1c 3e e6 cd c0 bc 66 7b ca bc
       -0.23893426 0.15266076 -0.02353568 -0.024717044
000060 2d 45 a4 bd 78 81 e1 3d 91 bf c2 bd 14 03 87 bd
       -0.08021007 0.11011022 -0.09509195 -0.06592384
000070 6e ab fc bc 88 75 a7 3a e0 68 4c 3e f9 4f 8a be
       -0.030843463 0.0012776116 0.19961882 -0.2701414
000080 9e 0e 12 be 65 6f b1 be 6f 8c 52 3d e4 c7 a0 3d
       -0.14263389 -0.346553 0.05140346 0.07850626
000090 ee f3 77 3d 3e a9 9a bd fe 56 bc 3e ea 2c 19 be
       0.060535364 -0.07551812 0.3678512 -0.1495854
0000a0 98 e9 80 3e 29 bd 0a 3e 90 c2 b2 be 23 3a ec 3c
       0.25178218 0.13548721 -0.34914064 0.028836315
0000b0 c8 24 6d be 80 91 f6 3c ae 7d a4 bc ba e2 12 3d
       -0.23158562 0.030098677 -0.02007946 0.035860755
0000c0 5b 8a f4 3d 00 79 47 be c4 cd bd be 4a c8 fc bb
       0.11940452 -0.19479752 -0.3707105 -0.007714306
0000d0 a7 4f 4a 3e f9 29 4e be 25 03 d5 bd 29 86 10 bd
       0.19756947 -0.20133199 -0.104009904 -0.035284195
0000e0 c1 59 27 be 21 f2 2e 3e cc 31 15 3d d0 17 13 3e
       -0.16342832 0.17084552 0.036424443 0.14364552
0000f0 96 e5 7d 3e d1 3d bc bd dc f8 dd bd 21 98 02 3e
       0.24794611 -0.09191478 -0.10838482 0.12753345
000100 61 a5 30 be e8 d3 b1 3e 8c 55 89 3e 48 cd b4 be
       -0.17250587 0.34731984 0.2682308 -0.35312867
000110 86 31 cb 3d 1b d7 3c bc f5 26 12 be f2 17 1d be
       0.09921555 -0.0115258945 -0.14272673 -0.15341166
000120 fe 7c 2b 3e b1 33 f4 be 91 7c 0f 3e 58 25 17 bc
       0.167469 -0.47695687 0.14012362 -0.009225212
000130 23 43 95 3d ab ad 0a be 27 40 02 bf 4e 48 95 be
       0.07288196 -0.13542812 -0.5087914 -0.29156727
000140 ec c1 14 be e4 6e 26 bd af 4f 13 be 29 bb 84 3d
       -0.145271 -0.040633097 -0.14385866 0.064810105
000150 b6 18 91 3e 45 82 b3 bd 1a 57 5b 3e ac 3d 89 3d
       0.28339165 -0.08765081 0.21419945 0.06701216
000160 62 a5 5d 3e ab 58 05 be 20 4f 7e 3d 3b 1d 9a bd
       0.2164512 -0.13022105 0.06208718 -0.075251065
000170 c3 a4 65 3c 63 c1 49 3e ed da 08 be 1f c0 3f bd
       0.014016333 0.19702677 -0.13364764 -0.04681408
000180 c0 0c ec bb f8 d2 c5 bd 5b 88 a5 3d 93 00 28 3d
       -0.0072036684 -0.0965938 0.08082648 0.041016173
000190 3f d6 e8 bd 7d dc 9f 3e 6f 08 1f bc 11 c1 ec 3c
       -0.11368989 0.31222907 -0.009706601 0.028900655
0001a0 a3 e6 38 be 69 a9 f6 3c 70 c9 18 3e d8 61 77 bc
       -0.18056731 0.030110078 0.14920592 -0.015099011
0001b0 59 0b 99 3e 94 33 00 be e7 f1 04 be 76 69 75 3e
       0.2989147 -0.12519675 -0.12982903 0.23966011
0001c0 b1 c3 61 bd d0 42 8a bd 28 63 f9 3d a2 fb 26 be
       -0.055118266 -0.06751025 0.12177116 -0.16306928
0001d0 19 74 8b bb 74 10 9b 3d e9 a1 01 be f1 eb ca be
       -0.0042557833 0.075714976 -0.1265942 -0.39633134
0001e0 1f e6 62 be fe bf 11 be 4a ce 50 3e be 9b 3c 3d
       -0.22158097 -0.14233395 0.20391193 0.046046965
0001f0 2c 5b 8e 3d 25 ed b4 3c 4a e9 72 3d a6 5b 52 be
       0.069509834 0.022085736 0.059304513 -0.20542774
000200 a9 bb 6d be b2 bb 0f be fc fc 5b be 17 ad 0b be
       -0.23216118 -0.14036444 -0.21483225 -0.13640247
000210 d6 02 a6 3e f7 7a 31 bd a8 ba a3 3e 4e f5 60 3c
       0.3242404 -0.04333016 0.31978345 0.01373036
000220 e6 08 76 3d 85 63 1a be f5 74 60 be ba 6a e9 3e
       0.06006708 -0.15077026 -0.21919616 0.45589238
000230 1c 16 83 3e 7c 38 05 bd 8d 19 c5 3d d5 a2 d0 bd
       0.25602806 -0.03252457 0.09624014 -0.10187308
000240 0a 8b 49 3e 53 a9 a2 3d ae e8 bd bd 38 c6 99 3d
       0.19681945 0.07942452 -0.09272896 0.0750851
000250 38 11 7b bd e3 48 14 be ca 73 b5 bd b5 93 83 3c
       -0.061295718 -0.14480929 -0.08859976 0.016061643
000260 d7 fe f9 3b 9a 68 03 be 20 bb 78 bd cc ac a4 3d
       0.007629256 -0.12832871 -0.06072533 0.08040771
000270 5d a9 92 be 32 34 a3 be 57 8c 0f 3e fa f2 e0 3c
       -0.2864484 -0.3187576 0.14018379 0.02745961
000280 38 4f d3 bd 7e 8c 2a bd 29 6f b4 bd 2b fd 4a be
       -0.10317844 -0.04163789 -0.088102646 -0.19823138
000290 14 bd ea 3d 33 55 59 bd f1 66 02 be e4 a9 1a bb
       0.11461845 -0.053059768 -0.12734582 -0.0023599798
0002a0 4b 9c 23 be d0 e7 86 be 1b a1 b2 bd b2 78 93 3d
       -0.1597759 -0.26348734 -0.08722135 0.07200755
0002b0 f1 00 12 3e 59 4f ea bd 58 b7 b1 be a8 27 85 bd
       0.14258172 -0.114409156 -0.34710193 -0.065017045
0002c0 71 6a 70 3e 97 f3 86 3e 53 47 d2 bb 6d a7 32 3e
       0.23478104 0.2635772 -0.006417194 0.1744668
0002d0 4e 57 91 3d bb c7 cb 3e 28 2f 60 be d8 4b ef bd
       0.0709673 0.3980082 -0.21892989 -0.11684388
0002e0 d6 68 9f 3d c2 54 25 bd 34 de 6d bd b0 fe 15 3d
       0.07783668 -0.040364034 -0.058073238 0.036619842
0002f0 11 45 8a 3e c0 f2 0f 3e 49 b4 6a be 9d 2e a4 3e
       0.27005818 0.14057446 -0.22920336 0.32066813
000300 2a 06 b6 be 75 f4 09 3d 77 12 1e be 64 c4 b5 3e
       -0.35551578 0.033680398 -0.15436731 0.35501397
000310 67 79 9d 3e 29 a5 9c bd f3 35 aa 3e 0d 9f 9b 3e
       0.30756685 -0.07648689 0.33244285 0.30394784
000320 c6 68 b5 be 48 eb 3b 3e 01 4b a3 be 15 a2 83 3e
       -0.35431498 0.18351471 -0.3189316 0.25709596
000330 b2 35 76 3e fa 2f 4a 3d b1 73 85 3e a7 34 c5 3d
       0.2404392 0.04936216 0.26064828 0.09629183
000340 79 0f 05 3e 4d 1d 8d 3e f9 a0 80 3d 64 a3 84 be
       0.12994184 0.27561417 0.06280703 -0.25905907
000350 43 14 16 3e 77 f8 b1 bd 5b 6d 86 bc 24 20 81 3d
       0.14656167 -0.08689969 -0.016409567 0.063049585
000360 cc 0f 24 bc 7b 28 32 3e f1 e3 00 bd cc 49 8c 3d
       -0.010013532 0.17398255 -0.031467382 0.06850013
000370 cb 37 f4 bd c2 13 7d be 6e 35 41 be 44 67 3c be
       -0.11924704 -0.24714568 -0.18868038 -0.18398768
000380 1a 7f 59 be 2a 42 de bd 17 25 d2 bd 61 2d 89 3e
       -0.21239892 -0.108524635 -0.102609806 0.26792434
000390 4a c2 81 3d aa d8 2e be 84 a9 d4 bc 9a 8e ad bd
       0.06335886 -0.17074838 -0.025959738 -0.08474465
0003a0 50 cc 07 bf 89 d6 8a bd c5 f0 89 bd 44 45 97 3e
       -0.5304613 -0.067792006 -0.06735376 0.29545033
0003b0 21 a9 99 3e bd f2 ae bc 11 66 4b 3e af b8 b0 3d
       0.30011848 -0.021355981 0.19863154 0.086289756
0003c0 2d 82 3b be 4f ee a5 3d 45 ef 5f bd 7c 16 6e 3e
       -0.18311377 0.081020944 -0.054671545 0.23250765
0003d0 b1 d1 b6 3d f8 ad 4f be b1 7b 9d 3d 31 68 17 be
       0.08926714 -0.20281208 0.07689608 -0.1478584
0003e0 d2 db 3c be 1e 24 0d be 30 cd 99 be 5b 47 21 3e
       -0.1844323 -0.13783309 -0.30039358 0.15749876
0003f0 e6 0d b1 3e 65 e6 00 be e9 19 35 bd 17 18 61 3e
       0.34580916 -0.12587889 -0.044214163 0.21981846

lstms.0.bias_ih_l0 f4 [64]
000000 99 35 d8 bd ae 55 1c be 92 31 1d be 6a 6d 1b bd
       -0.10557098 -0.15267059 -0.15350941 -0.037946142
000010 8f ed 56 be 14 0a cc 3d 2c f4 22 be 8d ab b5 3c
       -0.20989059 0.0996286 -0.15913457 0.022176528
000020 e7 dd ec 3d e9 53 2d be ff 9f 95 bd c5 74 e0 3e
       0.11565762 -0.1692654 -0.073059075 0.43839088
000030 c8 27 eb 3d c3 20 c3 bd ec 6b a3 3e 7b 7e f6 bd
       0.11482197 -0.09527733 0.31918275 -0.12035843
000040 43 34 0f 3d cd 27 3b be e1 79 db bd 65 4b 6f bd
       0.03496195 -0.18276902 -0.10716606 -0.05842151
000050 7f 04 bb 3d 85 2a be 3d 7a ae b0 3d a7 ae 09 bd
       0.09131717 0.09285454 0.08627029 -0.033613827
000060 ab ad 64 3e 53 59 51 3e 01 88 0d bd f8 c1 ca 3e
       0.22331874 0.2044423 -0.03455353 0.3960111
000070 52 12 88 3e 69 6c 29 3e 9b bc 59 bd 72 19 8b 3e
       0.26576477 0.16545261 -0.053158384 0.2716785
000080 ff 19 b8 3c fb 17 2c 3e aa db 54 be eb cb ef bd
       0.022473333 0.16806023 -0.2078692 -0.11708816
000090 5d ff f0 3d be ae 3f 3e 2d 9b 5f be 6a 91 c0 3c
       0.11767457 0.18719003 -0.21836539 0.023506839
0000a0 3c c5 28 3d 36 86 0b 3e 53 fe 5a be c9 a7 6c 3e
       0.041203722 0.13625416 -0.2138608 0.2311088
0000b0 f2 5e 4e 3e 81 b0 34 3e d6 71 3f be 64 e3 52 3e
       0.20153406 0.17645456 -0.18695769 0.20594555
0000c0 e6 12 4e bd 35 32 36 3d 0d a3 7f be 72 04 70 bb
       -0.05031099 0.044481475 -0.24964543 -0.0036623743
0000d0 2f 2e b8 b9 56 2d ea bd 1c a6 e9 3d e0 d8 65 be
       -0.00035129624 -0.114344284 0.11408636 -0.22446012
0000e0 1f 19 b4 3d d8 96 6d 3e e4 29 a3 3e 5a 8f d3 3d
       0.08793854 0.23202074 0.31867898 0.103300765
0000f0 de f2 42 bd 0c 34 a7 3d b4 cc fc bd af a5 23 3e
       -0.047594897 0.08164224 -0.123437315 0.15981172

lstms.0.bias_hh_l0 f4 [64]
000000 ed a1 19 3e 2f 62 ae be c9 64 9b bd e9 6b 90 3e
       0.15003176 -0.34059283 -0.075875826 0.2820733
000010 c9 39 88 bd a8 3a b0 bd 1d 14 c2 bd f9 c5 21 bc
       -0.06651647 -0.08604938 -0.094764926 -0.0098738605
000020 f6 d8 77 3d a3 35 95 3d 2b b5 97 3e 4f 20 2e 3e
       0.060509644 0.07285621 0.29630408 0.17004512
000030 e3 37 00 be 6a d5 21 be 72 cb 60 3e 99 56 ef 3d
       -0.12521319 -0.15804067 0.21952608 0.11686439
000040 bb 2c 44 bc ab 78 04 be 9b 5e c8 3c f9 80 c7 bd
       -0.011973555 -0.12936656 0.024459174 -0.097413965
000050 fc 4b 1f 3d f0 77 65 3d 48 f1 90 3e 36 6f b8 bc
       0.038890824 0.056022584 0.28309083 -0.022513967
000060 97 af 18 be 41 e3 4e 3e b5 b6 b0 3b 60 32 e6 3d
       -0.14910732 0.20203878 0.005392874 0.11240077
000070 eb fa a6 3e 02 bf 1a 3e e7 dc d3 3e 68 fb ce bc
       0.3261331 0.15111926 0.41379473 -0.025266364
000080 41 61 21 be e7 bf 7d be 62 5e 03 bd 43 6a be 38
       -0.15759756 -0.24780236 -0.032072432 9.079699e-05
000090 8d 19 6d 3d e2 74 82 bd 0d c0 09 3e 2a 7f 80 3d
       0.057885695 -0.0636995 0.13452168 0.062742546
0000a0 ac 9f 7e be 8b 0b dc bd ff 1a 17 3e 1c bf 0f bd
       -0.24865597 -0.10744389 0.14756392 -0.035094365
0000b0 57 59 61 3d cd 8a 47 be 24 0a 67 bc 45 d0 7e bd
       0.05501684 -0.19486542 -0.014101539 -0.06221034
0000c0 35 03 33 be 12 66 52 bd ef 16 71 be 6a f9 ba bc
       -0.17481692 -0.051366873 -0.23543905 -0.022824008
0000d0 20 a4 64 be b0 22 46 3d e7 30 57 3c a6 e9 a1 3d
       -0.22328234 0.048372924 0.013134218 0.07905893
0000e0 f3 c3 25 3e 21 b9 55 3e fb 7e a9 bd 80 6f 65 3c
       0.1618803 0.20871402 -0.08276173 0.014003634
0000f0 90 00 98 3e fb c8 ab 3e 01 d3 6d 3e 2d 76 d1 3d
       0.2968793 0.33551773 0.23225023 0.10227618

lstms.1.weight_ih_l0 f4 [64, 1]
000000 d9 c2 90 3c ea 5d 60 bd e9 81 28 3f 8a f4 fc bd
       0.017671036 -0.054777063 0.6582323 -0.123513296
000010 a3 91 81 be 26 73 92 3e c3 07 16 3c 23 ba 17 be
       -0.25306424 0.28603476 0.009157124 -0.148171
000020 a4 e1 ad be 7e 58 82 3d aa 8d 67 3c 32 a5 1c bd
       -0.33961213 0.06364535 0.014132896 -0.03824348
000030 9e d1 f3 3d 3f 93 2a 3d de 11 df 3d f3 e0 00 be
       0.11905216 0.04164433 0.1089208 -0.12585811
000040 d7 41 48 be 16 75 03 bf a4 52 3d 3f 3d 12 20 be
       -0.19556366 -0.51350534 0.73954225 -0.15631957
000050 9c f2 56 be 59 a0 89 3e a9 68 7a 3d 0f 62 6e be
       -0.20990986 0.26880148 0.061134968 -0.23279594
000060 d1 88 a7 bd fe 7b 1c bb 9f 8a af be af d8 0d 3d
       -0.081803925 -0.0023877616 -0.34285447 0.034630474
000070 f6 ea 1f be 3e a2 92 3e 3d 9f 20 bd 1c df 92 3a
       -0.15616974 0.28639406 -0.03921436 0.0011205408
000080 b9 8e 73 3e 59 63 1d be b9 75 25 bd d6 50 7a 3e
       0.23784913 -0.1536993 -0.040395472 0.24444899
000090 7d b6 be 3e 31 1e cf bd 0f 44 a3 bd 48 d3 6c 3e
       0.37248603 -0.101131804 -0.079719655 0.23127472
0000a0 a0 bd 5d be 9e 18 29 3c 3b 58 67 be c3 78 2c 3e
       -0.21654367 0.010320811 -0.22592251 0.16842942
0000b0 d3 78 2f 3e 19 8b 53 3e 53 53 0c 3e 18 52 35 be
       0.17135935 0.2065853 0.1370366 -0.17707098
0000c0 aa a3 5c be 17 01 ff be 6c 25 26 3f 71 c4 99 be
       -0.21546808 -0.4980552 0.6490085 -0.30032685
0000d0 c8 2d 4a be e5 f4 c4 3d ee 3b 50 3e 11 b2 aa bd
       -0.19744027 0.096170224 0.20335361 -0.08334745
0000e0 39 fc 5b be 54 bb 3b 3e b1 bc a4 be 38 47 44 be
       -0.21482934 0.18333179 -0.3217521 -0.19167793
0000f0 cb a0 b6 3d e0 9b c3 3d 91 7a b9 3b 6e 6c fc bd
       0.089173876 0.09551215 0.005660363 -0.12325369

lstms.1.weight_hh_l0 f4 [64, 16]
000000 7b c9 a5 be 9b b9 20 3e 3f e8 6a bd 73 0d de ba
       -0.3238028 0.15695803 -0.057350393 -0.0016941264
000010 6e 16 a9 3d 3f e9 d9 bd 03 ce 85 bb 88 4d d8 bd
       0.08256231 -0.10640191 -0.0040833964 -0.10561663
000020 4a a1 d9 3e 54 b8 e4 3d ed 19 c4 3e 4c da e6 3c
       0.42505866 0.1116797 0.3830103 0.028180264
000030 f9 fc 2a be 0b e5 e6 bd 00 ad 37 be c0 14 ab 3e
       -0.16698064 -0.11274155 -0.17937088 0.33414268
000040 fa ad 7d 3e 42 58 bf 3d 12 e7 4d bd a6 79 c7 3d
       0.24773398 0.09343006 -0.050269194 0.097399995
000050 d8 69 c8 3d 5d 6e 8e bd 9e 73 67 bd c2 d3 59 be
       0.09785813 -0.06954644 -0.056506746 -0.21272185
000060 f7 e6 47 3e 40 c4 57 3e a7 aa 99 3b c9 54 cf bd
       0.195217 0.21070957 0.004689533 -0.10123593
000070 2f 2a c2 bd 33 52 1d 3d 77 3e 8b bc d9 13 5e be
       -0.09480702 0.03840847 -0.016997559 -0.21687259
000080 b7 c0 e3 3d a9 47 11 be e8 5a 9e bd 23 73 36 3e
       0.11120742 -0.14187492 -0.07732183 0.17817359
000090 a2 c2 28 be db 72 80 be d8 93 00 3d d2 56 d7 3a
       -0.16480497 -0.25087628 0.031390995 0.0016429073
0000a0 bc 06 8f 3c 96 98 d1 be 3b 1c 33 3e 36 44 2d 3e
       0.017459266 -0.40936726 0.17491238 0.16920552
0000b0 45 3b 3c be 4a 04 53 3f 69 9d 16 be bc d9 ba 3d
       -0.18381985 0.8242842 -0.14708485 0.09123561
0000c0 13 e3 9d be 32 d3 de 3e c2 6f 0e bd 0d 89 e8 3d
       -0.30837306 0.43520504 -0.03477455 0.11354265
0000d0 cb a6 e9 be 3d ab 2a 3e 40 1c cf 3d 78 2c b0 bd
       -0.45635065 0.16666885 0.1011281 -0.08602232
0000e0 fc 9a 94 3e 46 24 d7 3d bb fa e4 bd c3 1a 98 3d
       0.29024494 0.105049655 -0.111806355 0.074269794
0000f0 b2 4e 49 3d 56 bc b6 bd 5a 38 16 3e 49 02 84 3e
       0.049147315 -0.08922641 0.14669934 0.25782993
000100 84 fb f1 be 88 f1 c4 3e cf 19 61 3e 67 50 a7 be
       -0.47262204 0.38465524 0.21982501 -0.3267853
000110 50 cf 8d be 3b f8 b5 3d 5d cf 44 3e c5 16 72 be
       -0.2769723 0.08885237 0.19219728 -0.23641498
000120 da 20 a1 3e 6a f3 77 be fe 98 07 3f 1d c0 31 be
       0.31470376 -0.24213949 0.5296782 -0.17358442
000130 9a 21 1e be 75 75 cf 3b ae 52 3e bc 26 ec a3 3e
       -0.15442505 0.0063311406 -0.011616392 0.32016104
000140 df 63 55 3e e0 7e 0b 3e a4 c1 e3 3d bd d6 1d 3e
       0.20838879 0.13622618 0.111209184 0.15413947
000150 52 82 f5 bd 51 96 6d bd b4 6b ea 3c a3 7e fc 3d
       -0.11987747 -0.05800468 0.02861581 0.123288415
000160 1a b2 28 be ca 24 9a be 39 73 7b be b4 b5 27 be
       -0.1647419 -0.30106193 -0.24555673 -0.16377908
000170 15 0f 4b be 85 3e a2 3e d4 08 14 3d 7f 27 64 3e
       -0.19829972 0.31688324 0.03614123 0.22280692
000180 e4 c0 bc 3e f7 92 d8 3c 4e 57 94 3d 8f 5f 86 bd
       0.36865914 0.026437266 0.072432145 -0.06561195
000190 01 ca aa 3d 8d 2b 9f 3d 7b 41 58 bd 74 72 29 3c
       0.083393104 0.077719785 -0.052796822 0.010342229
0001a0 63 a3 fd bd d8 9b 4d 3e 93 85 c9 bd be 41 e7 bd
       -0.12384679 0.20078981 -0.098399304 -0.11291836
0001b0 02 2f d7 3d 13 bc 80 3e f7 32 01 3e 0d 45 28 3d
       0.10507013 0.2514349 0.12617098 0.041081477
0001c0 c5 00 9f bd 14 b2 a4 3e 93 e2 ff 3e 90 54 a8 be
       -0.07763819 0.32167113 0.4997755 -0.32877016
0001d0 df ce 80 be d2 29 ea 3c 99 b6 e7 3d 82 be 3a 3d
       -0.2515783 0.028584395 0.113141246 0.04559184
0001e0 b3 e9 b0 3e 45 d5 8f 3d ee 5d 38 be e0 ad 48 be
       0.34553298 0.070231 -0.18004581 -0.19597578
0001f0 e0 db 5f be de 8f a7 be da 40 f3 bd 8b 96 8b 3e
       -0.2186122 -0.3272695 -0.11877604 0.27263293
000200 af ba be 3d cb 52 75 3d ef 75 93 3e 56 ff a5 be
       0.09312951 0.05989341 0.28800914 -0.32421368
000210 02 0f 5c be 65 6b bb bd 2e e8 06 be 1d 29 c6 be
       -0.214901 -0.09151343 -0.13174507 -0.38703242
000220 36 9c 89 3e 03 5d 22 be 86 82 5a 3d 96 2b 23 3e
       0.26876992 -0.15855794 0.053347133 0.15934595
000230 08 a3 f7 bd 94 6a f3 3b e6 fc 0f 3d 75 74 10 3e
       -0.120916426 0.0074284766 0.035153292 0.14106925
000240 11 35 a3 3d 8b 87 ea 3d 3f 20 c6 be 0c aa 69 be
       0.07969106 0.11451634 -0.38696477 -0.22818774
000250 38 a0 a2 be 3a db d3 3d f8 25 6c bd 0d 3e 07 be
       -0.31762862 0.103445485 -0.057653397 -0.13207264
000260 7d 28 45 3e ee c7 14 3e ca f3 05 be b5 5c 00 3c
       0.19253726 0.14529392 -0.1308128 0.007834603
000270 bc 77 b6 bb 28 c7 5d 3e 3b 63 c9 3d ed 32 96 3e
       -0.0055684727 0.21658003 0.0983338 0.29335728
000280 4f 6c 2b be 04 b4 8f 3e 90 26 05 be cd 31 85 3d
       -0.16740535 0.2806703 -0.13002992 0.06503639
000290 95 d2 89 3d dc 9e 2b 3e 69 4c 75 3e 48 56 7b bd
       0.067296185 0.16759819 0.2395493 -0.06136158
0002a0 75 cc d4 3d 9d d0 68 3e 9b a4 37 bd c4 d4 e3 bd
       0.103905596 0.2273583 -0.044834714 -0.11124566
0002b0 f5 6f 9a bd 49 c0 48 be 13 30 51 bd bb 4b e3 3d
       -0.07540885 -0.19604601 -0.051071238 0.11098429
0002c0 09 89 8a 3c 7a 04 33 be fc 62 07 3e 0a b8 0e be
       0.016911047 -0.17482176 0.13221353 -0.13937393
0002d0 fd 19 85 bd ee a5 b9 3d 0f a6 eb 3c d8 76 4b be
       -0.064990975 0.09064852 0.028765706 -0.19869554
0002e0 f4 31 8d 3e ae 4e 66 3c 8d 6d 11 3d 8c 53 8c be
       0.27577174 0.014056845 0.035504866 -0.2740749
0002f0 e8 d5 82 be 9b 6b 5b be 60 c0 b4 be 16 7d 8a 3e
       -0.25553823 -0.21427767 -0.3530302 0.27048558
000300 fc a3 47 bd fc bf 24 bd 7d 95 90 3e 58 ec 42 be
       -0.048740372 -0.040222153 0.2823905 -0.1903547
000310 d9 6e a1 be 39 7c 35 bd 40 c7 8a 3d 57 b2 8e be
       -0.31529883 -0.04430792 0.06776285 -0.27870438
000320 09 69 3b 3d 25 cf 5a be 7c 20 1f be e5 9b 09 3e
       0.045754466 -0.21368082 -0.15539736 0.13438375
000330 a7 33 c5 bd c7 60 c2 bd 2c c2 9c bd 33 b6 3b bd
       -0.096289925 -0.09491115 -0.07654223 -0.045828056
000340 fc 5c b4 3e 76 5e 1d 3c bb cc 93 be c3 4b 61 3e
       0.3522719 0.009605041 -0.28867134 0.22001557
000350 6d 00 42 be b7 2c 5e be 11 6e 04 3e 60 5a 6e 3e
       -0.18945475 -0.21696745 0.12932612 0.23276663
000360 68 e0 1b be cf ca f5 3c 1e ad 5b be 7e 8a 2c 3d
       -0.15222323 0.030003933 -0.21452758 0.042124264
000370 4c ad 50 bd a5 c6 ab 3e 63 82 43 3e e4 69 2e 3e
       -0.05094652 0.3354999 0.19092707 0.17032582
000380 38 87 ae be 5b cc a2 bc c4 b3 9a be bd a2 e2 be
       -0.3408754 -0.019872835 -0.30215275 -0.44264784
000390 18 f4 61 be 60 9d 0a be 24 ca 95 bd 29 c4 5a be
       -0.2206577 -0.13536596 -0.07313946 -0.21363892
0003a0 97 84 f9 3d d9 ef 77 be 71 76 2f 3e 5a b7 ab be
       0.12183493 -0.24212588 0.17135026 -0.33538324
0003b0 96 1d b1 bc f7 9a b4 bc 78 0b 4a bc a3 b9 0c bb
       -0.021620553 -0.02204655 -0.012331836 -0.0021472953
0003c0 60 25 c3 bd cc 85 70 bb a2 2a 8b 3e f4 93 7d 3d
       -0.09528613 -0.0036700843 0.27180964 0.061908677
0003d0 b6 2e 25 be 0f 65 9c 3e 9f 29 7a 3e 6f a9 02 be
       -0.161311 0.30545852 0.2442994 -0.12759946
0003e0 f7 0b 95 3e 82 30 54 be 64 1f a1 3e 09 70 41 be
       0.2911069 -0.2072163 0.31469262 -0.18890394
0003f0 cb 31 9f 3d 5a 18 18 3e a8 98 09 3d 82 b9 3e 3e
       0.07773169 0.1485304 0.03359285 0.18625453

lstms.1.bias_ih_l0 f4 [64]
000000 9f 61 62 bd 8b 7b 6a 3e e5 26 29 bc 1e 35 5a 3e
       -0.05526888 0.2289869 -0.010324215 0.21309325
000010 a0 6a 01 be 14 8b 22 3e 0f 9b 1e 3e f8 dd 47 3e
       -0.1263833 0.15873367 0.15488838 0.19518268
000020 62 2a 95 bc 20 18 08 bd 8c 77 0f be 4a 25 b7 bd
       -0.018208686 -0.033226132 -0.14010447 -0.08942659
000030 52 d8 0b be 0b a8 22 be 3f af b0 bd 58 3b e1 3d
       -0.13656738 -0.15884416 -0.086271755 0.10997647
000040 57 c6 c2 3e 44 50 34 be 11 1d 30 be 85 ee ea 3c
       0.38041946 -0.17608744 -0.17198588 0.028678188
000050 5f 9b db bd b5 7a 1a bc 0c 23 9f bd a4 95 18 3e
       -0.10722994 -0.00942867 -0.077703565 0.14900833
000060 7c b0 66 3e 56 29 90 3e e1 55 75 3e c5 d6 79 3c
       0.22528261 0.28156537 0.23958541 0.015248959
000070 69 2c 4a be 8a 9f 59 be 29 4a c8 3e ab ff f1 3d
       -0.19743504 -0.21252266 0.3911908 0.11816343
000080 7f c5 5d 3e 76 45 5d 3a 78 ca 2c be de 2e 8f bd
       0.2165737 0.00084408314 -0.1687411 -0.06991361
000090 e3 b8 5b 3e c9 a4 37 be ab 3b 11 be 66 02 87 3e
       0.21457247 -0.17933954 -0.14182918 0.26369017
0000a0 14 65 b9 3d 6d fa 07 3e bc 5d a0 3d 7a 1b 4e be
       0.09052482 0.13279124 0.078303784 -0.20127669
0000b0 78 ce 29 3d 82 5b d9 bd 0e b5 58 3e a5 8e 15 bd
       0.04145667 -0.10613157 0.21162817 -0.03651299
0000c0 ce 9a 0c 3e d6 47 cd 3c e9 eb 97 bd 41 7a 63 be
       0.13730928 0.025058668 -0.07418043 -0.22214605
0000d0 f6 59 8b bd 96 f5 48 3e 7c ac 1d 3e 13 15 4f 3d
       -0.06804268 0.19624934 0.15397829 0.050557207
0000e0 69 3d 38 be 20 9f 6f 3d 41 26 f4 3c 08 31 38 be
       -0.17992176 0.058501363 0.029803397 -0.17987454
0000f0 91 a0 79 3d dd 9b 8a be d7 6c 97 3e 9c 52 b0 3d
       0.060944144 -0.2707204 0.29575226 0.086095065

lstms.1.bias_hh_l0 f4 [64]
000000 3b 9b 22 3e ae 2e 1e 3e 4b c7 ba bd 81 e2 1b be
       0.15879528 0.15447494 -0.09120043 -0.15223123
000010 87 60 18 3e 94 0d 69 3e 83 17 88 be 22 0a 81 3e
       0.14880572 0.22759086 -0.26580438 0.25203043
000020 10 b8 8d be 1d 69 41 bd 37 37 cf bc 4e a4 99 3d
       -0.2767949 -0.047219384 -0.025294883 0.07502042
000030 93 9b 6d be 60 1d 0f bd ff ea 20 3e 2b e6 bb bd
       -0.23203878 -0.034940124 0.15714644 -0.091747604
000040 31 6c d7 b9 19 48 03 3e 17 bf 64 3e 1f 38 2c 3e
       -0.00041088604 0.12820472 0.2233852 0.16818283
000050 1e df a1 bd 9d cb 61 3e 1f 1d cf bd a8 78 58 3e
       -0.07903884 0.22050329 -0.10112976 0.21139777
000060 44 c1 66 3e 2e 37 b9 3b 7f 9d 38 3c 63 22 f3 3c
       0.22534662 0.00565233 0.011268019 0.029679483
000070 af 9c 2d 3e d4 f4 5e 3e 50 5d 06 3e da d1 4b 3e
       0.16954301 0.21773082 0.13121533 0.19904271
000080 aa ca 14 bd 62 9b b0 3d 18 57 96 3d eb 63 4e 3e
       -0.036326088 0.08623387 0.073408306 0.20155303
000090 68 e3 7e 3e ef 34 c0 3b 16 3a db bd 04 14 d4 3d
       0.24891436 0.005865685 -0.107044384 0.1035538
0000a0 60 5d 25 be 36 8f 9e 3d 6f 46 83 3c bd ec 81 3d
       -0.16148901 0.07742159 0.016024796 0.06343982
0000b0 32 bb 30 3e 51 a7 2b bd f8 e3 a5 bd ed 42 72 3c
       0.1725891 -0.041907612 -0.08100122 0.014786464
0000c0 57 50 08 3e 6a d2 96 3d 96 5b 34 3e 1e cf 8c bc
       0.13311897 0.07364352 0.17613062 -0.017188605
0000d0 d3 e7 47 be de 6e 48 be 09 bd ec bd 9b 60 eb bd
       -0.19522028 -0.19573542 -0.11559493 -0.114930354
0000e0 13 d7 9f 3c ec 39 62 be 28 72 31 3d b3 9f dd 3b
       0.019511735 -0.22092408 0.04332176 0.0067634224
0000f0 79 ad 31 3e 5c 3f 33 be d2 3c a7 3e 3b f8 5d 3e
       0.17351331 -0.17504638 0.3266359 0.21676724

lstms.2.weight_ih_l0 f4 [64, 1]
000000 20 38 eb be f9 cb 87 be c7 17 01 3e 02 b0 6d 3d
       -0.45941257 -0.26522806 0.12606727 0.058029182
000010 06 5e 00 be 9d 0a 4e be 97 3f 2a bd 87 87 d8 3d
       -0.12535867 -0.20121236 -0.04156455 0.10572725
000020 9a 66 a4 3e a7 fa 74 bd 19 14 4d bc 9f de dc bd
       0.3210953 -0.059809353 -0.012516999 -0.10784649
000030 bf fd 82 3c 8e 9f 9e be 0b 3a 29 3d e7 ed b0 3e
       0.015990136 -0.30981106 0.04131512 0.34556505
000040 f9 13 da bd 4d 43 47 be 9a 3c 9b 3e 34 61 88 be
       -0.10648341 -0.19459267 0.30319673 -0.2663666
000050 1f a3 e6 bd 6a bd eb be 9a af 6c 3e 6f 07 f1 bd
       -0.11261582 -0.4604295 0.23113862 -0.11768996
000060 80 a5 7e 3e 61 78 63 bd db 0e 09 3e 54 62 c1 be
       0.2486782 -0.055534724 0.13384573 -0.3777033
000070 e1 0e 50 3c e6 33 91 be 5a d1 7f be 67 10 3a 3e
       0.01269886 -0.28359908 -0.24982205 0.1817032
000080 8e b1 93 be 12 04 50 3e 9b c0 81 3e 4c 38 12 be
       -0.288464 0.20314053 0.2534226 -0.14279288
000090 fd e9 8b be 07 1a 0d 3d 06 2d 82 be 35 42 a9 3e
       -0.27326956 0.03444865 -0.25424975 0.33058324
0000a0 78 db 9d be 2f ee b7 be 50 1a 68 3e e7 00 b9 bc
       -0.30831504 -0.35923907 0.22666287 -0.022583438
0000b0 3d 19 aa be 43 2d 0e 3e ec 79 ee bc 91 76 90 3e
       -0.3322238 0.13884453 -0.029110871 0.2821546
0000c0 19 d6 21 bf c7 a0 b5 bd 6c ed 01 3e 93 c7 c8 bd
       -0.6321731 -0.088685565 0.12688226 -0.09803691
0000d0 6f 58 57 bd 36 b7 a6 be d3 71 2a be 5e dd b0 3d
       -0.05257457 -0.32561654 -0.16644983 0.086359724
0000e0 cb ca 52 3e c9 53 4b bc 35 75 9e 3a b9 5d 09 be
       0.20585172 -0.012410113 0.0012089374 -0.13414659
0000f0 a4 27 8d bd ac 9d 99 be 0c 27 d4 be 6d 0e b5 3e
       -0.068923265 -0.30003107 -0.4143604 0.35362568

lstms.2.weight_hh_l0 f4 [64, 16]
000000 f7 02 c1 3e ba 0e 5b 3e fa b3 0a 3f 8a 60 05 be
       0.37697574 0.21392336 0.5418087 -0.13025108
000010 89 df e7 3c 94 b7 bd be 8c 4a 48 be e9 41 d6 3d
       0.028304832 -0.37054121 -0.19559687 0.1046179
000020 a1 95 9c be 8c a2 6c be 17 87 3d 3e e3 49 2e be
       -0.30582908 -0.23108882 0.18508564 -0.17020373
000030 ef 32 0f be 7b db 6d be c1 03 b1 bc 73 3e ed 3e
       -0.13984273 -0.23228256 -0.021608235 0.46336707
000040 31 66 85 bc 25 cb e1 3d 1c 3a 0d 3e d8 be 5e 3e
       -0.01628408 0.11025075 0.13791698 0.21752489
000050 ef aa 3e bd 9a c4 12 3e 24 f3 cb bd d5 4a f5 bd
       -0.046549734 0.1433281 -0.09958485 -0.11977164
000060 0b 51 9c 3d c6 87 a5 3b d2 00 0a be 52 bc b9 3d
       0.07632645 0.005051586 -0.13476875 0.090691224
000070 7c 08 25 3e d4 a0 ca 3d ee 07 3f be 60 e0 1a be
       0.16116518 0.09893957 -0.18655369 -0.15124655
000080 f5 e9 4a 3d 19 2d 33 3e 80 f5 27 3e bd 7f 65 be
       0.049539525 0.17497672 0.16402245 -0.2241201
000090 77 32 ef bc 45 8a 76 3e fe a5 6d 3e e9 1b cd 3d
       -0.029198868 0.24076183 0.23207852 0.10015089
0000a0 9f 58 4a bd 4f a8 95 be 12 e0 2f be 6d 7e 0d 3c
       -0.049400922 -0.29229972 -0.1717532 0.008636099
0000b0 63 19 6f be b1 cc 75 bd a0 ab 32 be 33 4a 8c 3d
       -0.23349528 -0.060009662 -0.17448282 0.0685009
0000c0 e0 d6 54 3e cd a5 0a 3e 5c 05 bd 3d d7 f8 1e 3e
       0.20785093 0.1353981 0.09229538 0.15524612
0000d0 2e da 52 be 92 d7 8c be 1a ba 2c be 47 14 b4 bd
       -0.20591041 -0.27508217 -0.16867867 -0.0879293
0000e0 4d 94 95 be 5d 94 d0 bc fb 53 42 bc 15 70 25 3e
       -0.29214707 -0.02546137 -0.011860843 0.16156037
0000f0 6b 91 ea 3b 87 a4 f0 bd e7 9b 9c 3d 73 27 26 3e
       0.0071584485 -0.11750131 0.076469235 0.16225986
000100 84 8a f4 bd 4b 4f b1 be 49 fe b2 bd c4 e1 76 3e
       -0.11940482 -0.34630808 -0.08739907 0.2410956
000110 a6 14 65 3e 0c df 45 be 22 5c e8 3d fc ee 27 be
       0.22371158 -0.19323367 0.11345698 -0.16399759
000120 a9 d6 65 3e 04 0c 85 be e0 5d 98 3e fc 6c 8b 3e
       0.22445168 -0.2598573 0.2975912 0.27231586
000130 99 51 71 bd 8f ec a9 be c7 81 1f bd 3c 6f c7 3e
       -0.05891571 -0.33188292 -0.038942125 0.38952053
000140 1a cb 3e 3d 2f de e4 3d 2f 0e 21 3e 5a a5 47 be
       0.04658041 0.11175191 0.15728067 -0.1949667
000150 28 53 81 be 2e 14 9d bd c8 98 e8 3c 20 c2 a8 be
       -0.25258756 -0.076698646 0.028393164 -0.32960606
000160 84 bf 8a bc c3 00 f1 3c 84 71 39 3e 47 18 e0 3c
       -0.016937025 0.029419309 0.18109709 0.027355326
000170 d3 17 c7 bd 2b 41 0c 3e 3c 3d 51 3e 28 b0 ea 3b
       -0.09721341 0.13696735 0.20433515 0.0071621127
000180 99 5b 06 3d 6b 4b 06 3e 92 66 c1 bb 37 c3 41 3e
       0.032802198 0.13114707 -0.00590212 0.18922125
000190 30 95 0f 3e f7 10 62 be 51 bc 06 bd a1 b1 0f 3e
       0.14021754 -0.22076784 -0.032894436 0.14032604
0001a0 fa f1 93 be ac 28 11 3e 14 48 3c be 67 8c cb 3d
       -0.2889555 0.14175671 -0.1838687 0.09938889
0001b0 62 9b 42 bd 7d 3d 27 bd 4a 91 9b bd 28 a7 27 bd
       -0.047511466 -0.040830124 -0.07596071 -0.040930897
0001c0 a6 6d db 3e 6b 8d 58 be ef ed df 3d 5f 4e 4a bd
       0.42857093 -0.21147697 0.10934054 -0.049391147
0001d0 2c 07 c3 3d f0 72 c3 bd cf 31 a5 bd 7b 40 1d 3e
       0.09522852 -0.09543407 -0.08066141 0.15356629
0001e0 37 c2 d3 bd b4 01 0a 3e 57 e7 69 3e e3 21 06 3e
       -0.10339778 0.13477212 0.22842155 0.13098864
0001f0 2e a9 9d 3d 16 4f 32 be f2 d1 bc 3e d1 ef a5 3e
       0.07698284 -0.17412981 0.36878926 0.32409528
000200 a5 d9 1d be a5 f6 9c bd c5 80 d8 bc e2 75 13 be
       -0.15415056 -0.07664231 -0.02642859 -0.14400437
000210 ce 09 d3 bd 7a 29 95 3c e3 f6 8e be bf 19 af 3d
       -0.103046045 0.018208254 -0.27922735 0.085498326
000220 34 f7 10 bd b6 9b 52 bc 3b 7a a6 bc cc d3 5f 3d
       -0.035392 -0.012854507 -0.020321956 0.054645345
000230 78 38 62 bd 90 20 0a be df 27 1f 3e 35 45 cb 3e
       -0.055229634 -0.13488984 0.15542553 0.39701238
000240 80 8a ef 3e d6 8c 32 3e 7a c7 f5 bd fb eb d1 3c
       0.46785355 0.17436537 -0.12000938 0.02562522
000250 70 ff bc bd 14 55 b9 be c9 f4 52 bd 50 12 e1 bd
       -0.09228408 -0.36197722 -0.051502977 -0.10989821
000260 b4 c7 88 bd f3 80 71 3d a8 46 e6 3d 20 b5 cb 3c
       -0.06678715 0.058960866 0.11243945 0.02486664
000270 54 35 a3 bd eb b4 30 3e aa 29 c0 3d 2f 73 4e bd
       -0.07969156 0.17256515 0.09382947 -0.050402816
000280 cd fa d3 3e 8e ae f3 bd cc 17 4c be 50 f1 29 be
       0.41402283 -0.11898528 -0.19930953 -0.1659596
000290 e8 95 8c be fe 20 0d 3e bb 4e c2 bd 98 9d 0f 3d
       -0.2745812 0.13782117 -0.09487673 0.035062402
0002a0 3f 52 1a 3d 9c 76 b1 bd 4f eb 34 be 22 21 1b 3e
       0.037676092 -0.08665201 -0.17667888 0.15149358
0002b0 19 ec 84 be 36 da 10 be aa f6 0f be c5 b9 ae bd
       -0.25961378 -0.14145741 -0.14058939 -0.085315265
0002c0 5c 6a 79 3e 47 c1 72 3e b3 5e 98 bd 8b 62 9b 3d
       0.24356979 0.23706542 -0.074399374 0.07587155
0002d0 56 75 bd 3d 46 34 36 3e 69 7d 36 3e 9d 85 5f 3d
       0.09250896 0.17793378 0.17821278 0.054570783
0002e0 5d 79 d0 bd 22 54 49 3d 5d 5e 29 3e b3 2d 00 be
       -0.10179398 0.0491525 0.16539903 -0.12517433
0002f0 54 55 ac bd 97 6e 10 bd 88 c2 5e 3e 07 42 22 3e
       -0.084147125 -0.035261717 0.21753895 0.158455
000300 6b 7c 1c be 07 ce 60 be 09 ea 1a 3e b3 ba ae 3d
       -0.15281837 -0.21953593 0.1512834 0.08531704
000310 4d f9 4f 3d 2d 18 71 be 74 0a dc bd 73 e3 af bd
       0.05077486 -0.23544379 -0.10744181 -0.08588304
000320 7d 9a 02 be b6 cb ed 3d f6 82 24 3e 62 d3 7e 3e
       -0.12754245 0.116111204 0.16065583 0.24885324
000330 2d 80 3f 3e d4 5b 40 3d c5 18 7d 3e 1e 13 96 3e
       0.18701239 0.046962574 0.2471648 0.2931146
000340 54 57 f6 bd 92 0c 09 be 50 aa bf 3d e1 3d 3e be
       -0.12028375 -0.13383701 0.093586564 -0.18578292
000350 7a 2a 67 bd 83 52 cf bd 8f 9c ed 3c a2 c7 cd 3d
       -0.056436993 -0.1012316 0.029005317 0.100478426
000360 49 fc 98 3d 43 7a 98 3d 15 9a d6 bd 19 24 0c bc
       0.074699946 0.074451946 -0.104786076 -0.008553528
000370 a4 f5 21 3e a3 e8 f2 3d d3 6a 42 be fc 1a 87 3d
       0.1581636 0.11860778 -0.18986063 0.06596944
000380 60 dc c9 3e 12 70 52 be 3f 5b 13 3e 83 80 e4 ba
       0.39425945 -0.20550564 0.14390276 -0.0017433319
000390 8b b4 5d bc 00 89 46 3d 18 13 3f be 11 4b 1a be
       -0.013531814 0.048470497 -0.18659627 -0.15067698
0003a0 ae ea a3 3d 8d bc 46 3e 84 57 ae bd 42 63 e3 3d
       0.08003746 0.19407864 -0.08512786 0.11102916
0003b0 29 26 0e bc 04 4e a5 3d 4a 1e 21 3e 1f a9 84 ba
       -0.00867609 0.08071521 0.1573421 -0.0010121203
0003c0 26 9c 2e 3e 4d 6c 1a be 21 4d 05 3b 10 92 73 3b
       0.17051753 -0.15080376 0.0020340162 0.0037165917
0003d0 12 ed 3e be 77 20 09 bd 8d 03 48 3e 06 0e 27 be
       -0.18645123 -0.033478227 0.19532605 -0.16313943
0003e0 f5 6a 9a be 50 fd 21 3e 8c 79 ec bd ef cd ab 3e
       -0.30159727 0.15819287 -0.11546621 0.33555552
0003f0 42 38 a8 3d 7c 25 0e 3a 97 ea e3 bc 76 48 c5 bd
       0.08213855 0.0005422456 -0.027821822 -0.096329615

lstms.2.bias_ih_l0 f4 [64]
000000 11 99 1b bd f9 60 21 be 8b 14 b3 3c 1e e5 83 bd
       -0.037987772 -0.15759648 0.021860382 -0.06440185
000010 22 66 1f 3e 06 cb b0 bd 46 14 0c 3e d2 b4 e1 3d
       0.15566304 -0.08632474 0.13679609 0.11020817
000020 5e ad 17 3e 86 23 0d be 07 61 89 3e f2 8e d6 bd
       0.14812228 -0.13783082 0.26831838 -0.104764834
000030 b3 17 10 3e 76 85 7c bd af 35 81 bd 1b 8b e6 3d
       0.1407154 -0.061650716 -0.063090675 0.11257001
000040 6f b7 a1 3e c0 df dd 3d ee 3b a9 be 8d 62 f6 bd
       0.3158526 0.108336926 -0.33053535 -0.12030516
000050 ab 4f cb 3e f7 7d 7b bd 45 2b 74 3c b0 7c ee 3d
       0.3970922 -0.061399426 0.014902894 0.11644876
000060 78 07 b9 3e aa 4e 11 bd bc 6e 75 be 10 4a 29 3e
       0.3613851 -0.03547541 -0.23968023 0.16532159
000070 d8 b3 97 bd 0e d3 2d 3e 5f cd 24 be 72 3c 91 3e
       -0.07407349 0.16975042 -0.16093968 0.2836643
000080 00 5f 39 bd c7 ea b7 bd 75 29 53 3d 83 df 62 3d
       -0.045256615 -0.08980327 0.05155321 0.05538894
000090 02 49 40 3e f7 21 8a 3d 05 41 d4 bd cf a0 01 be
       0.1877785 0.067447595 -0.10363964 -0.12659
0000a0 e1 67 02 bd 63 d5 9b bd 17 54 92 bd 98 1f 76 3c
       -0.031837348 -0.0760906 -0.07144945 0.015022181
0000b0 06 8c 9f bd 29 8a 70 be cc 10 8e 3d 37 c2 91 3d
       -0.07790379 -0.23490204 0.069367975 0.07117122
0000c0 08 82 5b 3c e9 3c 9e 3c e7 f5 38 3d ef 45 5d 3e
       0.013397701 0.019316154 0.045156386 0.21608709
0000d0 29 98 b3 3e df 71 13 be e6 9f f1 bd d5 75 a9 3e
       0.35077026 -0.14398907 -0.11798076 0.3309771
0000e0 fb a5 30 be 2f 9a d6 3d db bc 2a be 1b 0d 18 3e
       -0.17250817 0.10478627 -0.16673605 0.1484875
0000f0 13 6b a2 3e 6c ad 18 be ef 08 42 be 67 06 ae bd
       0.31722316 -0.14909905 -0.1894872 -0.08497315

lstms.2.bias_hh_l0 f4 [64]
000000 0f fc 3a be b1 31 38 be 98 55 7b be d3 b2 91 be
       -0.18260215 -0.17987706 -0.2454437 -0.28456745
000010 ae 5e 89 3e 2c 33 20 be 5d b8 ff 3d 28 aa 2e 3e
       0.26830047 -0.1564452 0.124863364 0.17057097
000020 85 42 4a bd 69 04 a8 3d 10 7a 61 3d a1 e2 be 3d
       -0.049379844 0.08203966 0.05504805 0.0932057
000030 1e dc 2a 3e d3 e2 8e 3e ac 9a 34 3d d3 07 10 3e
       0.1668553 0.27907428 0.04409282 0.14065485
000040 d6 52 0f bc db e2 7b 3e d1 b2 16 bd fc 39 aa 3d
       -0.008747777 0.24598257 -0.036791626 0.08311841
000050 39 80 2e 3e 44 da 8b 3e 76 91 99 be e7 4e 14 bc
       0.170411 0.2731496 -0.2999379 -0.009052015
000060 fc 09 12 3d 3b 41 ac bd 9c 8c 60 3b 45 56 2c bd
       0.035654053 -0.08410879 0.0034263497 -0.04207446
000070 20 d9 6b 3e 76 5c f2 3d b8 8c 6a 3d 4d cb e6 3b
       0.23032045 0.11834042 0.057263106 0.0070432783
000080 f0 12 a2 bd 82 6d ce bd 14 8c 68 bd 39 f9 b7 bd
       -0.07913768 -0.10079481 -0.056774214 -0.08983082
000090 c3 a1 94 bd a4 0d a0 bd e5 74 1c 3e 03 4b 28 3d
       -0.07257416 -0.07815102 0.15278967 0.04108716
0000a0 6f 77 16 3e ae 22 fe bd 4d 36 64 3e 38 b2 ad 3d
       0.14693998 -0.124089584 0.22286339 0.08481258
0000b0 45 6d 62 3e fd 0e fd 3d 68 a6 1f bc d7 69 7a 3d
       0.22111996 0.123563744 -0.009744264 0.061136093
0000c0 d7 46 01 bd f2 20 71 3e 91 1e cf bd 3c 72 7b be
       -0.0315617 0.23547724 -0.10113252 -0.24555296
0000d0 10 c4 bb 3e 78 5b 90 bd 69 b5 b9 ba c0 ba 3d 3e
       0.3667302 -0.07048696 -0.0014168444 0.1852827
0000e0 66 a6 4c 3e 56 16 d3 3d 89 61 26 3e e3 26 c4 3d
       0.19985351 0.103069946 0.16248144 0.095777296
0000f0 07 c3 a2 3d c0 e6 32 be d3 de e3 39 b9 a5 96 3e
       0.07947355 -0.17470837 0.0004346283 0.2942331

lstms.3.weight_ih_l0 f4 [64, 1]
000000 3f 86 71 3e 63 d5 62 be 3d 0d e7 bc 04 c3 32 3e
       0.23586367 -0.22151713 -0.028204555 0.17457205
000010 c4 12 37 be 3e 0f d5 ba 34 af 9c 3d 83 32 aa bd
       -0.17878252 -0.0016255153 0.07650605 -0.083104156
000020 24 b5 22 3e ee 57 f5 be 3a bb 9d 3e 0e c2 5f bd
       0.15889412 -0.47918648 0.30806905 -0.054628424
000030 de fd 89 3e 13 39 52 be 48 19 5a be ee ed 16 3e
       0.26951498 -0.20529585 -0.21298707 0.147392
000040 07 d2 8a 3d a8 87 9a be 2b 49 ae be f6 1b 8f be
       0.06778341 -0.30181623 -0.34040198 -0.2795102
000050 5a bb 2f bc 30 3e 4d bd fa e9 a3 3d 31 66 1c 3e
       -0.01072582 -0.050108135 0.08003612 0.15273358
000060 ac 74 02 3e e2 35 66 be d6 f4 2d 3e 4f 54 86 bd
       0.1273982 -0.22481492 0.16987929 -0.06559049
000070 4f 5f 57 bb 83 8d 31 bd ab e8 b9 3d 93 96 af 3d
       -0.0032863205 -0.043347847 0.09077581 0.08573642
000080 97 ed 0b 3e a7 5c 7f be 6f 82 36 bd 47 0f 84 be
       0.13664852 -0.24937688 -0.044557985 -0.25792906
000090 2c 0f 91 3d fc 47 cd bd d3 a0 89 3e 77 d8 0a be
       0.07082972 -0.100234956 0.26880512 -0.13559137
0000a0 42 cc 0e be ad e7 a6 3d fd 74 fa 3d 47 4f 12 3e
       -0.13945106 0.081496574 0.12229345 0.14288054
0000b0 2a e8 3b be 3d 0c 3c bd bf f8 93 3e d3 50 c4 3d
       -0.18350282 -0.04591011 0.28900716 0.095857285
0000c0 57 40 bd bd a6 8a 85 be 52 6e c1 be cf 17 b1 3c
       -0.092407875 -0.26082343 -0.3777948 0.021617798
0000d0 8c aa 4a 3e 3f 1e 9a be cf e3 84 bd a4 c8 22 3c
       0.19791621 -0.301012 -0.064887635 0.009935532
0000e0 41 c5 67 be dd 94 f0 be e6 7e b1 3d 09 e4 ab bd
       -0.2263384 -0.46988574 0.08666782 -0.08393104
0000f0 1d 19 ec 3d 18 e5 19 bd 73 95 31 be 1b 82 be 3d
       0.115282275 -0.037571996 -0.17342167 0.093021594

lstms.3.weight_hh_l0 f4 [64, 16]
000000 18 81 53 3e 0f b0 08 be cb 43 91 3e 23 bd 70 be
       0.20654714 -0.13348411 0.28372034 -0.2350965
000010 08 a1 35 bd a9 ea 88 be 41 d6 08 be 51 9a 9e 3d
       -0.044343024 -0.26741531 -0.13362981 0.07744277
000020 8b 1c 2f 3e f4 1a 4b 3e 25 4d fc 3d 6c 50 1f 3e
       0.17100732 0.198345 0.12319402 0.15558022
000030 cb 4c d7 3d 05 c7 16 3e 24 a5 22 3e 24 32 2c be
       0.10512694 0.14724357 0.15883309 -0.16816002
000040 41 33 19 3e 25 fa 3b be 93 b8 ef 3d 92 46 46 3e
       0.14960958 -0.18357141 0.117051266 0.19362858
000050 e0 d2 99 bc 57 b0 f2 3d ff 88 3d 3e 3b 60 2a 3e
       -0.01877731 0.118500404 0.18509291 0.16638272
000060 c3 e6 1c 3e e6 49 11 be 09 33 71 3e bd 96 25 3e
       0.15322404 -0.14188346 0.23554625 0.16170783
000070 55 28 99 3d d9 41 86 be 9c ae f2 bd 5c 88 c4 3d
       0.07478396 -0.26222113 -0.1184971 0.09596321
000080 10 6e 51 3e f8 75 30 be f5 77 b5 bd c7 a7 3d 3e
       0.20452142 -0.17232502 -0.088607706 0.18521033
000090 ca da 13 bc 13 4a 9e 3e 19 68 ec bd 72 51 1c 3e
       -0.009024331 0.3091589 -0.115432926 0.15265444
0000a0 65 fb 94 3e 46 2b 03 3b c4 a8 4e 3e b5 92 0c 3e
       0.2909805 0.0020014807 0.20181566 0.1372784
0000b0 80 48 e5 3c c2 20 59 bd e7 28 8d be 0a 97 9c be
       0.027988672 -0.053009756 -0.2757027 -0.30583984
0000c0 bb 43 df bd 75 7e 6d 3c a2 2f 38 be 86 2f 18 3e
       -0.109015904 0.014495482 -0.1798692 0.14861879
0000d0 b2 05 63 be 2d 2d 59 bc ee 62 48 3e de 17 02 be
       -0.22170141 -0.0132554 0.19568989 -0.12704417
0000e0 5f b4 0c 3e 8a bc df 3b b6 86 be bd 65 8f dc bd
       0.13740681 0.0068278955 -0.09303038 -0.10769538
0000f0 33 f2 b5 bd 2d 75 a9 3c a8 db 5b bd 00 42 1d bd
       -0.088840865 0.020685757 -0.053676277 -0.03839302
000100 1a 87 bc bd f4 86 d6 bc b4 c2 5a bd 9b ba b4 3d
       -0.09205456 -0.026187398 -0.05340834 0.08824655
000110 17 4f c0 3d b9 45 3c 3e 19 b3 9b be 2a 54 4c 3e
       0.09390085 0.18385972 -0.30410078 0.19953981
000120 b8 ec b6 3d 9a 02 8a 3d c1 e8 e4 3d 0d 2d b4 3b
       0.08931869 0.067387775 0.11177207 0.0054985345
000130 96 59 0b 3c 25 c8 e1 bc 85 28 a2 be b2 ce 94 be
       0.008505246 -0.027561257 -0.3167154 -0.29063946
000140 a4 e6 40 be f2 1a d9 3d f3 bb 1a bd 12 55 83 3e
       -0.18837982 0.106008425 -0.0377769 0.2565084
000150 0e 06 96 be 18 cc df bd 56 9f 6b be 75 7a b1 bd
       -0.29301494 -0.109276 -0.2301 -0.08665935
000160 0c bf dc bd 38 4c 1e 3c 34 11 56 3d 11 ef 65 be
       -0.10778627 0.009661727 0.0522625 -0.22454478
000170 fe 61 af bd 41 01 8d bd b1 5e ab 3d ac 18 ec bd
       -0.085636124 -0.06885005 0.0836767 -0.11528143
000180 2f b8 94 3e 30 e5 57 be fd f8 26 3e fc b7 86 be
       0.2904677 -0.21083522 0.16305919 -0.26312244
000190 d6 23 9c be 7b 2c fb bd 2c 40 59 3e f5 6a 2b bd
       -0.3049609 -0.12264343 0.21215886 -0.04185005
0001a0 8f 22 84 be 1c 8f 3e be 14 c7 85 bd bf d0 19 be
       -0.25807616 -0.1860928 -0.06532112 -0.15021037
0001b0 69 ea 40 be e0 89 82 bd b1 e7 27 bd 2d ac 6b 3d
       -0.1883942 -0.06373954 -0.040992443 0.057537246
0001c0 1f 37 20 be af 57 f2 bd 31 bd 5c 3e 2e 66 59 3b
       -0.15646027 -0.118331306 0.21556546 0.0033172476
0001d0 bd d2 27 3e c9 10 2a 3e f2 65 f8 bc b9 90 e4 3d
       0.16388984 0.16607966 -0.030322049 0.11160416
0001e0 71 99 5c bc 33 0e 94 bb c6 a1 c7 3c 3f bd 03 3e
       -0.013464318 -0.0045182942 0.024369132 0.1286516
0001f0 90 97 cc bd ca 3e 9f bb 54 f6 fa 3d 46 57 c7 3d
       -0.09989846 -0.00485978 0.122540146 0.09733443
000200 8e 13 2f 3e 36 89 3e bb 7f 43 33 3e 1a 3b fa 3d
       0.17097303 -0.0029073483 0.17506216 0.12218304
000210 53 b0 42 be 96 63 2d be 3c 5b 46 3e 8e 49 19 3e
       -0.19012575 -0.1693252 0.1937074 0.14969465
000220 e8 69 76 be c3 b3 5c bd 14 74 f9 3d 34 c3 22 be
       -0.24063838 -0.05388237 0.12180343 -0.15894777
000230 46 28 90 3d 08 d7 75 bd 43 58 11 bd cc 06 81 bd
       0.070389315 -0.060019523 -0.035484564 -0.063001245
000240 01 62 18 3e 59 f8 11 bc 94 24 e4 3d 60 e4 ff bd
       0.14881136 -0.008909308 0.11139789 -0.12494731
000250 dc e4 86 3c 94 6b 4a 3d a4 d4 71 be 60 fb 40 be
       0.01646655 0.049419 -0.23616272 -0.18845892
000260 8c 07 c6 3d 83 ac 51 be 33 6e cf 3d 70 e9 f5 bd
       0.09669408 -0.20475964 0.10128441 -0.12007415
000270 c0 af 9b 3e 5a a7 d4 bc e8 f0 6e be 49 c3 0e bd
       0.30407524 -0.025958706 -0.23334086 -0.034854207
000280 01 d5 40 be f6 a0 19 3e a4 42 b4 3b 95 30 4b bd
       -0.18831255 0.15002808 0.0055011082 -0.04960688
000290 e4 ac 0d 3e cd a3 4d 3e c9 4a c7 3d c2 ae 66 be
       0.13835484 0.20082016 0.09731061 -0.22527602
0002a0 c2 35 96 3c ce 2f 15 3e cf f6 c5 bd 09 7d fa bc
       0.01833618 0.14569017 -0.09666216 -0.0305772
0002b0 9d 06 b8 bd 61 20 6b 3c 20 92 9f 3e 78 fa 5a 3e
       -0.089856364 0.014350981 0.31166172 0.21384609
0002c0 25 cd 4e 3e 26 f5 65 3e c3 93 ff bd d7 ff 48 3e
       0.20195444 0.22456798 -0.12479355 0.19628845
0002d0 87 09 f4 bd dc 19 71 3d 40 72 1a be f7 5a 4d bd
       -0.1191588 0.058862552 -0.15082645 -0.05013558
0002e0 7d c0 27 be 8e f7 93 bd 88 f3 8e 3e f7 ce f9 bc
       -0.16382022 -0.07224952 0.27920175 -0.030494196
0002f0 36 98 1a 3e 7d 3c 91 be 00 4d 60 3e 3a 54 01 be
       0.15097126 -0.2836646 0.21904373 -0.12629786
000300 de c1 8e bd dd 3d ab 3d 65 94 58 3e 47 5e 9d 3d
       -0.06970571 0.08361409 0.21150358 0.076839976
000310 54 ef 4e bd d1 0b f6 bd f2 0a 80 3e 00 39 2a 3e
       -0.05052121 -0.120139726 0.2500835 0.16623306
000320 ab de 6a be 45 52 22 3e 82 c4 1b 3e 40 40 ad 3d
       -0.22936504 0.15851696 0.1521168 0.0845952
000330 fd 78 9e be 2c 61 4e bd 09 df 03 3e 8b 5e e8 bd
       -0.30951682 -0.05038564 0.1287805 -0.11346158
000340 9d ae a4 bd c3 d9 94 3c 24 e4 19 3e d3 0c 25 3d
       -0.08041117 0.018170243 0.15028435 0.040295433
000350 f2 93 53 be cf 9a a4 3e c7 46 9f be 72 7d 82 bd
       -0.20661905 0.3214936 -0.31108686 -0.06371583
000360 2f c0 be 3e 1f 19 7a 3e 92 48 ae 3d 85 3b 43 3d
       0.37256 0.24423645 0.085099354 0.047664184
000370 57 78 05 bd 28 48 0d 3e cf 20 12 be f5 01 1f be
       -0.03258547 0.13797057 -0.14270328 -0.1552809
000380 7e 3a 4a be 91 3c 52 be 4d 03 31 be 94 83 62 3e
       -0.19748875 -0.20530917 -0.17286415 0.22120506
000390 db 66 a1 3d f3 74 0b 3d ca 71 6a 3e f6 58 bb bd
       0.07880946 0.03404708 0.2289497 -0.09147827
0003a0 fd 92 29 3e 7b bf d8 bd 8d f1 36 be df f8 e4 bd
       0.16559978 -0.10583397 -0.17865582 -0.11180281
0003b0 15 14 38 be a3 ec 06 bc 11 8a 35 be 42 ff aa bd
       -0.1797641 -0.0082351295 -0.1772845 -0.08349468
0003c0 f3 11 33 be a7 35 bf bc 37 d1 43 3e a5 eb b8 3e
       -0.17487316 -0.023341013 0.19122778 0.36117283
0003d0 7a 3a 9f ba 23 a0 a2 3e eb 23 40 be eb 5d 83 bd
       -0.0012148165 0.317628 -0.18763702 -0.06414398
0003e0 fc 26 41 3d a0 5f 5a 3e e5 d7 41 be 96 45 3d be
       0.04715632 0.2132554 -0.18930013 -0.18483576
0003f0 31 77 59 3e 06 ea e5 3b a5 94 1a bd ae 68 55 bd
       0.21236874 0.007016423 -0.037739415 -0.052101783

lstms.3.bias_ih_l0 f4 [64]
000000 e9 32 2c 3e 2e fc 3b 3d cc 11 91 bd 69 27 2b 3e
       0.16816296 0.045894794 -0.070834726 0.16714253
000010 08 81 92 bd f1 9c fc 3d bb bf bd 3d 68 a0 56 3e
       -0.07153517 0.12334622 0.09265085 0.20959628
000020 94 dd e1 3d 9a 9f 1d bd 7b da 3d bd bd 84 2f 3e
       0.11028591 -0.038482286 -0.046350937 0.1714048
000030 71 b6 81 3d 51 9f f0 bd b9 76 d4 3c d8 d6 f1 3c
       0.06333626 -0.11749137 0.025935518 0.02952139
000040 f0 8a af bd f8 83 5f 3e 09 e8 c9 3c 59 31 df 3c
       -0.08571422 0.21827686 0.024646776 0.02724521
000050 4e 4a 47 3d d5 da 63 3e ed f6 47 3e 66 c4 02 3e
       0.048654847 0.22251447 0.19527788 0.12770233
000060 a9 e7 13 3e 86 dd 36 3e dd 52 b7 bd fc 54 4f 3e
       0.1444384 0.17857942 -0.08951352 0.20247263
000070 57 55 59 bd 1c f9 23 3e 85 b2 04 be a4 63 0c be
       -0.053059902 0.16012996 -0.12958725 -0.13709885
000080 58 2d 6b 3e 08 89 83 bd 65 7c d0 3d f2 7a 71 be
       0.22966516 -0.06422621 0.101799764 -0.23582056
000090 0d 75 d1 bd 67 1d 08 bc 93 a8 41 bc b1 aa 2a 3e
       -0.10227404 -0.008307791 -0.011819976 0.16666676
0000a0 5e 29 04 be e9 27 2e be 0e ac 19 3e 2b bc 26 3d
       -0.12906405 -0.17007412 0.1500704 0.040706795
0000b0 05 2d a3 3d 53 4a da bc 62 49 f4 bc 23 52 69 be
       0.07967571 -0.026646769 -0.029820148 -0.22785239
0000c0 b1 d2 d8 3b 46 46 b3 bd cc 67 db 3d a1 7a 23 3d
       0.0066169132 -0.08753638 0.10713157 0.03991187
0000d0 62 7b 4c 3c 71 39 dc 3d 35 b0 8d 3d eb 8c 70 bd
       0.012480589 0.107531436 0.069183744 -0.05872814
0000e0 d3 3f 7a bc e8 c1 05 3e dc eb 16 3e 60 da 16 be
       -0.015274006 0.1306225 0.1473841 -0.14731741
0000f0 18 9c de 3b 79 2b 15 3d 03 c6 5d bd 0d 9e 54 3e
       0.00679351 0.036418412 -0.054143917 0.20763417

lstms.3.bias_hh_l0 f4 [64]
000000 93 bd 3e 3e cc 86 58 3e e7 6e 77 bc f3 32 75 bd
       0.18627004 0.21145171 -0.015102125 -0.059863042
000010 c3 cc 74 bd c6 1b 12 bd 71 68 9c 3d ac 05 0a be
       -0.05976559 -0.035671018 0.07637108 -0.13478726
000020 b5 aa d4 bd 95 dd de 3d 39 0d 18 be e6 4f 98 3e
       -0.10384122 0.10882107 -0.14848794 0.29748458
000030 70 fd 90 3e 29 de e6 bb 86 ea 3c be 07 73 a5 3d
       0.28318357 -0.0070455265 -0.18448839 0.0807858
000040 44 74 15 bd 8f 7e fa bd 6e 5d f4 bc 60 90 d8 3d
       -0.036487833 -0.122311704 -0.029829707 0.10574412
000050 8a 80 2b bd c3 37 86 bd 02 77 e3 bc 5a 92 b2 3c
       -0.04187063 -0.065536045 -0.027766708 0.021798301
000060 cf 00 16 be 9c 6b 40 bc b5 21 07 bc 84 9d ab 3e
       -0.14648746 -0.011744406 -0.0082477825 0.33518612
000070 d2 3a 22 3c 8c 3e 1a 3d 1e 9f 1c be c4 16 85 be
       0.009901719 0.037657306 -0.15295073 -0.2599393
000080 7e 5b 0b 3e af b6 4e bd 8d 17 f6 bd 74 f9 ff 3d
       0.1360912 -0.05046719 -0.12016211 0.12498751
000090 77 63 e8 bd 79 f9 90 3d e0 8b 2e 3e c1 8e e4 3d
       -0.113470964 0.07078833 0.17045546 0.11160041
0000a0 d8 c0 6c bd a8 b3 f2 3d 88 88 1a 3e c7 b6 1e 3d
       -0.057801098 0.11850673 0.15091145 0.03874853
0000b0 f1 0a 52 be 21 8f 48 bd 4b 42 0c 3c 87 9e f8 3d
       -0.20511986 -0.048964623 0.008560727 0.12139612
0000c0 19 65 f6 3d 46 a6 7a be 22 c9 bb bd 7c 1e 1d 3e
       0.120310016 -0.24477491 -0.091692224 0.1534366
0000d0 8a 28 b7 3b 32 a4 fc 3d 7c e1 4b be 68 85 ae 3d
       0.0055895494 0.12336005 -0.19910234 0.08521539
0000e0 ba cb 85 bd 6d 33 a9 3d 50 f6 0d 3e 16 6a 36 3e
       -0.065329984 0.08261762 0.13863492 0.17813906
0000f0 16 8c 47 3e e6 44 83 be 72 40 16 3e 17 fc 36 3e
       0.19487032 -0.25638503 0.14673021 0.17869602
