models/saved_models/lstm0.pth (torch, 128808 bytes, 7 tensors)

conv1.weight f4 [16, 12, 1]
0	0x3e51b710	0.20479989
1	0xbe90c41a	-0.28274614
2	0xbe907b8d	-0.28219262
3	0xbe66e40f	-0.22547935
4	0x3d9eddb7	0.077571325
5	0x3e36c8dd	0.17850061
6	0x3df8193a	0.121141866
7	0xbe4861bd	-0.19568534
8	0x3c1d3b66	0.009596681
9	0x3ea6f3e1	0.3260794
10	0xbd783b90	-0.06060368
11	0xbd7ce46c	-0.061741278
12	0x3e9111f7	0.2833402
13	0x3dc65b5b	0.096853934
14	0xbe884f97	-0.26623222
15	0xbe8e597c	-0.27802646
16	0xbe4bec7c	-0.1991443
17	0x3e478d7b	0.19487564
18	0x3e5287b0	0.20559573
19	0x3d97a1fe	0.074039444
20	0xbd5cb6c9	-0.053885255
21	0xbeaf300d	-0.34216347
22	0xbd5839d8	-0.05278954
23	0xbe0244d0	-0.12721562
24	0xbe1e1787	-0.15438662
25	0x3e517ac3	0.20456986
26	0x3e55f312	0.20893505
27	0xbe89a96f	-0.2688708
28	0xbe076c19	-0.1322483
29	0x3e49f17d	0.19721027
30	0xbd7d68d6	-0.061867557
31	0xbd3bc80e	-0.045845084
32	0xbdccfac5	-0.10008768
33	0x3e04e1cb	0.12976758
34	0x3dcf17b5	0.10111944
35	0x3e3cbf32	0.1843231
36	0x3e0b492a	0.13602129
37	0x3d5dc6c5	0.05414464
38	0x3b308811	0.002693657
39	0xbc945fc1	-0.018112065
40	0x3e207d6d	0.15672846
41	0xbe6c59b0	-0.23081088
42	0x3eafa926	0.34308738
43	0x3e18783e	0.14889619
44	0xbe8bcf80	-0.27306747
45	0xbddafe05	-0.10692982
46	0xbe97041f	-0.29495332
47	0x3e6f2339	0.2335328
48	0x3e3031f4	0.17206556
49	0x3c98b0e2	0.018639032
50	0xbda3ee4b	-0.08004435
51	0xbae0be66	-0.0017146587
52	0x3e547f83	0.20751767
53	0xbe94c54d	-0.2905678
54	0xbde9f3b1	-0.114234336
55	0x3e2d13a5	0.16902025
56	0x3d739cd5	0.05947574
57	0xbea1c91d	-0.3159875
58	0xbd8bedef	-0.068324916
59	0x3d4aca29	0.0495092
60	0x3e82743e	0.2547931
61	0xbe7fc83c	-0.24978727
62	0xbe4f37e4	-0.20236164
63	0x3e664828	0.22488463
64	0xbe2f0c6c	-0.17094582
65	0xbe117528	-0.14204848
66	0xbea47864	-0.321231
67	0x3e35c34e	0.17750284
68	0xbe9656c1	-0.29363063
69	0x3e091614	0.13387328
70	0x3d91179a	0.0708458
71	0xbcec3e66	-0.028838348
72	0x3e5edd9b	0.21764223
73	0x3defd64e	0.11710797
74	0xbdaecd2b	-0.085352264
75	0xbcb3297a	-0.021870364
76	0xbe7a5968	-0.24448168
77	0x3e31c70a	0.17361084
78	0xbe3d9cba	-0.18516818
79	0xbed52de8	-0.41636586
80	0xbce61108	-0.028084293
81	0x3c443dc8	0.01197762
82	0x3e534ecf	0.20635532
83	0x3de7c84a	0.11317499
84	0x3dc1d370	0.09464157
85	0xbe779556	-0.24178061
86	0x3e8a4bc9	0.27010944
87	0xbe9bc3ca	-0.30422813
88	0x3e3c1cf0	0.18370414
89	0x3e9cff10	0.30663347
90	0xbd91cef6	-0.07119553
91	0x3d8d1b3c	0.0688996
92	0x3e371175	0.17877753
93	0xbe47f231	-0.19525982
94	0x3e3a3d56	0.1818746
95	0x3e1892b3	0.14899711
96	0x3e889c25	0.2668163
97	0x3e36a450	0.17836118
98	0xbea51d59	-0.32248953
99	0x3d7a5e08	0.06112483
100	0x3dc22268	0.09479219
101	0xbe1e448e	-0.15455839
102	0x3b7d5e9a	0.0038661123
103	0xbde5599f	-0.111987345
104	0x3e828640	0.2549305
105	0xbe094fe7	-0.13409387
106	0xbd9d108f	-0.07669174
107	0xbe9b4de8	-0.30332875
108	0xbd997f24	-0.07494953
109	0x3c842bbe	0.01613414
110	0x3e91b81d	0.2846078
111	0x3e8dc12c	0.2768644
112	0xbe1921d1	-0.14954306
113	0xbe290329	-0.16505112
114	0xbe403a8b	-0.18772332
115	0x3eb17267	0.34657595
116	0x3da774c6	0.0817657
117	0x3d4889c8	0.048959523
118	0x3d2180ff	0.03942966
119	0x3e399e19	0.18126716
120	0x3e71c947	0.23611937
121	0x3d0015c2	0.03127075
122	0x3d0d4236	0.03448697
123	0xbe25c5ca	-0.16188732
124	0x3e6a426c	0.228769
125	0xbdca8d62	-0.09890248
126	0xbe8a4963	-0.27009115
127	0x3c854536	0.016268354
128	0x3e4e0c86	0.20121965
129	0x3e5c96fe	0.21541974
130	0xbe6e2bae	-0.2325885
131	0x3e6a0eaf	0.22857164
132	0xbe1dc168	-0.1540581
133	0x3e2f7624	0.17134911
134	0xbe56750f	-0.20943092
135	0xbddab8ae	-0.10679756
136	0x3cba797f	0.022763012
137	0xbcedbeb3	-0.029021597
138	0xbdc87503	-0.09787943
139	0xbdddbc25	-0.10826901
140	0xbcc19927	-0.023632599
141	0xbc12200a	-0.0089187715
142	0xbd6dd19e	-0.058061235
143	0x3e5cf562	0.21577981
144	0x3e4edb3c	0.20200819
145	0x3e0aac09	0.13542189
146	0x3e58a719	0.21157493
147	0xbd4a06fc	-0.049323067
148	0x3e8d26b9	0.27568606
149	0x3e58d07d	0.21173282
150	0xba87bea6	-0.00103565
151	0xbbb2b7dc	-0.0054540467
152	0x3e0a46fa	0.13503638
153	0xbe36d8c5	-0.17856129
154	0x3d22672c	0.039649174
155	0x3e12ff73	0.14355259
156	0xbd3ec604	-0.04657556
157	0xbe88900f	-0.26672408
158	0x3e91bf41	0.28466228
159	0x3dd90cd6	0.105981514
160	0x3e28b788	0.16476262
161	0xbd85d636	-0.06534998
162	0xbe982403	-0.29714975
163	0xbe3123ba	-0.17298785
164	0x3e802662	0.25029284
165	0xbe902165	-0.28150478
166	0x3d8364b3	0.06415691
167	0x3e006c17	0.12541233
168	0xbd73e918	-0.059548467
169	0x3e078937	0.13235937
170	0xbdb88afe	-0.09010886
171	0xbe1bd4af	-0.15217851
172	0x3e1890b1	0.14898945
173	0xbe6b3547	-0.22969542
174	0x3d40c331	0.04706115
175	0xbc5a7b16	-0.01333501
176	0xbea39807	-0.31951925
177	0x3dd9cbe2	0.10634591
178	0x3e4c24d8	0.1993593
179	0xbdd6a6e3	-0.1048105
180	0x3e601dff	0.21886443
181	0xbe8f7513	-0.28019008
182	0x3c2cd0fa	0.010547871
183	0xbdb37617	-0.08762758
184	0xbd0a9ee8	-0.03384295
185	0x3d5f7187	0.054551627
186	0xbe763422	-0.24043325
187	0xbdebd1f5	-0.115146555
188	0xbdce8857	-0.100845985
189	0xbd30a1c8	-0.043123037
190	0xbd81058e	-0.062998876
191	0xbe008a28	-0.12552702

conv1.bias f4 [16]
0	0xbe2bf46d	-0.1679246
1	0x3d593661	0.053030375
2	0x3e35b90b	0.1774637
3	0x3e16558c	0.14681071
4	0x3ea8d602	0.32975775
5	0x3c0ae370	0.008477077
6	0xbe09b4b1	-0.13447835
7	0x3e96cdbd	0.2945384
8	0x3d85e1b1	0.06537188
9	0xbddef76e	-0.10887037
10	0x3e1389b0	0.14407992
11	0xbc8f2312	-0.017472778
12	0x3e76533c	0.24055189
13	0xbe8157e2	-0.25262362
14	0xbddd4ea2	-0.10806014
15	0x3cb45616	0.022013705

conv2.weight f4 [32, 16, 1]
0	0x3e8ee163	0.2790633
1	0xbcecb3bd	-0.0288943
2	0xbdab3301	-0.083593376
3	0xbdffc189	-0.12488086
4	0xbe5ea4b9	-0.21742524
5	0x3e558f94	0.20855552
6	0x3e81f5fb	0.2538298
7	0x3da81437	0.08206981
8	0x3e36db5f	0.17857121
9	0xbe1b073d	-0.1513948
10	0x3e367997	0.1781982
11	0xbc3abf97	-0.011398218
12	0xbc7db298	-0.015484475
13	0xbe016eb3	-0.12639885
14	0x3de87280	0.11349964
15	0x3e3985cf	0.1811745
16	0x3d585df8	0.05282399
17	0x3e03daee	0.12876484
18	0x3e4032ba	0.1876935
19	0x3e32734e	0.17426798
20	0xbbc09d00	-0.005878091
21	0x3c94d1ab	0.018166384
22	0x3e760ef9	0.24029149
23	0xbdc10b09	-0.09425933
24	0xbe95b5ac	-0.29240167
25	0x3e217b92	0.15769795
26	0xbe3a486b	-0.18191688
27	0xbe9c386e	-0.30511802
28	0x3d6ca02f	0.05776995
29	0x3c7cff9d	0.015441802
30	0xbe0a7ccc	-0.13524169
31	0x3d64cdcf	0.055860337
32	0x3cde94da	0.027170587
33	0x3e58a7be	0.21157739
34	0xbe459492	-0.19294956
35	0x3db8a56d	0.090159275
36	0x3e64c969	0.22342457
37	0xbe00ae78	-0.12566555
38	0xbe2c0c65	-0.16801603
39	0xbda5944f	-0.08084928
40	0x3d784ffe	0.06062316
41	0x3d70cce0	0.058789134
42	0xbe427697	-0.18990551
43	0x3e152d9c	0.1456818
44	0x3df6edae	0.120570526
45	0x3e000c71	0.12504746
46	0x3d6fc43b	0.05853675
47	0xbd0fda0f	-0.035120066
48	0xbc9e2dec	-0.019309007
49	0x3c2e189b	0.010625984
50	0xbd1e5d44	-0.038663164
51	0x3e73e9c9	0.2381965
52	0x3c843afc	0.016141407
53	0xbe7d0e34	-0.2471245
54	0x3e77a9a3	0.24185805
55	0xbe29ecd6	-0.16594252
56	0xbe06a215	-0.13147767
57	0xbd0f30e4	-0.034958735
58	0xbe156d6c	-0.14592522
59	0x3d3152e0	0.043291926
60	0x3e1dc328	0.15406477
61	0x3dca8058	0.09887761
62	0x3e42c50d	0.19020481
63	0xbdf6ad3b	-0.1204476
64	0xbe2c1ed0	-0.16808629
65	0xbdd57a44	-0.10423711
66	0xbe671dce	-0.22569963
67	0x3d15aaf3	0.036539983
68	0x3bc3d664	0.005976485
69	0x3e3d1ad6	0.18467268
70	0x3dff8e41	0.12478305
71	0xbe213576	-0.1574305
72	0x3e0567e7	0.13027917
73	0x3da9e242	0.082951084
74	0xbd97e75b	-0.074171744
75	0xbceecd7b	-0.029150715
76	0xbdd3f074	-0.10348597
77	0xbe8bfdc1	-0.27342036
78	0x3e1f57cd	0.15560837
79	0x3d421bb5	0.047389705
80	0xbdf1c12d	-0.118044235
81	0xbe30cd8d	-0.17265911
82	0x3e303dac	0.17211026
83	0xbde26a75	-0.11055461
84	0xbd07358c	-0.03301005
85	0xbe6caca2	-0.23112729
86	0xbe4e6e70	-0.20159316
87	0x3e4fd0bf	0.20294474
88	0x3e5b5f08	0.2142297
89	0xbcac9374	-0.021066405
90	0xbe794586	-0.24342927
91	0x3d2c10b5	0.04200812
92	0x3db8f71a	0.09031506
93	0x3dd93524	0.10605839
94	0x3d44e543	0.048070204
95	0x3ea69738	0.32537246
96	0xbdeb20b5	-0.11480848
97	0xbe950e5e	-0.29112524
98	0xbd100ba7	-0.035167363
99	0xbb87b04d	-0.0041408897
100	0xbe11d204	-0.14240271
101	0xbe569349	-0.20954622
102	0x3b20231e	0.0024434994
103	0x3d44b35a	0.048022605
104	0xbe03b744	-0.12862879
105	0x3d04a442	0.03238321
106	0x3dff4094	0.12463489
107	0x3e17d629	0.1482779
108	0x3e1c6231	0.15271832
109	0xbdcb9f9b	-0.09942552
110	0x3e5984f8	0.2124213
111	0xbe527d39	-0.20555581
112	0x3e5b7830	0.21432567
113	0x3d684d3e	0.05671429
114	0x3e63f300	0.22260666
115	0x3de36261	0.11102749
116	0xbe8b1347	-0.27163145
117	0x3de3dc5b	0.11126014
118	0x3e1552b9	0.14582337
119	0xbe5aefab	-0.21380489
120	0xbd9296ee	-0.07157694
121	0xbcb024f3	-0.021501994
122	0x3e65a3dd	0.2242579
123	0x3e1b79a3	0.1518312
124	0xbe093b18	-0.13401449
125	0x3e21885a	0.1577467
126	0x3d9ed219	0.07754917
127	0x3e28e784	0.16494566
128	0xbe7c6e93	-0.24651556
129	0x3e15910e	0.14606115
130	0xbda4d2d1	-0.080480225
131	0xbe8ad58f	-0.27116057
132	0xbea27ae0	-0.3173437
133	0xbd2b903c	-0.0418856
134	0x3e01f2bd	0.12690254
135	0x3db12265	0.08649138
136	0x3d50a63a	0.050939776
137	0xbd17014d	-0.036866475
138	0xbe919390	-0.28432894
139	0xbe085045	-0.1331187
140	0x3d533381	0.05156279
141	0x3b2e403c	0.002658858
142	0x3e435647	0.19075881
143	0x3e3b5c57	0.18296944
144	0xbccc243a	-0.024919618
145	0xbd95acac	-0.07308325
146	0x3e077f29	0.13232102
147	0xbe2652e6	-0.1624256
148	0xbe878e75	-0.26475874
149	0x3e1c23bf	0.15248011
150	0xbdbc7f7e	-0.09204005
151	0xbe8dd024	-0.2769786
152	0xbe5fba99	-0.21848525
153	0x3e6cd041	0.23126318
154	0xbde54dba	-0.11196466
155	0xbc686e13	-0.0141864
156	0x3d1a8e3a	0.037733294
157	0xbdac336d	-0.08408246
158	0xbe7a5527	-0.24446546
159	0x3e68adc8	0.22722542
160	0xbd84d3d0	-0.064857125
161	0x3e522e66	0.20525512
162	0xbe3df46b	-0.1855027
163	0x3e283649	0.16426958
164	0xbe4402b7	-0.1914166
165	0x3d4906d2	0.04907877
166	0x3dc8a391	0.09796823
167	0x3bf4d392	0.00747151
168	0x3cafceb1	0.021460863
169	0xbdc49389	-0.095984526
170	0xbe12b375	-0.1432627
171	0xbe15e7ab	-0.14639156
172	0x3e574e25	0.21025904
173	0x3e7c08d2	0.2461274
174	0xbe65c775	-0.22439368
175	0xbd16ed37	-0.03684732
176	0xbddc0762	-0.10743596
177	0xbd06fe5b	-0.032957416
178	0x3d8cb59b	0.06870576
179	0xbd45f770	-0.048331678
180	0xbc7537b9	-0.014966899
181	0xbdb84975	-0.08998386
182	0xbd88d387	-0.06680971
183	0x3dfa42de	0.12219785
184	0xbe43853b	-0.19093792
185	0x3e19e84b	0.15030019
186	0x3dd9ed28	0.10640937
187	0xbde79741	-0.11308146
188	0x3e06aea8	0.13152564
189	0x3e10c7ad	0.1413867
190	0xbe2108a3	-0.15725951
191	0x3d5c5bc5	0.053798456
192	0x39d041c7	0.0003972186
193	0xbe3565d6	-0.17714629
194	0xbda1c1e2	-0.07898308
195	0x3e400f74	0.18755895
196	0x3de2df94	0.110778004
197	0xbe5eec7b	-0.21769898
198	0x3e2e419a	0.17017213
199	0x3e40947a	0.1880664
200	0xbe00e981	-0.12589075
201	0x3dc8865b	0.09791251
202	0xbdade114	-0.08490196
203	0xbe12469d	-0.1428475
204	0x3e589ea1	0.21154262
205	0x3da8e738	0.082472265
206	0x3e3f9ae9	0.18711437
207	0xbdad5852	-0.084641114
208	0x3c3aef1b	0.011409546
209	0xbdaffc76	-0.08593075
210	0x3e7153cf	0.23567127
211	0x3dce7953	0.100817345
212	0x3e49db9e	0.19712684
213	0xbe505f04	-0.20348746
214	0xbe80a004	-0.25122082
215	0x3e20c156	0.15698752
216	0xbe3820f8	-0.17981327
217	0x3e685b12	0.2269099
218	0xbd4aa611	-0.04947478
219	0xbe095104	-0.13409811
220	0x3bf59767	0.007494855
221	0xbdf276d9	-0.11839075
222	0xbc0de14c	-0.008659672
223	0xbe27e987	-0.16397677
224	0x3e026b08	0.12736142
225	0x3d521aaf	0.05129498
226	0x3de90ce6	0.11379413
227	0x3d85dbba	0.0653605
228	0xbe30faab	-0.17283122
229	0xbce01939	-0.027355777
230	0x3ddc998b	0.107714735
231	0x3bc9d2e3	0.006159173
232	0xbe1889c2	-0.148963
233	0x3dae3fb8	0.08508247
234	0xbe3052fd	-0.17219158
235	0x3d80a559	0.062815376
236	0xbdce33b3	-0.100684546
237	0xbe57ee4e	-0.21087
238	0x3e476ca4	0.19475037
239	0x3df7e52d	0.12104259
240	0x3dc8c4c1	0.09803153
241	0x3dbd3fd9	0.092406936
242	0x3db5fbf1	0.08885945
243	0x3e8cc21c	0.27491844
244	0x3d12768c	0.035757586
245	0x3dcc5171	0.09976471
246	0x3db9a6bc	0.09065005
247	0xbdb2f299	-0.08737678
248	0xbdb3a989	-0.08772571
249	0xbe4e6466	-0.20155486
250	0xbd573e2e	-0.052549534
251	0xbe5209d8	-0.20511568
252	0xbe4b204b	-0.19836538
253	0x3e48d6ec	0.19613236
254	0x3dbee0f1	0.09320248
255	0x3dd3a06e	0.10333334

conv2.bias f4 [32]
0	0x3e4102aa	0.18848673
1	0xbde30ed4	-0.110868126
2	0x3e7adb93	0.24497823
3	0xbe767469	-0.24067844
4	0xbbc4ebf7	-0.0060095745
5	0xbe08405f	-0.13305806
6	0x3dbcb73b	0.09214636
7	0x3ba9bd4f	0.005180038
8	0xbda4808f	-0.08032333
9	0xbe3f519e	-0.18683478
10	0x3d62130d	0.05519395
11	0x3e35ad99	0.17742004
12	0x3d3f1245	0.046648283
13	0xbd35312b	-0.044236343
14	0xbe2191ae	-0.15778229
15	0x3dc194b1	0.09452189
16	0x3dfe506c	0.12417683
17	0xbd81aa47	-0.06331306
18	0x3da53396	0.0806648
19	0xbe4ef6f0	-0.20211387
20	0xbe226483	-0.15858655
21	0x3ce93468	0.028467372
22	0xbe5cf365	-0.21577223
23	0x3e449f5d	0.19201417
24	0xbe08c5a4	-0.13356644
25	0xbe2c5daa	-0.16832605
26	0xbe252d4a	-0.16130558
27	0x3ca6d020	0.020362914
28	0xbde53c1c	-0.111931056
29	0x3d21292a	0.039345898
30	0x3d3e0ab8	0.04639694
31	0xbe35af1f	-0.17742585

fc1.weight f4 [32, 960]
0	0xbd100609	-0.035162006
1	0xbd091334	-0.03346558
2	0xbca5785d	-0.020198995
3	0x3ca4f5ab	0.020136675
4	0xbd05c7c1	-0.032661203
5	0x3bf6199a	0.007510376
6	0x3bff93f2	0.007799619
7	0xbc36597b	-0.011129732
8	0x3c6a2e4f	0.014293267
9	0x3c1e469f	0.009660392
10	0xbd22d93e	-0.03975796
11	0x3cb743ab	0.022371134
12	0xbbebce7e	-0.0071962466
13	0xbd162152	-0.03665287
14	0xbbeb8afb	-0.0071881986
15	0xbd017309	-0.031603847
16	0xbcaa3d1c	-0.020781092
17	0xbc7c9d0d	-0.015418303
18	0x3c7bdd12	0.0153725315
19	0xbc7b2bda	-0.015330279
20	0x3c30d9e8	0.01079414
21	0xbc084078	-0.008316152
22	0xb839d1b3	-4.4302735e-05
23	0xbb3bf20e	-0.0028678211
24	0xbc6b0e5f	-0.014346688
25	0xbd03a650	-0.03214103
26	0xbd2d84fb	-0.04236315
27	0xbc184603	-0.009294036
28	0x3aba0979	0.0014193497
29	0xbc891597	-0.016733928
30	0xbc2e4a81	-0.01063788
31	0x3cb71481	0.022348644
32	0xbd0f4ed1	-0.034987275
33	0xbcddea28	-0.027089193
34	0xbb8344b4	-0.004005993
35	0xbcb3a014	-0.021926917
36	0xbc28f002	-0.010311129
37	0x3c71169b	0.014714862
38	0xbd23b820	-0.039970517
39	0x3bdc556d	0.0067240507
40	0x3ca1b60b	0.019740125
41	0xbc9e26db	-0.019305637
42	0x3b5d4e1c	0.003376848
43	0xbcdc4ab1	-0.026891084
44	0x3b76ea93	0.0037676438
45	0xbc74a771	-0.014932499
46	0xbca218f1	-0.019787284
47	0x3c14453e	0.009049712
48	0xbc6a5cbc	-0.014304336
49	0xbbaf23d3	-0.0053448468
50	0x3ca976e4	0.020686574
51	0x3c6c08b6	0.014406374
52	0x3cb4d178	0.022072539
53	0xbc84708d	-0.01616695
54	0xbbe46de2	-0.006971107
55	0x3cc362b4	0.023850776
56	0xbc5c0db9	-0.013431006
57	0x3ce4429b	0.027863791
58	0x3cd7de85	0.026351223
59	0x3c1ac3e0	0.009446114
60	0x3c0565ed	0.008141977
61	0xbcd9096c	-0.02649375
62	0x3b96fc34	0.0046077017
63	0xbbc3b5c7	-0.0059725973
64	0xbcb3a525	-0.021929333
65	0x3c786b76	0.015162339
66	0x3c127568	0.008939125
67	0xbc2ce231	-0.010551975
68	0xbc2d2bb9	-0.010569506
69	0xbc9dd143	-0.019264823
70	0xbcf3cc51	-0.029760512
71	0x3cb5d4d1	0.022196205
72	0x3be65b42	0.0070299217
73	0xbc1b3d16	-0.009475013
74	0x3c69b9a9	0.014265456
75	0xbcfe72a2	-0.03106052
76	0xba07aac1	-0.00051752856
77	0x3bd9adbb	0.0066430247
78	0x3bdeaf71	0.0067958166
79	0x3ca06c1f	0.019582806
80	0xbb669100	-0.0035181642
81	0xbcee90c2	-0.02912176
82	0x3c45d234	0.012074042
83	0x3c9bd93e	0.019024488
84	0xbbc3b973	-0.005973035
85	0xbce5d623	-0.02805621
86	0x3c88f9c1	0.016720654
87	0xbc05a2ca	-0.008156488
88	0xbd23ddf7	-0.040006604
89	0xbd1577f7	-0.03649136
90	0xbc6be2a6	-0.014397299
91	0x3c206f19	0.009792113
92	0x3c06537e	0.008198617
93	0x3cb95fde	0.02262872
94	0xbb1dbf4d	-0.0024070323
95	0x3c64b93c	0.013960179
96	0x3cbf97e6	0.02338786
97	0xbcc52048	-0.024063244
98	0xbc3e0e75	-0.0116001265
99	0xbc53a08a	-0.012916693
100	0x3cc213a5	0.023691008
101	0x3c94c34f	0.018159537
102	0x3ccf9a19	0.025342034
103	0x3ca12033	0.019668674
104	0xbcda6441	-0.026659133
105	0xb93fae82	-0.00018280189
106	0x3ad2524e	0.0016046257
107	0xbc7f22d6	-0.01557227
108	0x3c949154	0.018135704
109	0xb9623bbc	-0.00021575292
110	0xbc3fb8d9	-0.011701786
111	0x3ca4e59a	0.020129014
112	0x3cc699e4	0.024243303
113	0x3c135fac	0.008994978
114	0x3d05ff16	0.032713972
115	0x3befa2ef	0.0073131244
116	0xbce124fe	-0.02748346
117	0xbcc0f3e9	-0.023553805
118	0xbc4dffb9	-0.012573176
119	0xbcd051fd	-0.02542972
120	0x3cb6b7f7	0.022304518
121	0x3be73785	0.007056179
122	0xbb2d4633	-0.0026439547
123	0xbca5e3b2	-0.020250175
124	0xbc9d7ae4	-0.019223638
125	0x3ccd7b9f	0.025083361
126	0xbc118ba5	-0.0088833915
127	0x3c6b0a69	0.014345744
128	0xbc4107c0	-0.011781633
129	0xbca3a3fe	-0.019975659
130	0xbce44c8c	-0.027868532
131	0x3c8dccfa	0.017309655
132	0xbc8063ad	-0.01567253
133	0xbd187139	-0.037217353
134	0xbd1ed0ad	-0.038773227
135	0x3cc07587	0.023493541
136	0xbc37607e	-0.011192439
137	0xbb83f8f9	-0.0040274826
138	0x3ca4f92a	0.020138342
139	0xbcacb135	-0.021080593
140	0x3c4b5ae9	0.012411811
141	0xbc8d8037	-0.017273052
142	0xbc8d662e	-0.017260637
143	0xbb4ba6dd	-0.00310748
144	0xbc552e1c	-0.013011482
145	0xbcfbc82b	-0.030735096
146	0x39e48ec4	0.00043593918
147	0xbce66ef8	-0.028129086
148	0x3b697f87	0.003562899
149	0xbc3a53d0	-0.0113725215
150	0x3c81526b	0.01578637
151	0x3cb36f89	0.02190377
152	0xbc9f811e	-0.019470748
153	0x3cb5203c	0.022110097
154	0xbc6af50f	-0.014340653
155	0x3b73971c	0.0037168926
156	0xbbdc7e05	-0.00672889
157	0xbcd4bc7f	-0.025968788
158	0x3c2959b1	0.0103363255
159	0x3cef6be4	0.029226251
160	0x3cd7d266	0.026345443
161	0x3c2f78d1	0.010709957
162	0x3afe89ae	0.0019419694
163	0xbc2b50b0	-0.010456249
164	0x3c50734d	0.012722802
165	0x3bf71f9b	0.0075416095
166	0xbae619c0	-0.0017555282
167	0x3d050048	0.03247097
168	0xbca1ee95	-0.019767085
169	0xbba13806	-0.0049200086
170	0x3caf8b23	0.02142865
171	0x3b96469f	0.0045860554
172	0x3cd851c9	0.026406186
173	0x3cc625b8	0.024187908
174	0x3c8833b4	0.016626216
175	0xbb95b12e	-0.0045682406
176	0xbc254896	-0.010088107
177	0xbae932c2	-0.0017791616
178	0x3c1ea44e	0.009682728
179	0x3cc43c20	0.023954451
180	0xbd11289e	-0.035439126
181	0x3cabab8c	0.020955823
182	0xbc921b3c	-0.017835252
183	0x3b3906a9	0.002823273
184	0x3b141587	0.002259584
185	0xbcf81c22	-0.030286852
186	0xbbff59f2	-0.0077927047
187	0x3cee9dd5	0.029127995
188	0xbd06658e	-0.032811694
189	0x3c246d58	0.010035835
190	0x3bc567ee	0.0060243523
191	0x3ccdb980	0.025112867
192	0x3c652fa8	0.013988413
193	0x3cc0f5e6	0.023554754
194	0x3c4a800b	0.012359629
195	0xbc5c9ed0	-0.013465598
196	0x3cc792af	0.024361936
197	0xb99d95f5	-0.000300571
198	0xbcf43429	-0.029810028
199	0x3c9fa5c4	0.019488223
200	0x3ca0299d	0.019551093
201	0xbc278ef4	-0.010226954
202	0x3b1c0028	0.0023803804
203	0xbcfe5689	-0.031047123
204	0x3c62ccc9	0.01384277
205	0xbb89b050	-0.0042019263
206	0xbcbf0bf0	-0.023321122
207	0xbcec48d6	-0.028843325
208	0xbc9cfea7	-0.019164396
209	0xbd04f8e5	-0.032463927
210	0x3bec060d	0.0072028697
211	0x3bdead49	0.0067955595
212	0xbd1c455f	-0.038152095
213	0xbbaf9c3d	-0.005359201
214	0xbcadd184	-0.021218069
215	0x3c10a96a	0.008829454
216	0x3c192bfb	0.009348865
217	0x3aaa3094	0.0012984448
218	0x3c920f5e	0.017829593
219	0x3c657431	0.014004753
220	0xbcd646bd	-0.026156778
221	0xbcf3624a	-0.029709954
222	0x3c7a1b48	0.015265293
223	0xbcbfb32b	-0.023400864
224	0x3c567202	0.013088705
225	0xba538d80	-0.00080700964
226	0xbd12fdc8	-0.035886556
227	0xbd07ee00	-0.03318596
228	0x3aefa151	0.0018282329
229	0x3bcdf177	0.0062848884
230	0xbd0b2886	-0.033974193
231	0xbb302986	-0.0026880219
232	0xbcf72b62	-0.030172054
233	0xbc031a00	-0.008001804
234	0xbcda1e24	-0.0266257
235	0xbcb1aab9	-0.021687852
236	0xbd160fd2	-0.03663618
237	0xbcc6eca5	-0.024282763
238	0xbc4f2690	-0.012643471
239	0xbcd10392	-0.025514398
240	0x3ca125ad	0.019671286
241	0x3c16ef6c	0.009212356
242	0x3c417679	0.011808031
243	0x3c060ede	0.008182256
244	0x3c856b59	0.016286539
245	0xbcaa7ac9	-0.020810502
246	0x3cd9e386	0.02659775
247	0xbcf0e423	-0.029405659
248	0x3bec9449	0.0072198254
249	0xbcc17e3a	-0.02361976
250	0x3c7f9cf8	0.015601389
251	0x3cf923ce	0.03041258
252	0xbc7cac69	-0.015421965
253	0x3caa2328	0.020768717
254	0x3cfe1a85	0.031018505
255	0xbc34f7a1	-0.011045367

fc1.bias f4 [32]
0	0x3b6bee5b	0.0036000225
1	0xbd14d352	-0.036334343
2	0x3c08a7cd	0.008340788
3	0x39db13d1	0.000417857
4	0xbcf5d005	-0.030006418
5	0xbc3ffd5f	-0.011718123
6	0x3cce4aaa	0.025182087
7	0x3c6e89ba	0.014559204
8	0xbcc3321f	-0.02382761
9	0x3d8623f2	0.06549825
10	0x3c921df0	0.017836541
11	0xbcbdf93a	-0.02319013
12	0x3a87942d	0.0010343842
13	0x3cc25423	0.02372176
14	0xbd093b8e	-0.03350406
15	0xbcd03289	-0.025414722
16	0xbba381a1	-0.004989818
17	0x3b87be55	0.0041425624
18	0x3d1dfbd6	0.038570248
19	0x3c366be0	0.011134118
20	0x3ba4e26d	0.005031875
21	0xbc036eac	-0.008021992
22	0x3c4d736c	0.012539726
23	0x3a983adc	0.0011614221
24	0xbc6d9fef	-0.014503463
25	0xbd1b510b	-0.037919085
26	0x3ce4e15c	0.027939491
27	0xbd11b5f1	-0.035573903
28	0x3c6c5a1d	0.014425782
29	0x3cb1b055	0.021690527
30	0x3b87c7ca	0.0041436898
31	0xbc872e3c	-0.016501538

fc2.weight f4 [1, 32]
0	0xbd3cb7fb	-0.046073895
1	0x3d40e74a	0.047095574
2	0x3e455018	0.19268835
3	0x3acc0217	0.0015564588
4	0xbdff8146	-0.12475829
5	0x3e40cc11	0.18827845
6	0xbdfdb92d	-0.12388835
7	0xbd77fa65	-0.06054153
8	0x3d2a20b4	0.041535094
9	0xbdab1ad3	-0.08354726
10	0xbe1e935f	-0.15485905
11	0xbd4135d0	-0.04717046
12	0x3e486c08	0.1957246
13	0xbdfd9430	-0.1238178
14	0xbd92e63c	-0.0717282
15	0x3e0a309a	0.13495103
16	0x3d808bd3	0.06276669
17	0xbca16851	-0.019703062
18	0xbe31df39	-0.17370309
19	0x3df1c6ca	0.11805494
20	0x3d9e772c	0.07737574
21	0x3e16bf55	0.14721425
22	0x3d800ca0	0.06252408
23	0x3db9a609	0.09064872
24	0xbdadcf9e	-0.084868655
25	0x3e177141	0.14789297
26	0x3da54623	0.08070018
27	0x3e103809	0.14083876
28	0x3e237fc2	0.15966704
29	0xbd52fd59	-0.051511142
30	0x3e2736ec	0.16329545
31	0x3d37c65c	0.044866905
