models/saved_models/multiLSTM0_16_2.pth (torch, 132872 bytes, 73 tensors)

lstms.0.weight_ih_l0 f4 [64, 1]
00000000: bca9 543f 889a 1c3f eb13 503e d712 43be
00000010: 2ab0 243f c362 633e ba1a dabd b7d4 353e
00000020: ff81 bcbe 3573 b53d 7f17 493f 1c8e 143f
00000030: 78ec 8c3e e733 96be eb96 05be f4b5 9abe
00000040: 778a 0f3e 2d3a 6d3e 58a2 86be e2e0 4e3e
00000050: 2b06 2dbe 0b15 81bd 3a1c bbbc a958 78be
00000060: 6be2 c5be 0264 4a3d 82eb d03e e5a6 5c3e
00000070: 5468 9b3e 8c17 96be 81ba 853e e46b 2abe
00000080: 008a 953e b6c4 54bd 6cac a9be 11ff 88bd
00000090: 52c5 91be 8458 8bbe b096 8dbe 3cb7 65be
000000a0: 5c54 9e3d c573 93be f729 a8be 5a43 abbe
000000b0: 3d0f c13d 2692 b83e c442 f3bd 6739 733e
000000c0: bcc8 d03d c0f2 803d 0177 14be 0f20 133e
000000d0: ba9d 3f3e 838e 05be efae 37bc 0700 f03c
000000e0: e91a a3bd f418 b1be a818 e63e 2825 c03e
000000f0: 163f 073a 200f f4be 6f25 303d 573c 56be
0.83071494 0.61173296 0.20320098 -0.19050156 0.64331305 0.22205643 -0.10649629 0.17756926
-0.3681793 0.088598646 0.7855148 0.5802934 0.2752416 -0.29336473 -0.13045852 -0.30216944
0.14017664 0.23166724 -0.26295733 0.20202973 -0.16896884 -0.06302842 -0.022840608 -0.24252571
-0.38649306 0.04941178 0.40804678 0.2154804 0.30353034 -0.2931484 0.26118854 -0.1664272
0.29206848 -0.05194541 -0.3313936 -0.06689275 -0.28470856 -0.2721597 -0.27654028 -0.2243318
0.07730934 -0.28799263 -0.32844517 -0.33449823 0.094267346 0.36049002 -0.11877969 0.23752366
0.10194537 0.06296301 -0.14498521 0.14367698 0.18712512 -0.13042645 -0.011211141 0.029296888
-0.07964117 -0.3458935 0.44940686 0.37528348 0.0005159242 -0.4766779 0.04300445 -0.20921455

lstms.0.weight_hh_l0 f4 [64, 16]
00000000: 5276 cabe 029f 8b3e 39cf 4d3d 4ab5 7cbd
00000010: b9ea a13e c829 9b3e cc5d c9bd 4bdd 323d
00000020: 9575 fbbe 2b40 e13e df18 44be 0425 993e
00000030: e412 60be 13e2 2ebd 1bd2 06be 494c ac3d
00000040: a75b c03e cb64 d1bd f461 e9be edbb 553e
00000050: 79c7 cebe 469b a8be be7b 86be f6dc 523e
00000060: b30f 61bd 2d85 61bd 87da 9ebe 0aa3 2cbe
00000070: 94ad 553e 3277 1fbd f04a 223e b40a 933e
00000080: c6e4 233e 4eea f73c f080 c83d 2438 7f3e
00000090: 7890 913d 411e 283e abb7 8fbc d314 00be
000000a0: 300a e7be 9cb2 11be 39c5 c1bd 75a0 c8be
000000b0: 27a3 063e d825 91be 5b5c bc3d cacc 98be
000000c0: 633b da3d 9d25 9f3e 5fa3 f6bd a6bd 463e
000000d0: 7fdc 3c3e e720 1ebc cd0c 81bd 6e1e fa3d
000000e0: c298 1d3e 3ac6 963e 71d5 413e c57d 9c3e
000000f0: ec1e 04be 42c0 be3d 4e55 863e 817f 4dbe
00000100: f370 833e 60e2 393e 44f4 a13e aeb1 9e3d
00000110: ac3f c6bd 2496 5c3e 8b83 4bbc 7aab debd
00000120: a4fc b0be 0e84 893d 093a a2be eca4 20be
00000130: cc4f a9bd ad06 e83d 1f9b 3e3e 5b61 0abe
00000140: fd1d 653e 4f76 40be 11b0 96be 3d28 e33e
00000150: 72a7 8abe 13cf 42be c0a3 f7bd 54b7 263e
00000160: df32 2ebe a8ac 98bc cceb 56be 5685 e9bd
00000170: 232a 47be a5e6 b93d 72b2 a03a 6917 183e
00000180: 6c97 c3bd f7ea 363e e844 9b3e 75bc 963e
00000190: 6bfe 803e 9ca8 22be d4e6 083e 11a0 d9bc
000001a0: 88b1 05bf ec93 ce3d 520e 03be 2420 f0bc
000001b0: 47e3 ae3d 6a89 72be 22f8 3ebe 4e73 ea3c
000001c0: 6cf9 93bd f11c d23d 0d8e 533e 348d 713e
000001d0: afaa 4b3e 0a2d e33d 4a7e f33d 1fa2 073e
000001e0: db50 68be 7a6a ce3e 79ef 1cbe 9827 493e
000001f0: f695 56be cb4c 5cbe cb30 8f3e 469a 213d
00000200: 896e 04bf 15c8 67be f2b7 243e 2e77 bd3c
00000210: 9215 2e3e dc7c d3bd 6c0a f7bd 20d6 103e
00000220: 6bb7 d03c 6ccc cebd 596d 9a3e f029 adbe
00000230: 764f 913d db63 7d3b e316 d0bd 5ce7 863d
00000240: c5f9 863e 950b 71bd 11e8 2e3e 7495 ea3d
00000250: 0b9c 12bd a8e3 e43d 25b4 043e e7f9 9c3d
00000260: 94c4 68be c230 e03d 8c1d 86be ed79 fbbe
00000270: 3f64 813e 2230 93be f2b8 c4bd 315e 2abe
00000280: d468 a6be addf 423e 8852 e23c 1b00 e73d
00000290: d748 343e 85ca 0f3e 0981 8d3e d4e8 9b3e
000002a0: 6e66 f1be 9d19 263e 756b cc3d cd52 813e
000002b0: da3e 0fbe db82 09be 1091 753d fdc5 f0be
000002c0: 6011 3dbe fab8 b53d 4da0 06bd a68a 28be
000002d0: 5010 88bc 0f27 52bc c135 b63d c503 c4bc
000002e0: bb06 393e 185f 1dbe bafa aebd 6318 12be
000002f0: 7149 853d 9c07 bebd 5139 233d 74f1 8fbe
00000300: fcd3 703e de00 dbbd 6036 77be abfd b63d
00000310: e28b f9bc a99c 1bbe fb22 b43d c281 c1bd
00000320: 4efa 9dbd a8df fdbd 492d 7cbe 5cf4 b7be
00000330: 36a9 24be 431e 81bd 96e7 f4bd 1b17 97bd
00000340: f5c4 133e 075e 7dbe 4583 b13d 64ad 923e
00000350: 22ae 733e ea8e 3dbc 59bc 813e 8838 a03e
00000360: 58f8 afbe ef4a 533e 557d 643e 2bba 383e
00000370: c9f2 943e 0f32 acbc e051 aa3c b2f6 03be
00000380: 63ae 38be 951c 7ebe 1435 9b3d 27fd 65be
00000390: fb0d 0ebd 5b60 743e 825b c43e 8ba0 883e
000003a0: 831e 4abd e0b9 31bd 30b4 3abe 00de 84be
000003b0: efb3 833e 0693 e5be 818e 583e ed9d 34be
000003c0: 8a92 be3c 6cfa 5e3b a392 ab3e cbe0 be3d
000003d0: 5f95 5c3e f87a d13e 1a97 073e cb87 063e
000003e0: d953 14be 7c16 c43e c11f 213e b0ed ce3d
000003f0: 4351 483d b0d1 7cbb 163a af3e 04b0 5c3c
-0.39543396 0.2726975 0.05024645 -0.06169633 0.31624392 0.30305314 -0.098323435 0.043668073
-0.49113145 0.4399427 -0.19150113 0.29911053 -0.21882206 -0.04269607 -0.13166086 0.08412988
0.37569925 -0.10224303 -0.45582545 0.20872469 -0.4038656 -0.32930964 -0.26266283 0.20592102
-0.054946613 -0.055058647 -0.31026098 -0.1685907 0.20866996 -0.038932033 0.15848899 0.28719103
0.16005239 0.030263092 0.09790218 0.2492376 0.07107633 0.16417791 -0.017543634 -0.12507944
-0.4512496 -0.1422829 -0.09461445 -0.3918492 0.13148175 -0.28349185 0.09197303 -0.29843742
0.10655858 0.31083384 -0.12042879 0.19408283 0.18443488 -0.009651399 -0.0630127 0.12212835
0.15390304 0.2944811 0.18929078 0.30564705 -0.12902421 0.09314014 0.26236957 -0.2006817
0.2567211 0.18152761 0.31631672 0.077487335 -0.09680113 0.21541649 -0.012421499 -0.1087255
-0.3456775 0.067146406 -0.31684902 -0.15687913 -0.08267173 0.11329398 0.18613862 -0.135137
0.22374721 -0.18795131 -0.29431203 0.44366637 -0.27080876 -0.19024305 -0.1209178 0.16280872
-0.17011593 -0.018637016 -0.20988387 -0.11402385 -0.19449668 0.09077195 0.0012260212 0.1485268
-0.09550366 0.1786307 0.3032601 0.29440656 0.25194106 -0.15884632 0.13369304 -0.026565583
-0.52224016 0.100868076 -0.12798432 -0.0293122 0.085394435 -0.23685232 -0.18649343 0.028619435
-0.07225308 0.102594264 0.20659657 0.23589021 0.1988933 0.11092575 0.11889322 0.13245438
-0.22687094 0.4031561 -0.15325727 0.1964401 -0.20955643 -0.21513669 0.27966914 0.039453767
-0.51731163 -0.22634919 0.16085795 0.023128118 0.17000416 -0.103265494 -0.12062535 0.14144182
0.025478086 -0.10097584 0.3016155 -0.33821058 0.07095234 0.0038664255 -0.10160615 0.06587097
0.26362434 -0.058848936 0.17080714 0.11454287 -0.035793345 0.111762345 0.12959345 0.076648526
-0.22731239 0.109468 -0.26194417 -0.4911646 0.25271794 -0.2874766 -0.09605588 -0.16637494
-0.32501853 0.19030638 0.027627245 0.11279317 0.17605911 0.14042099 0.2763751 0.3045107
-0.4714846 0.16220708 0.09981433 0.25258484 -0.1398882 -0.13428824 0.059952796 -0.47026053
-0.1846366 0.08873172 -0.03286772 -0.1645914 -0.01660934 -0.012826695 0.088969715 -0.023927579
0.18068974 -0.15368307 -0.08543916 -0.14267115 0.065081485 -0.09278795 0.039849583 -0.28113902
0.23518366 -0.10693525 -0.24141836 0.08935102 -0.03046221 -0.1519648 0.087957345 -0.094485775
-0.077137575 -0.12396175 -0.2462665 -0.3592862 -0.16080174 -0.063046 -0.11958234 -0.07377454
0.14430602 -0.247429 0.08667616 0.28647912 0.23796895 -0.011569718 0.2533901 0.3129313
-0.3436916 0.20634054 0.22313435 0.18039767 0.2909148 -0.021019964 0.020790994 -0.12887076
-0.18035273 -0.2481559 0.07578483 -0.22459851 -0.0346813 0.23864882 0.38351065 0.26684985
-0.049345504 -0.043390155 -0.18232799 -0.25950623 0.25723216 -0.44838732 0.21148111 -0.17638369
0.023263235 0.0034023775 0.33510312 0.093202196 0.21541356 0.4091413 0.13241234 0.13137738
-0.1448511 0.38298404 0.1573477 0.10103929 0.048905622 -0.0038577132 0.34224004 0.0134697

lstms.0.bias_ih_l0 f4 [64]
00000000: 6589 f1bd f8a2 a53e 3da1 f53c 1f56 8dbe
00000010: abe5 183e 8189 7f3e 3b10 83bd 10b0 d3bd
00000020: 007e b7b9 cfed ddbd e516 a0bd cd37 cfbc
00000030: 1625 b43d 595e fcbd bec9 833e d07e c73d
00000040: 3a31 143d 437e 683e 7097 1fbc a374 4ebd
00000050: 7f92 113e e8a0 b8bd 6859 b03e c0e5 f8bd
00000060: f0f1 2abe ba62 d9bd 8411 06be 1ac5 713e
00000070: ebfe 913d 02dc c43e 03be 983e e3c2 393e
00000080: 5864 183e 15a3 c5bd 1abc d8bd 144a 3b3e
00000090: bd07 cf3d 2f60 10be d614 82be 8609 efbd
000000a0: e944 8d3d 6eae 6abd 7a64 64bd c51d 4b3e
000000b0: 9079 73bc ee97 6a3e 3a3d f93d 004b 113e
000000c0: 4e7d 093e 0d63 ae3e 8a52 573d 61b1 46bd
000000d0: c4f3 463d 5a6c 9a3d fbda 983e c9a0 2bbe
000000e0: e473 cebd 5c3e edbd d261 9f3e af69 a93d
000000f0: 57ae 0abe d74f c6bd d01a a53e 46fe 3cbe
-0.11793784 0.32350898 0.029984111 -0.27604768 0.14931361 0.24954797 -0.0639958 -0.10336316
-0.00034998357 -0.10836374 -0.07816867 -0.025295163 0.08796136 -0.12322683 0.25739855 0.097409844
0.03617976 0.22704415 -0.009740695 -0.050404202 0.1421604 -0.090150654 0.34443212 -0.12153196
-0.16693854 -0.10614534 -0.13092619 0.23610345 0.071287 0.38449103 0.29832467 0.1814075
0.14882028 -0.09650246 -0.105827525 0.18289977 0.10108898 -0.14099191 -0.25406522 -0.11671738
0.06897909 -0.057295255 -0.055759884 0.19835575 -0.014860526 0.22909519 0.12169881 0.14188766
0.13426706 0.34059945 0.05256895 -0.048509005 0.048572317 0.07540198 0.2985457 -0.16760553
-0.10080698 -0.1158416 0.31129318 0.08272111 -0.13543068 -0.09683197 0.3224702 -0.18456373

lstms.0.bias_hh_l0 f4 [64]
00000000: 1107 fa3d 1fc8 873e 3fbf a93d abfc 9abe
00000010: 1036 96bc 7259 793e 3109 073e f407 89bd
00000020: 9be8 23be 41ea b7bc 5dce 89be 0b6c 47bc
00000030: 313e ee3c 332e 95bc 8b53 b33d 42b3 2ebe
00000040: bd2c b23e 32fc 2e3e f96b 843e c693 bcbe
00000050: 4cdd dbbd 3d65 3b3d eaac 573e 06de efbb
00000060: 731f 313e 7030 823d 5277 e53d 44fd 103d
00000070: 905f 2cbe 0a50 133e e802 d93e 2a00 993d
00000080: a914 61bd 3c72 193c 6ffd 1cbe c406 22be
00000090: f00b 0cbe ad2f a3ba dded 503d 3005 093e
000000a0: e5dd cebd 0f63 a1bd 9210 aa3d 9ffa c9bc
000000b0: 22b5 cd3d a09d 863e 5aea 34be c32b a8bc
000000c0: 1898 693e ebfb 8a3d f258 d53d 32a1 b1be
000000d0: 12a7 1fbe 7e39 573e b7ba 2d3e adea 4c3e
000000e0: 5102 223e 30fd da3d d530 843c a2d7 f63d
000000f0: 8df6 49be 6529 963e 8550 d33e 6d16 fabc
0.12208379 0.26519868 0.082884304 -0.30270895 -0.018336326 0.24350527 0.131871 -0.0669097
-0.160067 -0.022450568 -0.26915255 -0.012171756 0.02908239 -0.018210506 0.08756169 -0.17060569
0.34799758 0.17088392 0.25863627 -0.36831492 -0.107355684 0.045750845 0.21062055 -0.0073201684
0.17297153 0.06356895 0.11204399 0.035397783 -0.16833329 0.14386001 0.4238503 0.074707344
-0.054951344 0.0093656145 -0.15331052 -0.15822893 -0.13676429 -0.0012450122 0.051008094 0.13380885
-0.10100917 -0.07880222 0.08303942 -0.024655638 0.10044314 0.26292133 -0.17667523 -0.02052868
0.22811925 0.06786331 0.104173556 -0.34693295 -0.15591076 0.21018025 0.16965757 0.20011397
0.15821196 0.10692823 0.016136566 0.120528474 -0.19722958 0.29328457 0.4127237 -0.030528272

lstms.0.weight_ih_l1 f4 [64, 16]
00000000: 1c7f 0abc efb1 9c3e 92e6 173e 17bc 713d
00000010: c058 cb3d ff2f 2f3e dcbe c93e 4f9a 903e
00000020: 9e1b cc3d 4f6d bb3d 4635 44be d0b5 6b3e
00000030: 8e7a 52bd 481b 9abd d170 2e3e 8d6b 2dbe
00000040: 2981 3a3f 4f4b 14be 6072 84be c760 36be
00000050: 2549 28bf 84c1 b6bd 6031 5bbe 994d 13be
00000060: 0b9d 323d 9329 9bbe 1d7e 4fbf 0679 adbe
00000070: 9043 bfbd 3768 cd3e b25f 533e 499c f6bd
00000080: d10d 453d e33e 81be 762a 05be af6f 73be
00000090: e3bb afbe 6f23 61bc 55b4 56bc 0c87 f3bd
000000a0: 5ad0 0f3d cc32 4cbe 55d4 fabd a4fc c6be
000000b0: 9d79 223e c374 f13e 8a44 e3bd 03c3 7e3e
000000c0: c34a 003e 9ac6 58be 48de a2bd 6554 3a3e
000000d0: e809 473d 95ad 41be b260 c1bd f4ba d5bd
000000e0: e2d0 5c3e 4f4a 58ba 6159 c5be f1c3 37be
000000f0: 202e 553e 98d4 6f3e a780 b3be 035e cf3e
00000100: 71c4 253f b8ba fe3d 7ee1 03be e286 4abe
00000110: 29b2 f7be 0324 0cbe feed 413e 806c 0dbe
00000120: 5ee8 6bbc 39a7 97be e3b4 86be 6877 aabc
00000130: fd0a 8b3e 137c 6ebd 9f38 003e 7b76 ac3d
00000140: b2a5 a03e 8e24 82be 9042 b6be a350 633e
00000150: 6815 0dbe da19 99bd a299 8ebe ae6a 2ebd
00000160: 5e49 0abe 2dbb 69bc a695 f6be 5134 d4bd
00000170: 9465 06be ee48 babd a959 ec3d 552b 313d
00000180: 31d6 363f 1f1e 80be 03ff 4ebe ce4d 1bbe
00000190: 761a 3fbe 5a7c c03b d0d8 dabe 61f2 fabd
000001a0: bbb9 893e 852c 7abe 2267 cdbe 6796 9dbe
000001b0: 0e76 21bd 14ae cf3e 8225 f0be ccc2 903e
000001c0: bc9c 72be e1f1 e8be 913d 953d 3f56 6b3d
000001d0: d39e 97bd 54c0 bebd 7122 3fbe a1d7 413e
000001e0: 54e9 9bbe 1a29 be3c 0565 00ba 72d2 5c3e
000001f0: 4b7f d93e 9f1f 41be efd1 02bd 6994 043e
00000200: b9d3 3d3e 3d54 f63a 7f8c 9dbd a138 92ba
00000210: 4043 c3be d1f1 383e 26d7 26bb e2b1 713e
00000220: 7fc5 ba3d 5f78 953c ff39 963d 786c 3dbd
00000230: b298 ed3d 5d0a 2bbe 1a37 853e 6afd c1be
00000240: 795d 863e a607 513e f416 a93d 8c91 1a3c
00000250: d2eb 023e b3fb c1bd 2421 963e d3f2 5d3e
00000260: e11f 223e d8ef 4e3d 7c84 9abe f068 853e
00000270: b9c5 5e3e 3641 7ebc 44b0 d83d 47b2 3abe
00000280: b7ea 353e 8890 db3d 516a 60be 4d26 723e
00000290: 421f 663d 211b 3c3d 6b91 3fbd 152e 843e
000002a0: e0c7 733e cd36 1c3e 7871 c4bd aab2 e23d
000002b0: 13d9 273d 4bab 7cbc 1d9e 143e 5d9e abbd
000002c0: 0ac6 f73e d0d8 85bd 5b70 8dbe 0508 86be
000002d0: 6b34 ecbd 5adc 9dbe 36ea b8be ff0c 4a3c
000002e0: 44c1 223e 0b83 e6bd 2906 d0be 03c9 dfbe
000002f0: f40a 1e3e 0fa5 d53b 9d75 133e 2ef1 923e
00000300: a336 4a3e f485 da3d 8f28 26bd 08ce 5a39
00000310: 97dc c6bd ef8c b63d 9dec dbbd c9a0 44be
00000320: ae3e 353e 8abc b13c d84e bebe 2691 e83d
00000330: bf40 563e 1cad 993e da8f 973d d2b9 04be
00000340: 6854 eb3d 8e12 3fbe 2d01 2db9 c848 8c3d
00000350: 398b 4bbe ecc3 d4bb 9b36 8ebc 9b33 cfbe
00000360: 1abc 103d e9c1 06be 830d 00bf 3bbc b1be
00000370: 8f8a 953e 7560 31be bd1b 8ebd cae2 883e
00000380: ba0b 23be 5973 153d d148 813d bc7d e13e
00000390: b42f 40bd 8a95 d0bd 23d9 c63d 5906 5b3e
000003a0: 344b cfba 6bf1 9c3e 15ad 713e c800 81be
000003b0: ebab bcbc b0e4 91be 9f96 2a3e b5bc 3abe
000003c0: bb4b 3cbe 88bf 683e 1fcf 143e 3428 1e3e
000003d0: a9cd 7e3e 77e5 20be a391 5cbe 1dbe 8bbd
000003e0: f6ad cd3e bdfa 703c 9afa 133e b9db 01be
000003f0: 6172 ce3d 19d6 86bd 798d 7dbe 45d8 953e
-0.008453157 0.30604503 0.1483405 0.059017267 0.09929037 0.17108153 0.39403427 0.28242728
0.09966205 0.09151708 -0.19160947 0.23018575 -0.05138641 -0.07524735 0.17035224 -0.16935559
0.7285333 -0.14481853 -0.2586851 -0.17810355 -0.6573661 -0.08923629 -0.21405554 -0.1438507
0.0436068 -0.30305156 -0.8105181 -0.33881396 -0.093390584 0.40118572 0.20641974 -0.12041528
0.04810888 -0.2524329 -0.13004479 -0.23773073 -0.34323034 -0.013741358 -0.013104518 -0.118909925
0.03511081 -0.19941252 -0.1224753 -0.38864625 0.15866704 0.47159395 -0.11097057 0.24879079
0.1252852 -0.2116951 -0.07952553 0.18196256 0.04859343 -0.18913873 -0.09442271 -0.10436049
0.21564057 -0.0008250819 -0.38544753 -0.1794584 0.20818377 0.23420942 -0.3505909 0.40501413
0.6475287 0.124379575 -0.12878987 -0.19778016 -0.48378113 -0.13685612 0.18938443 -0.1381092
-0.014398662 -0.29619768 -0.2630988 -0.02080889 0.2715682 -0.058223795 0.12521599 0.08421036
0.31376415 -0.25418514 -0.35597658 0.22198729 -0.13777697 -0.07475634 -0.27851588 -0.042582206
-0.1350455 -0.014265818 -0.48161048 -0.10361541 -0.13124686 -0.090959415 0.11540539 0.043254215
0.7142058 -0.2502298 -0.20214467 -0.15166399 -0.18662438 0.005874199 -0.4274354 -0.12253261
0.26899514 -0.24431045 -0.40117747 -0.3077881 -0.039419226 0.405625 -0.46903616 0.28273618
-0.23692602 -0.4549704 0.072871335 0.057455298 -0.0740334 -0.093140274 -0.18665482 0.18929912
-0.30451453 0.023212958 -0.00048978656 0.21564654 0.4247993 -0.18859719 -0.03193849 0.12947239
0.18537797 0.0018793416 -0.07692813 -0.0011155793 -0.38137245 0.18060996 -0.0025457828 0.23603013
0.09119701 0.018245874 0.073352806 -0.046246022 0.1160139 -0.16703172 0.26018602 -0.37888652
0.2624319 0.20413074 0.08256331 0.009434115 0.12785271 -0.09471836 0.2932216 0.21674661
0.15832473 0.0505217 -0.30179203 0.26056623 0.21755113 -0.015518477 0.10580495 -0.1823207
0.17765318 0.107209265 -0.21915556 0.23647423 0.056182154 0.04592431 -0.04676954 0.25816408
0.23806715 0.1525528 -0.09591955 0.11069234 0.040978502 -0.015421699 0.1451344 -0.08379815
0.4839328 -0.06535494 -0.27624783 -0.26177993 -0.115334354 -0.30832177 -0.3611619 0.0123322
0.15894037 -0.11255463 -0.406297 -0.43708047 0.15433866 0.0065199207 0.14400335 0.2869963
0.19747405 0.10670081 -0.040566023 0.00020866853 -0.09710043 0.089136 -0.1073849 -0.1920196
0.17699692 0.021696348 -0.37169528 0.1135581 0.20923136 0.30014884 0.074004844 -0.1296151
0.114907086 -0.18659422 -0.00016499004 0.068498194 -0.19877328 -0.0064930823 -0.017360022 -0.4046906
0.035335638 -0.13159908 -0.5002062 -0.3471392 0.29207274 -0.17321952 -0.069388844 0.26735526
-0.15922442 0.036486957 0.06312717 0.4404124 -0.046920493 -0.10184772 0.09709384 0.2138914
-0.0015815259 0.30652937 0.23601182 -0.2519591 -0.023031196 -0.28494787 0.1665902 -0.18236049
-0.18388264 0.22729313 0.14532135 0.15445024 0.2488314 -0.15712534 -0.21539931 -0.068233706
0.40171784 0.014708218 0.14451066 -0.12681474 0.1008041 -0.06583805 -0.24760999 0.29266563

lstms.0.weight_hh_l1 f4 [64, 16]
00000000: 2674 77be af21 6ebe ed85 b93b e987 16be
00000010: cc5a 9a3e f719 86be d7e2 7abd 47e1 f3bd
00000020: 73bc d7bc c926 60be 22c1 0dbc 0c79 4f3e
00000030: 3fdd e63e c130 00be a5ed c0bc 6faa 71bd
00000040: 30e0 6bbe 7e31 8ebc 5420 30be 5591 9fbc
00000050: 2efe 48be d22f 083d 927c 0abe 02c7 293e
00000060: 8efb b43e b9db 173a 81f2 b2be a435 19be
00000070: cf6b 263c d74d b53d 509f b33d 7776 3abe
00000080: dba7 25be 21f0 963e a86f af3d 001f e4bc
00000090: 7771 90be 0950 4e3e c68d eabd 2f9a 023e
000000a0: ba88 223c f59a 18be 094c c23c f1c0 dd3d
000000b0: 7f60 1ebe 1746 87bd 49c2 a7bd f82c 863d
000000c0: 1864 8b3d e527 513e 5d72 683e 8e1a b8bd
000000d0: 2be8 85be 128d 3d3e 28e3 493e e4e4 b03e
000000e0: 5c93 9f3c 46e6 2bbd 4009 a8be 4c36 e0bd
000000f0: 3d3d 91be b327 31be 2f48 503e 3545 473e
00000100: d2e6 83bd 1f63 c3bd e3a6 b13d caeb e3be
00000110: d1ae b1bd e3a0 593e 910d 343d 9ceb 813e
00000120: 7631 58be 4310 19be 04f3 3fbe 5c59 c13d
00000130: 468f 6fbe d3c9 c83e 95df 4abd 58d4 8f3d
00000140: 8c2b a43c 05a1 e8bd 13d2 cf3b c1c5 f1bd
00000150: 9bd0 1bbe cc24 7bbc 9163 cabd 8d50 c23d
00000160: a0bc 0fbe 8033 67be 9425 86be 6571 38bc
00000170: 25cc e1b9 d347 113e 840c 9fbe 6d26 783d
00000180: 5098 b53e 40d8 7a3e 270b 913d 4b9c 5cbd
00000190: 634c cabe 6eaa 5c3d 30db 1a3d 24da 623e
000001a0: d6be cb3c 1218 79bd b34b 503b 9d52 ccbd
000001b0: 1b40 87be 6a73 033e 411c 6aba e24c 053e
000001c0: b2fb c4be fb49 8e3e 1dbc 673e 0dfa 80bd
000001d0: 2feb 963e 5313 503e 69a3 a53c 4325 aabe
000001e0: dcb5 5cbe 60cf 7bbe e791 573e af0e 44be
000001f0: a53c c0be 5b21 103d db5c b03d 0ad3 8d3e
00000200: c925 c4be 419d a43d 1f93 14be 4653 cabd
00000210: 100e fb3a 49c4 edbd e027 233e d9e2 a33e
00000220: 43ec 57be 463f 4fbe a1bf 10be 00c0 7e3d
00000230: c9dc 393e d7d1 8e3e 7938 633d 5fab dc3c
00000240: 52c8 33be c06b de3d a7d0 31be 1830 91be
00000250: 59b2 60bc 27db 9dbe 10f8 0a3e 10bc f43c
00000260: 4728 a2be 4f2e 303e 5671 0fbe e90d d33d
00000270: a5d0 bc3e fb41 40be 5425 ee3d 96e9 a23d
00000280: 4b10 0e3e 83cc 4f3e 925c 8b3e e45b 393e
00000290: de69 483e 6f3a 8dbe 45b4 e0bd cbe6 51be
000002a0: 1559 6dbe f241 0dbe 904b a63d d128 743c
000002b0: 40ae 2dbe b9c6 973d 748f 1a3d f0ce 963d
000002c0: 05be b2be 8b50 c8bd ffaf d3bd 54d3 c3be
000002d0: 8355 f8bc e2e7 1e3e f442 20be 923b 3f3e
000002e0: b89f 583e 7af9 17be c9d6 43be d852 a43d
000002f0: d7eb 253e e13d 793e 886d 253e 5cb1 6d3e
00000300: 3da9 6dbe 0867 0e3e d871 513d a6cb 4ebe
00000310: 0812 5cbe 3c2e f4bd d9b6 9f3e c69e b43e
00000320: fc7a 45bd 76c3 87bd fd1c 81be d4d4 a4bc
00000330: 35c9 2a3e 259e 6b3d 2aa2 5b3e 984a 183d
00000340: 4998 65be 9c2e 58be c900 b33d b44b 3fbe
00000350: 545a 3a3e 693c 403e 45cb f13d e3dc b33e
00000360: ecde 073e b4f7 74be 414a 6bbe 93f8 66be
00000370: 81eb 17be 4e7f 9dbd 2b92 1fbe 09b2 ee3c
00000380: 8997 58be 833f 34be 60d6 1cbe ffa3 313d
00000390: be52 b63e 4427 b1be ebe1 243e 97f7 5f3e
000003a0: f7e4 afbd 974c e0be 49f3 6dbe 4845 b43d
000003b0: 82f8 b9bd 5a8e 163e ac57 903d c34f 31be
000003c0: 85e7 9fbd 763a 653e 30db 90be 7b8b 0bbe
000003d0: ec0e f83c d4d8 693d 2e1b 813e da0b 833d
000003e0: af7b 5d3e 745d a7bd 7904 ef3d 2bfb 3a3e
000003f0: 0b7c f7bd f23b 62be 565b 113e 9041 2b3d
-0.24165401 -0.23255037 0.005661717 -0.14700283 0.30147398 -0.26191685 -0.061251488 -0.119082026
-0.026334977 -0.21889795 -0.0086520035 0.2026102 0.45090672 -0.12518598 -0.023550818 -0.05900043
-0.2303474 -0.017357584 -0.17199832 -0.01947848 -0.19628212 0.03324873 -0.13524082 0.16579822
0.3534817 0.0005792934 -0.3495064 -0.14961869 0.0101575395 0.088527374 0.08770621 -0.18209253
-0.16177313 0.2948008 0.085662186 -0.027846813 -0.28211567 0.20147718 -0.114528224 0.12754129
0.009920293 -0.14902861 0.023717897 0.10827816 -0.15466498 -0.066051655 -0.08191354 0.06551546
0.06806201 0.20425375 0.22699876 -0.0898944 -0.26153693 0.18510845 0.1971556 0.3454963
0.019479446 -0.041967653 -0.32819557 -0.10947856 -0.28367034 -0.173003 0.20340036 0.19459994
-0.0644051 -0.0954039 0.08674409 -0.4451583 -0.08675922 0.2125278 0.04395825 0.25375068
-0.21112618 -0.1494761 -0.18745047 0.09440872 -0.23394498 0.3921648 -0.04952963 0.07022923
0.020040296 -0.11358837 0.0063421815 -0.11805297 -0.15216295 -0.015328597 -0.09882272 0.0948802
-0.14036798 -0.2257824 -0.26200545 -0.011257504 -0.00043067444 0.14187555 -0.31064236 0.06058352
0.35467768 0.24496555 0.07082205 -0.05385999 -0.39511403 0.053873472 0.03780669 0.22153527
0.024871271 -0.06081397 0.0031783402 -0.09976695 -0.26416096 0.12836996 -0.0008930602 0.1301761
-0.38473278 0.27790818 0.22630353 -0.062976934 0.29476306 0.20319872 0.020219522 -0.33231553
-0.21553749 -0.24590826 0.21051751 -0.19146226 -0.37546268 0.03518806 0.08611461 0.27700073
-0.38310078 0.08037806 -0.14509247 -0.098791644 0.0019153971 -0.11609704 0.1593318 0.3200901
-0.2108622 -0.2023898 -0.141356 0.062194824 0.18150629 0.2789447 0.05547378 0.026937185
-0.17556885 0.108603954 -0.17364751 -0.28357005 -0.013714396 -0.30831262 0.13571191 0.029874831
-0.31671354 0.17205165 -0.14008078 0.103053875 0.36877933 -0.1877517 0.116282135 0.07954709
0.13873403 0.20292859 0.27219063 0.1810146 0.19571635 -0.27583644 -0.10971884 -0.20498197
-0.23178513 -0.13794687 0.08119881 0.0149023095 -0.16961002 0.0741095 0.037734464 0.07363689
-0.34910598 -0.09780987 -0.10336303 -0.38247168 -0.030314213 0.15518144 -0.1565054 0.18675068
0.21154678 -0.14841262 -0.19124903 0.08023614 0.16203247 0.24340011 0.16155064 0.23212188
-0.2320909 0.13906491 0.05113396 -0.20194873 -0.21491253 -0.11922881 0.3119419 0.35277385
-0.04821299 -0.06629078 -0.2521743 -0.020121016 0.16678317 0.057523865 0.2144858 0.037180513
-0.22421373 -0.2111153 0.08740384 -0.18681222 0.1819852 0.18773045 0.11806349 0.3512946
0.13268632 -0.23922616 -0.22977544 -0.22555761 -0.14835931 -0.07690297 -0.15583102 0.029137628
-0.21151556 -0.17602353 -0.15316153 0.04336929 0.35610002 -0.3460027 0.16101806 0.21871792
-0.085885935 -0.43808433 -0.23237337 0.08802277 -0.09080602 0.1470274 0.07047972 -0.17315583
-0.07807831 0.22385582 -0.28292227 -0.13627426 0.030280553 0.05709155 0.2521605 0.06398745
0.21629213 -0.08172122 0.11670775 0.18259875 -0.12084206 -0.2209318 0.14194998 0.041810572

lstms.0.bias_ih_l1 f4 [64]
00000000: 3a29 3c3e 0522 4abe e778 e13c 98d6 babd
00000010: c4ab 09bd 5a55 fabd d385 84be 7cd5 cc3e
00000020: 6d41 453d 1588 223e 216c c3bd a97c e23d
00000030: d56e 6d3e efe0 35bd bfef 143e 0d25 61be
00000040: df27 07be b669 913e c976 1abd 4d33 533c
00000050: c181 973e 78e7 3d3e 45f9 923e fffc 123e
00000060: 601b 1a3d 9c5b e3bd fa97 cabd ae20 caba
00000070: bda3 ad3e e990 8f3b 8c10 dabd d2ac 8fbc
00000080: 6c59 58be e8c9 90be 26f3 48be 4c9a 84be
00000090: a181 76bd 79a9 ee3d f46d e6bd 4365 80be
000000a0: fbf4 01be fe59 873c 62b7 59bd f486 76bd
000000b0: cb50 6cbc 176f d13d 6f80 593e a979 12bd
000000c0: 65fb 1e3e 0030 7d3e 9f9d 803e 5a56 8d3e
000000d0: 2ed8 093e 6092 14bd f6e3 bcbd b70d b73d
000000e0: f3db 263d a9e3 523d 8537 32bd 2e54 873e
000000f0: 59f0 6cbd ea4e 32be 6ccc 05be 8f12 433e
0.18375102 -0.1973954 0.027523471 -0.09122962 -0.033611074 -0.12223311 -0.2588335 0.40006626
0.048158098 0.15872224 -0.09542108 0.11058933 0.2318681 -0.044403967 0.14544581 -0.2198679
-0.13198803 0.28400964 -0.03771094 0.012890649 0.29591182 0.1854533 0.28705803 0.14354323
0.037623763 -0.111014575 -0.098922685 -0.0015421116 0.33913985 0.0043812883 -0.10647687 -0.017538462
-0.21127862 -0.28279042 -0.19624004 -0.2589897 -0.060182218 0.11653418 -0.11251441 -0.25077257
-0.12691109 0.016522404 -0.053153403 -0.060187295 -0.014423559 0.10226267 0.212404 -0.035760555
0.15525587 0.24725342 0.25120255 0.27604944 0.13461372 -0.036272407 -0.092231676 0.08938163
0.040737104 0.051486645 -0.04350998 0.26431412 -0.0578464 -0.17412916 -0.13066262 0.19050048

lstms.0.bias_hh_l1 f4 [64]
00000000: 8fcf 133d bfc6 833e aacd 13be 8d58 e33d
00000010: db13 373e 4284 5e3e 27d7 82be 5f53 2e3d
00000020: 38c2 87bd 6114 9cbd 1240 233e 9460 25be
00000030: 7fb7 8e3e ca4d 453e 8489 21be 7f65 673d
00000040: b113 323e 4a7d 443e 2507 36be d6df 623c
00000050: ed08 243e c4d3 bd3e 37c4 ba3c 60ca c23c
00000060: a27d 9ebc 2600 5f3e 69c0 99bd 0ea6 f6bb
00000070: 61e4 643e 3f22 6c3e 8d23 23be bff8 17be
00000080: 985f 23be 55c9 b53d dc0c 463e 1aa2 7dbe
00000090: a915 ed3d fa50 4ebe e222 b63d ba63 fb3d
000000a0: 15a0 243e 1d97 2fbe fe39 b1bd 3fd0 7b3c
000000b0: bd8d 6d3c f7fe a6bd 6e35 12be 8bfc 753d
000000c0: fa31 053e 0aeb 623e c976 b73d ae19 073c
000000d0: 9c87 803e edc7 213e a89f 26be 2c6d 893e
000000e0: 4540 1b3e a5c2 c53d 761b 993e c2a6 293d
000000f0: 2496 513d 7442 52be b220 343e 3b08 083d
0.036086615 0.2573757 -0.14433923 0.11100874 0.17878668 0.2173014 -0.25554773 0.042559978
-0.06628841 -0.076210745 0.1594241 -0.16150123 0.2787437 0.19267955 -0.15775114 0.05649328
0.17390324 0.19188419 -0.17776163 0.013847312 0.1601903 0.37075627 0.02279864 0.02377814
-0.019347016 0.217774 -0.075074024 -0.0075271195 0.22352745 0.23059939 -0.1593153 -0.14840983
-0.15954435 0.08876292 0.19340843 -0.24768868 0.11576397 -0.20148078 0.08893372 0.12274881
0.16076691 -0.17147489 -0.08653639 0.015369474 0.014499125 -0.081540994 -0.14278194 0.060055297
0.13007346 0.22159973 0.08958203 0.008245869 0.25103462 0.15798922 -0.16271842 0.26841104
0.15161236 0.09656266 0.29903764 0.0414188 0.051168576 -0.20533162 0.17590597 0.033210974

lstms.1.weight_ih_l0 f4 [64, 1]
00000000: 9671 fdbe 2b27 68be be65 ebbc 23ce 4d3d
00000010: d7c1 36bf d2b6 54bc 709a 523c 21f0 2cbe
00000020: 36b8 9f3e 898e 1a3f e3c7 16be 8445 353e
00000030: 9cdf f43d 82ff b2bd e19b 13bf 07c7 e73d
00000040: f7a2 92bd 6a9c d8bd b04e 1ebe f1ee 20be
00000050: d100 09be 3fa4 bebd 1661 21be 4e84 533e
00000060: 0abd d6be 7fac 87be c63b ccbe 361f c1be
00000070: 616c 463e 560e 0b3e 1047 dabd 0ecf b9be
00000080: df62 8fbe 506d 80bd c6af 8abe 57fd 613e
00000090: e5d4 b3be d9c1 44be 9c42 9c3e bc12 b53c
000000a0: a6e5 b4be a6fc b93e bb57 76be 6ebb b33e
000000b0: b19f 78be 8d24 1a3d c138 9d3e f1c7 803e
000000c0: 15cf cdbe 827e 5ebc d848 dfbe 79c9 993d
000000d0: b6c9 19bf 3b55 94be f62e f1bd bbaf 04be
000000e0: 8d99 62bd 393b 14be aaa9 b3be b0f8 b6be
000000f0: 6950 14be 3890 b63e fb04 24bf d301 f4bd
-0.49500722 -0.22671191 -0.028735038 0.050245415 -0.71389526 -0.012983041 0.012854204 -0.16888477
0.3119523 0.6037374 -0.14724688 0.177023 0.119567126 -0.087401405 -0.5765973 0.11317258
-0.07159989 -0.105767086 -0.15459704 -0.15716149 -0.13379218 -0.09308671 -0.15759692 0.20655939
-0.419411 -0.26498792 -0.39889354 -0.37719125 0.19377281 0.13579687 -0.10658085 -0.36290783
-0.2800512 -0.0627085 -0.2708723 0.22069298 -0.35123363 -0.19214572 0.3051957 0.02210366
-0.35331458 0.36325568 -0.24056904 0.35103935 -0.24279667 0.037632514 0.30707362 0.25152543
-0.40197054 -0.0135799665 -0.43610263 0.07509131 -0.6007341 -0.28971276 -0.11776535 -0.12957661
-0.05532222 -0.14475717 -0.3509038 -0.35736609 -0.14483799 0.35656905 -0.640701 -0.119144104

lstms.1.weight_hh_l0 f4 [64, 16]
00000000: d681 bf3e 6ee1 9c3e 4f45 043f 66d8 9fbe
00000010: c877 4f3d ca1e 133e 2cc0 cbbe 86e8 493e
00000020: 20f6 2d3e a8b1 19bf e7cc e53e 6e79 cdbd
00000030: 282a 7e3e ddc5 633e 1d75 e4be 1897 b0be
00000040: 787b aa3e 62a9 2dbe e186 063c abf2 7bbd
00000050: 5d70 ae3e 7ebb 65be 18e4 2b3e fe71 7fbe
00000060: 110a 383d 2336 07be 64c3 153d f8da 5dbe
00000070: b047 f43c da6e 523e 94e3 83be bb16 743d
00000080: 0a10 6b3e a1b2 2d3e 6f67 b83e da50 fa3d
00000090: 7b23 053f dfba 85be ebed 8fbe 7ebd 443e
000000a0: 7550 163e 7ca6 aabd 1dd9 023f fdc0 ffbe
000000b0: c8a7 65bc 4b29 adbe 9f8c 2fbf 2a12 8a3d
000000c0: f216 0ebd a958 94bd a7d4 473e d0d8 08be
000000d0: 65d8 d5bd 3931 f43d 6404 31be 54fd 28bb
000000e0: 77f3 d2bd 38e4 20bd 36ac 833e 112f e4bd
000000f0: 6c70 cabd 5a29 c0bd a11c a8bd 2479 303e
00000100: 35f4 b43d 90de 00be cf96 493f de93 a5bc
00000110: 4c2d 933d fab6 6cbd b622 94be 8120 e13d
00000120: 1644 043e c202 3ebf 9dd5 573f bf1e 01be
00000130: a72f 043f cb45 c83c 3845 c9be 3273 23be
00000140: b460 5d3e f96f cdbd 4b43 a3bd 54d4 20be
00000150: 1997 c63e cc59 3fbd 0dbe 16be 30b0 233e
00000160: 4fc4 a13d 4fd0 6a3d 3a2c cd3e fb29 c3be
00000170: 0298 563d dd09 a3be 906f 47be e689 403d
00000180: 6aba a3bd 767f 5d3e e17f 5dbe 1040 58be
00000190: 0cdc bc3d c254 113e 1e56 8dbe 0bec bd3e
000001a0: 2d82 c53e 0dd5 043d 976c a0bd 20be 5abc
000001b0: 99fb c3be cc55 c63c 4806 f23c 2746 dcbb
000001c0: 0ffc 873e 2af2 713e 619c 0d3e da47 15be
000001d0: 83f2 ee3e 4c7d cf3d fbb1 3e3e 9655 0abd
000001e0: 4dfb d7bd 2509 193d e310 833e 3282 55be
000001f0: 088d 113e 7a65 17bc 297e 52bd 211b 38bd
00000200: ce50 dc3e ddba 11be e0e0 963e afe3 09be
00000210: a771 da3e ca55 283d bade c9be da37 c23d
00000220: 4cfc 803e 3f74 f4be 1dc1 db3e bbaa 20be
00000230: dd52 35bd 94e4 8abe 25dc 29bf 8597 ebbd
00000240: 07d9 353e 1649 b23d 817a e7bd c5ef 1a3d
00000250: e55e b83e dd77 b2be 2640 493d c978 3c3e
00000260: 0107 fe3d a571 423e 007e 2e3e 1634 5abe
00000270: 4a2a ebbd 147c b4be 597e 59bf 0e4b 9c3e
00000280: 0baa 843d ed58 093e 8ec8 29bb d14f ad3c
00000290: 270d 583e 6ee4 d7bd 314a 4cbe adfb 1ebe
000002a0: a2ef a43e 0578 dbbd caff 9d3e f856 46be
000002b0: 0f2c 013e 4bac 233b 4947 13be c5b6 c83d
000002c0: bbe5 923d 3c00 183e ad68 0c3e da7a 22be
000002d0: c7ff 02bd 1056 893e f05f afbe 01cc 4cbe
000002e0: 8e49 203e af8a 49bf edde a73d b7a8 08bf
000002f0: 4fb2 e23e 04d5 b6ba 5ed0 a4be e8bb 68bd
00000300: 1fa5 f73e 3e92 693e be02 f93b 0ec0 50bd
00000310: aaf3 443f 1050 42bd 3aec 22be cd99 85bd
00000320: 628e ec3d ad5f 903e 7c3c c1bc 3ace e6be
00000330: 70dd a2be 9b72 a8be 4101 51bf 8e63 be3e
00000340: f9da afbd 6d68 3b3e 9f8f 98be 1d0d b3bd
00000350: 9801 b43d 0417 4dbe bb94 883e 387e 7ebe
00000360: ed01 73bd b58d 6f3e 4ec0 39be 0648 7f3d
00000370: 3f4f ec3d eb75 58be db54 9b3e eae1 17be
00000380: 5ce3 8c3e c0f5 54bc 1682 fb3e 0eb2 d6be
00000390: ca89 b23e a26a 103f f5b3 bfbe e7fd 0cbf
000003a0: 461b 253e f258 80be 6b04 a23e 485d 8ebb
000003b0: 9c3d 303f 05bb 113e d4fa 8abe d40b 3fbe
000003c0: aad4 383d b138 b13e 48c3 153e ef1e ce3d
000003d0: 7012 1fbd df56 a53e 65b3 33bd cb6c ed3b
000003e0: faa4 00be dc54 093e 5997 cfbd 6caa 563c
000003f0: 56a5 0c3e fb88 ce3d d99c 04bf 7600 81be
0.37403744 0.3064074 0.51668257 -0.31219786 0.05065134 0.14367214 -0.39795053 0.19717607
0.1698842 -0.60036707 0.4488289 -0.100329265 0.24820769 0.22243448 -0.446206 -0.34490275
0.33297324 -0.16959146 0.008210869 -0.061510723 0.340701 -0.22434804 0.1678623 -0.24945828
0.044931475 -0.13204245 0.036563292 -0.21665561 0.02981934 0.20550099 -0.25759566 0.05959199
0.22955337 0.16962673 0.36016414 0.122224525 0.52007264 -0.26119134 -0.28111205 0.1921291
0.1467913 -0.083325356 0.5111254 -0.49951926 -0.014017053 -0.33820567 -0.68573946 0.06741746
-0.03468985 -0.07243473 0.19514714 -0.13363957 -0.104416646 0.11923451 -0.17286831 -0.002578576
-0.103003435 -0.039280146 0.25717324 -0.1114179 -0.09884724 -0.09382887 -0.082085855 0.17233711
0.08835641 -0.12584901 0.7874574 -0.02021211 0.07186374 -0.057791688 -0.28932732 0.10992528
0.12916598 -0.7422296 0.84310323 -0.12609385 0.5163521 0.024447342 -0.39310622 -0.15961912
0.2161892 -0.10031123 -0.079718195 -0.15705997 0.38787153 -0.046716496 -0.14720936 0.15985179
0.07898771 0.057327565 0.40072805 -0.38117966 0.05239106 -0.31843463 -0.19476151 0.04700651
-0.0799454 0.21630654 -0.21630813 -0.21118188 0.09221658 0.14192489 -0.27604765 0.3709415
0.3857588 0.032429744 -0.07833212 -0.013350993 -0.3827789 0.024210833 0.02954401 -0.00672223
0.26559493 0.23627535 0.13829185 -0.1457819 0.46669397 0.1013132 0.18622582 -0.033773027
-0.10545979 0.037362237 0.2559882 -0.20850447 0.14213955 -0.0092405025 -0.051389847 -0.044947747
0.430304 -0.14231439 0.2946844 -0.1346576 0.42664835 0.04109744 -0.3942774 0.09483309
0.25192487 -0.4774494 0.4292077 -0.15690129 -0.044268478 -0.27127516 -0.6635154 -0.115035094
0.1775857 0.08705346 -0.11302663 0.03782632 0.360099 -0.34857073 0.049133442 0.18405451
0.1240368 0.18988664 0.17040253 -0.21308932 -0.114826754 -0.35250914 -0.84958416 0.30526012
0.064777456 0.13412829 -0.0025906893 0.021156223 0.21098767 -0.105416164 -0.19950177 -0.15525694
0.32214075 -0.10716251 0.30859214 -0.19369113 0.12614463 0.002497452 -0.14382662 0.098004855
0.07172724 0.1484384 0.13711806 -0.15867177 -0.03198221 0.26823473 -0.34252882 -0.19999696
0.15653059 -0.7872724 0.081968166 -0.5338244 0.44276664 -0.0013948982 -0.32190222 -0.056819826
0.48368165 0.22809693 0.007599204 -0.050964408 0.769343 -0.047439635 -0.15910426 -0.06523476
0.11550595 0.28197995 -0.023588412 -0.45079213 -0.31809568 -0.32899937 -0.8164254 0.3718533
-0.085866876 0.18301554 -0.29797074 -0.087427355 0.087893665 -0.20028311 0.26675972 -0.24852836
-0.05932801 0.233939 -0.18139765 0.062324546 0.115385525 -0.21138732 0.30338177 -0.14832273
0.2751721 -0.0129980445 0.49122685 -0.4193272 0.3487075 0.5641271 -0.37441984 -0.55074924
0.16123685 -0.2506786 0.31643996 -0.004344616 0.6884401 0.14231499 -0.27144492 -0.18656856
0.045124687 0.34613565 0.14625275 0.10064494 -0.038835943 0.3229284 -0.043872256 0.007245635
-0.12562934 0.13411278 -0.10136289 0.013102155 0.13734946 0.10084721 -0.5180183 -0.25195664

lstms.1.bias_ih_l0 f4 [64]
00000000: aa52 7f3e a2fd 89be 1e2e 823e 851c 65bd
00000010: e3e1 9bbe 08c9 9e3e 50e5 1b3e 2fd3 b5bb
00000020: b83f 373e aab3 c53d 7e6c 523e ee58 38be
00000030: 440b 05bd 47d5 af3d e5d3 f6bd 7bc6 6c3e
00000040: a1da 75be 2c10 90be 134c f13d 1aa3 5a3d
00000050: 6551 b8be eae2 9cbc 2923 1b3e 7dad 32be
00000060: 660d 893e bbf8 0b3e d39b fa3d 2d7e 83bd
00000070: e51d 8b3e 0f8e 3cbe 5a55 b2be 2e86 0b3e
00000080: 791b 19be 7a36 d4bc f32b a13d b386 4abd
00000090: d874 11be 3c0f 463e 789b 07bd 4320 ccbd
000000a0: ea11 96bd 548c c63d 32e6 16be 7c33 903d
000000b0: f807 81be e07a 34be 0a6c 563e d85c 67bd
000000c0: 1fe1 a73d a35b 6a3d 6d9f 433e 6381 eb3d
000000d0: 5408 43be fdbb cf3d bdab b23c 278b 59be
000000e0: f55d a73d e0e0 ae3e 15ad 24bc 2bf9 11bd
000000f0: e3af 00be 3e52 093e c201 983c 565d b43d
0.24933878 -0.2695132 0.2542581 -0.0559354 -0.30445775 0.3101275 0.15224195 -0.0055488567
0.178954 0.09653409 0.20549199 -0.18002674 -0.032481447 0.08585601 -0.120521344 0.2312259
-0.24009182 -0.28137338 0.11782088 0.053378202 -0.359996 -0.01915117 0.15150131 -0.17448993
0.26768035 0.13669102 0.12236752 -0.064205505 0.27171245 -0.18413566 -0.34830743 0.13625404
-0.14951886 -0.025904883 0.07869711 -0.049444865 -0.14204729 0.19341749 -0.03310725 -0.09967091
-0.073276356 0.09694734 -0.1473625 0.0704107 -0.25201392 -0.17624998 0.20939651 -0.056485027
0.08197235 0.057216298 0.19103785 0.11499288 -0.19046146 0.10143278 0.021810407 -0.21244489
0.08172218 0.3415594 -0.010051032 -0.035638016 -0.12567095 0.13410279 0.018555526 0.08806865

lstms.1.bias_hh_l0 f4 [64]
00000000: 37f4 ac3b 6bc0 02be 20f0 a8bd 7ede abbd
00000010: 1282 48be 5f74 743e 2cc3 36be fdb5 063e
00000020: cbba 08be 0823 303e 727d 303e 4af3 043e
00000030: cae5 9d3e ffa0 173e 19ff 66bd cb62 293d
00000040: 9c69 a8bd 3db2 9d39 66b8 2e3e 123c 2a3e
00000050: 5ee2 47be d67a 793e 129a 32be 521f 293e
00000060: 93e4 623e 81c3 ba3e e009 09be 8040 a13d
00000070: 7c0b 29bd f68e b43d c7c2 2cbd 12fe aa3e
00000080: bc52 17be b28b a53d e85a 22be 6341 6b3e
00000090: 4f30 09be 4acb 15be 4786 8a3d 8376 913e
000000a0: 195c 8fbe 9e63 d23d 61d8 20bd 5ce5 593e
000000b0: bad3 b23d ed75 ffbb 10ba f3bd d76b 6a3e
000000c0: 73b1 cb3d b4c4 32bd 9fa5 a53e 5ebb 0e3e
000000d0: 0dfd 073d 7b18 3d3e e250 56bd 7be5 253d
000000e0: aca0 5e3e d2fb 843e 82b9 a33d 3910 cf3e
000000f0: 4520 373e 749a 18be 655a 163e bdb4 17bc
0.005278136 -0.12768714 -0.08248925 -0.083920464 -0.19580868 0.23872517 -0.1784789 0.1315536
-0.13352506 0.17200863 0.17235354 0.12983432 0.30839378 0.14807509 -0.056395624 0.041353982
-0.082232684 0.0003007817 0.1706253 0.16624478 -0.19519946 0.24363264 -0.17441586 0.16515854
0.22157507 0.36477283 -0.13382673 0.078736305 -0.041270718 0.0881633 -0.04217794 0.33396965
-0.14777654 0.080832854 -0.1585499 0.22974162 -0.13397335 -0.1462833 0.067638926 0.2841073
-0.27999952 0.10272907 -0.039268855 0.212789 0.0873179 -0.0077960403 -0.11900723 0.228927
0.09945955 -0.043644622 0.3235292 0.13938662 0.033200312 0.1846637 -0.05232323 0.040502053
0.21740979 0.25973374 0.07994367 0.40442064 0.17883404 -0.14902669 0.1468292 -0.0092594

lstms.1.weight_ih_l1 f4 [64, 16]
00000000: 3fb1 963e d4f4 01be fc8b 0a3f 11d2 c1be
00000010: 7dfe a23e 05d7 413d c4e7 dfbe 87c5 07be
00000020: 61dd f23e 1776 d6be bea3 c33e d465 05be
00000030: 7570 0b3f 6dc9 74bd b1a8 45bc 039b a0be
00000040: 95c2 383e d940 f93d ccf6 3e3e 1e6b 03be
00000050: 6f11 f73e e647 473d 1980 69be ac1b 3abe
00000060: 3120 b13e 5587 06bd 14eb 983e 6804 6c3d
00000070: dd83 b53e 1182 8c3e 47d4 aa3c 87e9 d2bd
00000080: 53cc 83bd 9014 7e3d 7009 e03e d6ca d13c
00000090: 27c4 a13e cc05 283e 6b5c 21be 735f 86be
000000a0: 61a6 9d3e 7ea8 02bf 5373 063e e70a 6abd
000000b0: 34ce 5a3e f044 583d a346 c3be ff54 01be
000000c0: c8e5 023e 2a3e c4bd eb00 943e 75f8 01bd
000000d0: 39d4 e6bc cd0d ad3e dafd e43d b244 9fbe
000000e0: 6479 9e3d b23f 26be 7a8d 3fbe d31a 363e
000000f0: 440e 7a3e 9e27 943d bda5 0e3e 0f4f eebd
00000100: 8c73 213e f44e 893e b826 dd3c d857 57be
00000110: 7048 b03e edc4 81bc 3eb3 f3be 5fae 033e
00000120: 9127 3d3e 7db1 f33d 7098 f03e f441 ce3d
00000130: ef9d 8a3e aab2 45be f829 e9be 59ef a7be
00000140: 6851 de3e c8c0 d73e 583f 063f 0fc5 a1be
00000150: 7591 2c3f 2494 163f 21aa e5be f3c0 f0be
00000160: dc3d d93e ba01 33bf ac77 603f 149f 1abf
00000170: 197a 443f a651 ee3d bf19 e8be 6c99 50bf
00000180: 7fd0 903e 086a 91bd b1b8 ac3e a577 4a3e
00000190: e152 893e 082d d3bd f222 4b3e ec26 b03e
000001a0: fb9a 193e 6062 36be d725 213f 0bee a3be
000001b0: e3a3 0a3f cdd1 42be 038e 0bbf fa35 0e3e
000001c0: 7465 ad3e b0d1 993e 5583 9e3e f249 9bbe
000001d0: b22c 8b3e 3023 ef3e 7ba7 7cbe 02ec 7cbe
000001e0: 5f34 c43e 07cc 12be 1ef1 b13e 3848 86be
000001f0: 6d60 c13e 0604 83bd c13b 07bf e638 97be
00000200: 1af0 963e f7a7 543e 35b2 733f 0fd2 1dbf
00000210: 4896 143f 3fd1 1f3f 255a e6be 6eca 16bf
00000220: bb97 553e a5c0 9dbe 4b6e 503f 1fb4 febe
00000230: e1d8 393f d337 123e 8dff e3be 52f1 b2be
00000240: 2b32 4e3e 43e7 4e3e 8834 a93e 41f0 06be
00000250: abd6 0c3f 7a3a 2bbe b927 503d 7080 8c3e
00000260: 94bf e7bd 768f b3bc 8fbd e1bd 2ce1 2dbe
00000270: 6a3b 3f3c 117e 96bd 4147 fcbd 9c18 2bbd
00000280: 9923 36bd 1bc7 79bb 1a53 1c3f 2add 113b
00000290: 580f 0d3f bf46 403e e3ac 473d 6036 5e3e
000002a0: a8e4 c03d 42b1 aabe befd 0f3e 75dc 1fbc
000002b0: 8bfb 883d f228 64be 3f84 24bf 8024 4d3c
000002c0: 6978 60be 0a3b 59bd b0ca d03e 2fd5 32be
000002d0: e11b 963e 3275 683e 0e20 a83c fb33 563d
000002e0: 8a18 a0bd d45c efbd 3043 0bbe 04fb 1cbe
000002f0: 1c19 b53e 654a e5bc bf2c a8bd 233b 56be
00000300: d6bd a23d 92af 5b3e 40c1 003f 9277 98bd
00000310: 8492 6c3e bf22 583e 5a09 0cbd d3c9 253d
00000320: 7659 86bd 56a7 a8be dfd2 bb3d e4ec 85be
00000330: b8bb bc3e a3b1 1cbe 94da b9be e07e efbe
00000340: a3bb 993d 2856 953e 112d 893e f600 483e
00000350: 5419 3b3f f689 19be 826f 183d 34af eebc
00000360: 97f2 93bd 3413 d2bc 2dc5 9f3d 356e 8a3d
00000370: d142 d13e 3b7f a3bc 5a1c acbe 4b92 8bbd
00000380: acd7 8e3d a276 9a3d aec6 fdbd a880 fd3c
00000390: 7a88 bc3e 60ab dabd 4494 f53d 0f14 fe3b
000003a0: 4208 02be 5f1a b5bd 80fc 64bd 16b3 05be
000003b0: 179f b8bd f1b2 7d3e b2e3 9bbd 9139 fdbd
000003c0: 0572 943d a045 353c 34b5 293e 9e7d 81be
000003d0: 2c32 803e ed56 073c 1a2a 77be 4db5 9bbe
000003e0: 926b a03e 04b9 3e3d ce6b c73e 8495 76be
000003f0: b302 063e d62e ba3e 88f1 20bf 8ca1 8f3b
0.29432103 -0.12691051 0.5411985 -0.3785558 0.31834784 0.0473242 -0.4373151 -0.13258944
0.47434524 -0.4188697 0.38210863 -0.13027126 0.5446847 -0.059762407 -0.012064145 -0.31368265
0.18042977 0.12170572 0.18648833 -0.1283383 0.48255488 0.048652552 -0.22802772 -0.18174618
0.34594873 -0.032843906 0.2986685 0.05762139 0.35452166 0.27442983 0.020853175 -0.10298448
-0.06435456 0.06203133 0.437572 0.025609415 0.31594965 0.16408461 -0.15757911 -0.26244697
0.30791 -0.5103835 0.1312993 -0.057139304 0.21367723 0.05280012 -0.3813983 -0.1263008
0.12782967 -0.09582169 0.2890695 -0.031731088 -0.028177368 0.33799592 0.11181231 -0.31107098
0.07737997 -0.16235235 -0.18706313 0.1778367 0.24419504 0.07234119 0.13930412 -0.11636173
0.15766734 0.2681805 0.026996002 -0.21029603 0.34430265 -0.015840972 -0.47597688 0.12859486
0.18472125 0.118990876 0.469913 0.10071173 0.2707362 -0.19306436 -0.45539832 -0.32799795
0.43421483 0.42139268 0.52440405 -0.31595656 0.6740945 0.58819795 -0.4485636 -0.4702221
0.42430007 -0.6992451 0.87682605 -0.60398984 0.76748806 0.11636667 -0.45332143 -0.81484103
0.2828407 -0.07100302 0.33734658 0.19772203 0.26821044 -0.103113234 0.1983755 0.34404695
0.15000527 -0.17810965 0.62948364 -0.3201755 0.5415632 -0.19025345 -0.5451357 0.13887778
0.33866465 0.3004279 0.30959573 -0.30329853 0.27182537 0.46706533 -0.24673264 -0.24699405
0.38321206 -0.14335643 0.3475427 -0.26226974 0.3776888 -0.06397252 -0.5282555 -0.29535598
0.29480058 0.20767199 0.951938 -0.6164865 0.5804181 0.6242866 -0.4499065 -0.58902633
0.20858662 -0.3081104 0.81418294 -0.49746796 0.72596556 0.14279108 -0.44530907 -0.34949738
0.20136325 0.20205407 0.3304789 -0.13177587 0.5501506 -0.16721526 0.050819132 0.2744174
-0.113158375 -0.021918993 -0.110224836 -0.16980428 0.01167188 -0.07348264 -0.12318278 -0.041771516
-0.044467542 -0.003811306 0.610643 0.0022257068 0.5510154 0.18776987 0.048748862 0.2170043
0.09418613 -0.33338362 0.14061639 -0.009757151 0.06688603 -0.22281244 -0.6426429 0.012520909
-0.21920933 -0.05303482 0.40779638 -0.17464136 0.29318145 0.22700956 0.020523097 0.052295666
-0.078171805 -0.116876274 -0.13599849 -0.1533013 0.3537072 -0.027989576 -0.0821166 -0.20920996
0.079463646 0.21453694 0.50294876 -0.07444681 0.23102766 0.21107005 -0.034188606 0.040475678
-0.06560032 -0.32940167 0.0917108 -0.26157296 0.36861968 -0.15302138 -0.36299574 -0.46776485
0.07506492 0.29167295 0.26792195 0.19531617 0.7308552 -0.14994034 0.037215717 -0.029136278
-0.07224005 -0.025643922 0.0780128 0.067593016 0.4087129 -0.01995813 -0.3361538 -0.068150125
0.0697473 0.07542159 -0.12391411 0.030945137 0.36822873 -0.106772184 0.1199117 0.007753856
-0.12698463 -0.088429205 -0.055904865 -0.13056597 -0.09014719 0.24775292 -0.07611789 -0.123644955
0.0724831 0.011063963 0.1657303 -0.2529115 0.25038278 0.008260471 -0.24137154 -0.3041176
0.3133207 0.046563163 0.38949436 -0.24080473 0.13086967 0.36363858 -0.6286855 0.0043832716

lstms.1.weight_hh_l1 f4 [64, 16]
00000000: 70cd 1d3d baef 4cbd ebd0 4b3c 39dc 94be
00000010: 4f69 7a3e 0638 c93d ba25 1abe 165b 8fbe
00000020: 5597 ba3c 3c92 01bf f7e7 af3c fdd7 71be
00000030: f4aa 543e 68e4 1bbc 0439 0abe 8338 c73e
00000040: 82d6 a83e cbb7 e5bd 2eb2 0cbe 93d3 9dbe
00000050: 594e bf3e 6dc6 2a3e 35c2 c93c be5a 90bd
00000060: c6c2 14bd 62e2 10bf 6d9d e1bd c1c5 b03d
00000070: 9450 a13c 5f3d 0fbd 32d6 39be e239 09bd
00000080: 3187 8f3e 8b65 31be 8161 36be 4ac6 373d
00000090: 3c66 543c f8dd 95be eee6 963e d82f 2ebd
000000a0: c2f9 0f3d 4617 e3be 71ad 38bc b5f2 c3be
000000b0: 801b 8f3e 8c5e a1bc da65 8dbe a5ed 913d
000000c0: 4129 f43d 5090 34bd ff44 2a3d c733 eabd
000000d0: 0d06 a03e 0158 5cbe 1fdd d0bd 4f9f e3bd
000000e0: 4b5c bdbc 2d43 b73d b005 623e 5090 fcbd
000000f0: 34b4 1b3e 4b86 cc3c a8e7 1c3c 335b cebd
00000100: 5e41 9a3e 906c a93b 4cb8 6fbe ad32 b3be
00000110: 2610 e83d 7981 9a3d 0d8a 4f3e d5f3 bbbe
00000120: 0de4 2bbe 7438 d5be 8b4b 6e3e 47e1 88bc
00000130: 8358 de3e 93e2 d8bd 1412 debd cb1a cebd
00000140: 788b 93bc 2ccd 8cbe cc42 87bc cc80 07be
00000150: 5d84 3c3e f6f4 92bd 9818 94be 8125 b2be
00000160: 55f6 29bf cd13 94be 5f7c f93d b36b 54be
00000170: 0842 933d da4e 78bd a8eb 30be 2e5e b9be
00000180: 3194 f9bb 63e8 22bd d39f f53a 9d7f 7fbd
00000190: 443f 573e 558f 323e 998a 83be 00ba 4abd
000001a0: 1527 823e e150 3bbe 87f8 de3d 00e8 34be
000001b0: e925 debd 3484 973d c13a 5b3e f773 643e
000001c0: 499a c1bd 1c8c c6be 569e 2e3e e35e ef3c
000001d0: a8b9 a03e 38f6 ec3d 192c 0abe 2d9d b5be
000001e0: d826 f73d 0600 aebe 0470 813e 8677 77bc
000001f0: 5813 543e 518a 55be 66da 873d d785 b63e
00000200: 571e 83bd d8f8 b0bd 88d0 94be 1ae2 bd3d
00000210: ea85 433d 82ab e3be 2422 18be 5dd9 1cbe
00000220: 7ca5 1cbf 36e2 7fbe 8ad3 c2bc 917a 883d
00000230: 7af3 873d 9c2a 29bd fa86 523e 1279 2c3e
00000240: e3cb 433e ee28 b5bd f204 14bf 8442 42bd
00000250: b59c 45be a728 973e b447 81be 339c 93bd
00000260: fe7f 7abe 51bb e83c 58bd d7be c645 febd
00000270: 5310 34be 000f 563e 6af6 fe3d 7064 05bf
00000280: be35 803e 155e 3a3e 445f 2a3e 12a5 00be
00000290: 6158 a13d 44bb 423e eae5 1abe a375 60be
000002a0: fa12 073f 790a c0be 3de0 723d 08d2 bdbd
000002b0: 8d84 f23d b219 2fbe 6309 823e e77c c7bd
000002c0: 7752 50be 4adb bfbd 92d3 4fbc 6f72 793e
000002d0: 84c3 ce3d 3aca 9d3e d3b6 7abe 5d32 5b3e
000002e0: 7777 dd3d 93a6 fbbd 5e75 7dbe c500 aabc
000002f0: 9669 6ebe f951 a33d d02e a5bb 9091 cbbd
00000300: d202 b3bd 695a c0be 5e9e 123e 2f3d e53c
00000310: 40b1 0b3e 2799 04be ef31 3a3c 7be4 c4be
00000320: 248d 73bd 8bbd b3be d03e b93e 25cb f13d
00000330: a164 9ebd b6a5 8dbe a724 ddbd 0f7d 513e
00000340: 2a2f 44bd 39ee d33d eb72 cdbd 5d67 6a3d
00000350: 846c 09be 520a e6bd 8011 06be 43b6 aa3d
00000360: a1d9 8abd 5cf1 0abf d563 ecbd 5617 883b
00000370: 01be 57be aa40 133e 1ce6 da3e 5240 6c3e
00000380: 9d9c 34bd 2c00 3b3e a227 403e 4441 bb3d
00000390: 8871 52be 415b fdbe bace 8b3d 51a1 0b3e
000003a0: 4cd8 b8be dcbf 1bbf 3225 20bd 987a 863c
000003b0: 560a 693e 7ef3 70bc c32d 563e 46e8 2a3e
000003c0: 0c41 15bd 226e 74be 0ca6 e13c 92cb 323e
000003d0: 75ae 563e 8aa0 a1be 2492 853e 5a9b 113d
000003e0: 2134 173e e497 29be c1af 25bd 5f9c 793d
000003f0: ded1 53be c40d bbbe 042b 363d fe87 403c
0.038526 -0.05003331 0.012439947 -0.29074267 0.24454235 0.09825139 -0.15053454 -0.2799918
0.022777239 -0.5061376 0.021472914 -0.23617549 0.20768338 -0.0095149055 -0.13498312 0.38910303
0.32976156 -0.11216696 -0.13739845 -0.3082548 0.37364462 0.16677256 0.024628738 -0.07048558
-0.036318563 -0.5659543 -0.11016355 0.086314686 0.019691743 -0.034970637 -0.18148115 -0.033502467
0.2803283 -0.17323892 -0.17810632 0.044866838 0.012963828 -0.2927091 0.2947306 -0.042526096
0.035150297 -0.44353694 -0.01127182 -0.38271108 0.27950668 -0.019698404 -0.2761677 0.07125405
0.11921931 -0.04408294 0.041569706 -0.11435657 0.31254616 -0.21517946 -0.101984255 -0.1111437
-0.023115298 0.0894836 0.22072482 -0.12332213 0.15205461 0.02496638 0.0095767155 -0.100759886
0.30127996 0.0051704124 -0.23410147 -0.349996 0.11331205 0.07544226 0.20267506 -0.36709467
-0.16786213 -0.41644633 0.23271005 -0.016708983 0.43426904 -0.105900906 -0.10843292 -0.10063704
-0.01801084 -0.27500284 -0.016511343 -0.13232726 0.18409868 -0.07175629 -0.28925014 -0.34794238
-0.663915 -0.28921357 0.12181925 -0.20744209 0.07190329 -0.060622074 -0.17277396 -0.36204666
-0.0076165427 -0.039772402 0.0018739648 -0.06237756 0.21020228 0.1743749 -0.2569168 -0.04949379
0.25420442 -0.18292572 0.108872466 -0.17666626 -0.108470745 0.073982626 0.21409132 0.22309862
-0.09453256 -0.3877877 0.17052588 0.02922005 0.31391644 0.115704 -0.13493384 -0.35471478
0.12067956 -0.33984393 0.25280774 -0.01510418 0.20710504 -0.20853545 0.06633453 0.35648987
-0.06402271 -0.08641213 -0.29065347 0.09271641 0.047735132 -0.44466788 -0.14856774 -0.15317293
-0.6119001 -0.24988636 -0.02378251 0.06664003 0.06638236 -0.0413004 0.20559302 0.1684306
0.19120745 -0.08845697 -0.57820046 -0.047426715 -0.1929806 0.29523203 -0.25250018 -0.07207527
-0.24462888 0.028409632 -0.42136645 -0.12415652 -0.17584352 0.2090416 0.124493435 -0.5210638
0.25041002 0.18199952 0.16637903 -0.1256297 0.07878185 0.19016749 -0.15126768 -0.21919875
0.5276333 -0.3750799 0.05929588 -0.09268576 0.11841688 -0.17099646 0.25397786 -0.0974062
-0.20343958 -0.09367998 -0.01268472 0.24360059 0.100958854 0.3081835 -0.24483804 0.21405931
0.10813802 -0.12287631 -0.24751803 -0.02075232 -0.23282465 0.079746194 -0.005040981 -0.09939873
-0.08740772 -0.37568977 0.14318225 0.027983276 0.13641834 -0.12949048 0.011364444 -0.38455567
-0.059460774 -0.35105547 0.36180735 0.11806325 -0.07734037 -0.2766549 -0.107980065 0.20457862
-0.04789654 0.10348172 -0.100316845 0.05722748 -0.13420302 -0.11232437 -0.13092613 0.08335545
-0.06779791 -0.54274535 -0.11542479 0.0041531725 -0.21068574 0.14380136 0.42753685 0.23071411
-0.04409467 0.18261784 0.18765119 0.09143308 -0.20551121 -0.49483684 0.06826539 0.13635756
-0.3610252 -0.6083963 -0.039097972 0.01641588 0.22757849 -0.014706491 0.20915894 0.16690168
-0.036438987 -0.23870137 0.027544998 0.17460468 0.20964988 -0.31567794 0.2608806 0.035548545
0.1476598 -0.16561848 -0.040450815 0.060940143 -0.20685527 -0.3653394 0.044474617 0.011751173
