models/saved_models/save0.pth (torch, 523364 bytes, 14 tensors)

blocks.0.bottleneck.weight f4 [2, 12, 1]
00000000: 76c6 333d 2ba9 bcbc 0504 d2bd ba95 ae3c
00000010: 928a 87bd 07c5 0e3c af13 193d cc27 52bd
00000020: ad8b 94bd 3fc3 e73c 7c0c 8f3c e91d 43bd
00000030: 233b 53bd 9819 2b3d 1fd2 36bd da96 023e
00000040: ad70 36bd 2830 a53a fa60 c33c 5010 9c3c
00000050: 3de7 43bc 0771 863d 3825 b4bc ee5f 0ebc
0.04389044 -0.023029884 -0.10254673 0.02131163 -0.06618227 0.008713967 0.037372287 -0.051307485
-0.072532035 0.028291343 0.017462008 -0.047635946 -0.05157007 0.041772455 -0.04463398 0.12752858
-0.04454105 0.0012602853 0.023849953 0.019050747 -0.011956987 0.06564527 -0.021990404 -0.008689864

blocks.0.conv_layers.0.weight f4 [64, 2, 41]
00000000: 9c59 183d dd6a 583d 618c e3bd 3dbf ddbd
00000010: b332 47bd 3ec2 b93d 387b 99bd f443 aabb
00000020: 2c81 943d cc9a 523c 7eea 943d 40d9 38bd
00000030: afcd fb3d 1795 f8bc b220 083e 741c b73d
00000040: eff5 b63c 2eae 13bd 7691 0bbd d5f9 16bc
00000050: 24de 033e ed18 073e cd2d c23c 4c10 d4bd
00000060: 7643 15be 33a8 0bbe 7cf3 23be bd4a 1dbe
00000070: 44ad 3fbc 6794 643c 4bc3 2d3b 8b40 0f3e
00000080: 0b84 1c3c 2183 97bc 8d48 af3d 40bf cdbd
00000090: 9286 2c3d a15f 8e3d ef9c 77bc 6421 25bd
000000a0: 1ad9 733d 8056 103d 18e2 a6bd 00c4 3f3c
000000b0: d79f 753a 43d4 63bd 845c 653d 8a9f b5bd
000000c0: 9fd3 b7bc c1d9 31bd 84e0 8f3c 076c ccbd
000000d0: 14b3 123d d8c5 2e3c 0237 923c f35c 643d
000000e0: cedf 833d e220 0bbd b032 aebd ae6d 39bd
000000f0: 051c 98bd 33a4 27bd 01d5 f83c 7996 3f3d
00000100: 261b 873d 4f16 9b3d 42a1 b03d 3b21 93bb
00000110: a2d1 c93d 3e5c a13d be12 d33d 43ce 1e3c
00000120: a008 abbd a442 6a3c a3f8 30bb e386 b13d
00000130: bc3c 8cbc ac94 c9bc 9622 18bd 987c 2bbd
00000140: a40e 23bd b956 0abe 6fc2 a0bb 5f4e a5bc
00000150: 1c71 17bd be89 e6bc 7642 573b 74f0 2c3d
00000160: 27e4 983d b3f3 a4bd 9450 2e3d 3ae6 90bc
00000170: 8683 86bd b90f c13d 3d08 f63c 4733 2ebd
00000180: 1aa9 533c 30c1 0fbb f209 8abd da18 a03c
00000190: f0cc a63d a129 f93b eefe 4d3b bf93 db3d
000001a0: ed98 03be 540b c3bd a0f5 0cbd 0567 ab3d
000001b0: fa7c 913c 586f 7b3d 24ea eb3d bfd2 8e3d
000001c0: 98c1 d1bc 7a68 a73c 6a95 f6bd 5cad 233b
000001d0: 0807 01be fa01 73bc d4a2 d93c a384 873c
000001e0: 95bd b43d 71e7 efbd 16e1 563d 96e3 47bd
000001f0: f645 9a3d eeb9 023d 7d95 983d faa2 163d
00000200: 538f bebd e155 aa3c 2e95 1f3d 4707 573d
00000210: f5f5 7dbd 00df 003d 7f21 13bd 9455 c43b
00000220: 416e 42bd da5f ccbc 83ab 2cbd 8d7e a1bd
00000230: 348a 1e3d 023a e13d 75fb 50bd 1627 b73c
00000240: d78e 633c f0cc e03d 9f59 15bc 94bf 0b3d
00000250: b58e adbd 0a85 0abd 3221 b63c a3ef da3d
00000260: 2fd3 08bd cd5f cfbc e614 71bd fc07 b1bb
00000270: 0abc febd 2e2c b53c 0529 b5bb 42d4 25bd
00000280: dac2 8bbc 38e2 2fbd edb8 eb3d 8516 003e
00000290: d7a3 123d 633d a03d bc9c d93d ccf7 07bd
000002a0: 99c9 85bd 466a 63bd dd03 ab3d 75f9 ad3d
000002b0: 53b4 b23d da1f 33bd 74d5 923d 9d35 94bc
000002c0: 6779 a7bd 0211 c4bd a592 3ebd f3d3 32bd
000002d0: 9e66 cc3d e6ef b73d f7b1 2cbd 9af0 d5bd
000002e0: be34 e9bd df9b 133c c79c 573d 3efd c9bc
000002f0: de9a 5abd 2a03 2a3a 82d8 05be 104b 1cbe
00000300: d56e c6bd 204b a9bd dd60 9c3d 4049 a93d
00000310: 0960 d33d 4170 01bc 1456 653d 9bf0 d73d
00000320: 2038 573c af70 8d3d baab ea3c a99d 4c3d
00000330: 2f12 893d 3d9f 39bd 9fbd 953d 742a efbc
00000340: 8f0a 8a3c 12b4 cc3d aa3a 93bd 418c 68bd
00000350: fa2d a13d f986 dc3d e83b b7bd 84d6 57bc
00000360: ec91 64bd 8353 e1ba 7b53 d2bc 7114 7c3c
00000370: 51ec d3bd ee78 98bc 1d40 0e3d 69ec b4bd
00000380: eedc ebbb aaac 6cbd 9e8a 133b ab12 9ebd
00000390: e274 9f3d 92f4 873d 139a d33d 945d 153c
000003a0: 7716 b73d 6ed2 8cbc 421d eb3c 94d0 b4bc
000003b0: 9a2e cbbd c100 bc3d 0aac bf3d 8a49 cdbd
000003c0: 3fd9 20bc 8569 7dbd ba58 debd ecc6 a43c
000003d0: bdb5 393d b862 aebd 423d 86bd 1772 05bd
000003e0: 5d5c 8abc bd43 97bd 5300 b0bd a641 933d
000003f0: 827f b53c f60c 953d f0bf 683d e318 1cbd
0.037194833 0.052836288 -0.111107595 -0.108274914 -0.048632335 0.09070252 -0.07494205 -0.005196089
0.072512 0.012854289 0.07271288 -0.04512906 0.122950904 -0.03034453 0.13293722 0.08940974
0.022334067 -0.036054783 -0.03407427 -0.009214838 0.12877709 0.13193102 0.02370348 -0.10354671
-0.14576516 -0.13638382 -0.1601085 -0.15360542 -0.011699025 0.0139513975 0.0026514109 0.13989465
0.009552966 -0.018495144 0.0855876 -0.10046244 0.042120524 0.069518335 -0.0151130995 -0.040315047
0.059533216 0.035238743 -0.08148593 0.011704445 0.00093698263 -0.05562235 0.055996433 -0.0886832
-0.022439776 -0.043420557 0.017563112 -0.09981542 0.035815313 0.010667287 0.017848495 0.055752706
0.06439172 -0.033966906 -0.085057616 -0.045270614 -0.07427219 -0.040928077 0.030375006 0.04677436
0.06596975 0.075726144 0.086245075 -0.0044900454 0.098544374 0.07878922 0.10306309 0.009692731
-0.083512545 0.014298115 -0.0027003668 0.08668306 -0.017118804 -0.024607025 -0.03714236 -0.04186687
-0.039808884 -0.13509645 -0.004905991 -0.020178972 -0.036973104 -0.028141852 0.003284601 0.0422215
0.074653916 -0.080542944 0.042557314 -0.017687906 -0.06568055 0.09426827 0.030033225 -0.04252937
0.012918735 -0.0021935217 -0.06740178 0.0195431 0.081445575 0.0076038395 0.0031432468 0.1072154
-0.12851305 -0.09523645 -0.034413934 0.08369259 0.017759789 0.061385483 0.11519268 0.069737904
-0.025605008 0.02043556 -0.12040217 0.0024975156 -0.12600338 -0.014832014 0.0265669 0.016542738
0.088252224 -0.11714066 0.052460752 -0.048801027 0.07532875 0.031915598 0.074503876 0.03677652
-0.09304681 0.020792903 0.03896063 0.052497175 -0.06200214 0.03146267 -0.035920616 0.005991647
-0.047468428 -0.02494805 -0.042155754 -0.07885466 0.03870602 0.10997392 -0.051021058 0.022357505
0.013889036 0.10976589 -0.009115606 0.03411825 -0.08474485 -0.033818282 0.022232626 0.10690238
-0.033404525 -0.025314236 -0.05885782 -0.005402563 -0.12438209 0.022115793 -0.0055285715 -0.040485628
-0.017060686 -0.04294035 0.11509881 0.1250859 0.03580078 0.078242086 0.10625598 -0.033195302
-0.06532592 -0.055521272 0.08350346 0.08494846 0.087258 -0.043731548 0.07169619 -0.018091971
-0.081774525 -0.095735565 -0.04652657 -0.04365916 0.0998051 0.08981304 -0.042161908 -0.10446282
-0.11387013 0.0090093305 0.05263975 -0.024656888 -0.05337035 0.0006485457 -0.13070872 -0.15263009
-0.09689108 -0.08266282 0.07635663 0.082659245 0.103210516 -0.007900299 0.055990294 0.10543939
0.01313594 0.06906258 0.028646339 0.049955044 0.06692921 -0.045317877 0.07311558 -0.029195048
0.016850738 0.09995283 -0.07188924 -0.05677438 0.078700975 0.107679315 -0.08946973 -0.013173703
-0.055803224 -0.0017191026 -0.025674572 0.015385733 -0.10347808 -0.018612351 0.034729112 -0.08834154
-0.0071979677 -0.057781853 0.0022513042 -0.077184044 0.077859655 0.06638445 0.10332122 0.009116549
0.08939832 -0.017190184 0.028700475 -0.022072114 -0.09920998 0.09179831 0.09358986 -0.10023792
-0.0098174205 -0.06186821 -0.10856767 0.020114385 0.045339335 -0.08514923 -0.06554653 -0.032579508
-0.016889745 -0.07385967 -0.08593812 0.07190256 0.022155527 0.07277863 0.05682367 -0.03810967

blocks.0.conv_layers.1.weight f4 [64, 64, 20]
00000000: 39f6 d83c cc6b 4e3d 5bc7 9a3d 0250 963d
00000010: 9568 ab3d 7596 5abc da9d 10bd 1af0 a0bd
00000020: 390a 60bd 9992 87bd d894 0a3c 3c37 743d
00000030: 753e c63d f272 033d 5db2 c13c 7b2b 803b
00000040: fdb6 a5bd 1200 89bd f62a 81bd 2246 c5bd
00000050: 5d9d 1abc 197d 2cbd a9f3 90bd 8163 55bc
00000060: c905 133d f4b0 913d d6c3 813d 0455 5f3d
00000070: 9938 c1bc 4bb9 6dbd 84fe 9cbd bdd2 adbd
00000080: ce6d 7dbc 7ff8 103c dd69 ef3c 7f7b bc3c
00000090: 0757 c03b dc14 b83c 91cb c13c 1867 333d
000000a0: 8af7 033d f861 443d 3813 2f3d 2f29 333d
000000b0: 64bc ad3b 8be1 8bbd 4387 64bd 323c 50bd
000000c0: b9a6 c9bc 21d4 1f3d 841d 53bc 4ed6 10bc
000000d0: f401 a33c eb6e 76bc 93a4 99bc 29c1 49bd
000000e0: a3e4 283b 15f6 3abc 340a 523c ba74 66bc
000000f0: ff6c 3f3d d4e8 c0bc 15b5 cf3c 0371 afbc
00000100: df11 16bc ce44 a13c 51c2 9abc fd15 343c
00000110: bd36 a2bc a179 30bb f639 9ebc 8b36 013d
00000120: 0c77 ecbc 2658 6c3b 91fb 18bd 955d cd3c
00000130: 8608 b2bb 086d 253d 390b a6bc b7b0 0a3c
00000140: 063c f43b 46ed 38bd aa10 82bc bf14 333c
00000150: adbd 373c fddc 893d 3500 1b3d 6779 9bbb
00000160: 9d20 2b3d f3e0 6d3a 57e7 603a 984c 603c
00000170: 403b a33c 2af6 4a3d d740 1dbb 4e1e 3739
00000180: 6eb1 82bc a1d5 5abd 911c 18be 4cd8 f8bd
00000190: 5bdc d63c 1b31 9cbd db33 80bd ea11 c2bc
000001a0: 5ec2 843d 857d c33d 3458 553d edc9 343c
000001b0: b5fd 143c 7e83 39bc ad22 49bc ec7e b6bc
000001c0: af29 35bc 4c17 26bd df73 7abc 593a 14bd
000001d0: 09ca 663d 8a5a aa3d 2f2b 0c3e 763a 093e
000001e0: 92a6 283d a951 9d3d f2d9 993d d077 3cbc
000001f0: d995 b4bc 9a24 7cbc 39fd 20bd 765c 33bd
00000200: ea91 153c 69bc 103a 6d02 bb3c db9f 0dbb
00000210: ebda 8dbc 0de2 f43b 1dc1 c4bc bb47 0fbd
00000220: e446 9abd 3953 3bbc a31d e3bc 3668 9bbc
00000230: 7d8c f33c eb9d 41bd 4a80 91bd 117a d0bd
00000240: a86d c4bd 43d1 6bbd 0ab3 38bc d2b6 c13a
00000250: 1bed 44bd c4d3 c13c a0fe 623d 5d17 853d
00000260: 4447 ac3d f996 be3d 2a44 853d 3647 a73c
00000270: fef0 863c 3712 21bc 2279 2a3c d25a 1f3c
00000280: d5cb c5bc 61a2 65bd 4165 46bd f080 dfbc
00000290: 4aba 713c eff6 54bc ed7c ea3c 7d3f 063d
000002a0: 953c 1b3d 0a54 44bd cb0f 733c 7021 40bb
000002b0: 4b5d d5bc 9bbc 16bc a497 793c b0ea e7bb
000002c0: d791 f93c 0446 a0ba ce6a 003d f5a9 dd3c
000002d0: 05e4 96bd 9620 a0bd 9564 e2ba d452 cfbc
000002e0: 4971 313d 4472 1a3d a2b2 8b3c 9bec 2d3d
000002f0: 5dbd e9bb 4a77 fd3c 650c c6bb c3cd 1a3a
00000300: 1062 e93b 4370 923c e27e 343d f1ee 233d
00000310: 4114 043c f798 8e3b 9824 363d b78d 523c
00000320: d2e6 343d 0849 9c3c dc43 063d 2b7a 103d
00000330: 69de 3c3c 0093 debb 9abd c5bc 9a04 81bc
00000340: 354e 53bd f2c4 f4bc 7f82 b5bc b857 873d
00000350: 7fd6 813d 9d59 963d 3630 aa3a 1ca8 0fbd
00000360: 5caf a9bd a220 02bd fe84 8dbd a381 9bbd
00000370: fa80 cc3c 1a79 d63c f72e 6d3c 66cd ff3c
00000380: 799e 093d 8c54 533d 395b c8bb 1467 36bc
00000390: 1325 3ebd 19d5 29bd 90f3 623c c0ab 273d
000003a0: 6466 ffbb 1cac eb3b 5cc6 fbbc 304d f23c
000003b0: 037f 06bd 143f fdbc 4961 e0bc 17a8 b73c
000003c0: 8113 93bd eb9f d9bc 52c5 6fbd 033d 3cbd
000003d0: c225 84bd 3ae2 0ebd 8b5b a6bc d78b 393d
000003e0: b398 c9bc b9d4 063c 90d7 153c 3cc4 3b3d
000003f0: 84de 3c3c 90d3 523d 3c74 863c 4ea4 9c3c
0.026484596 0.05039577 0.07557555 0.07339479 0.08369557 -0.013341536 -0.03530679 -0.07858296
-0.05469725 -0.06619758 0.008458339 0.059622988 0.096798815 0.032092042 0.02364462 0.0039114333
-0.08091543 -0.066894665 -0.06307022 -0.096325174 -0.009436932 -0.04211149 -0.070777245 -0.013024212
0.03589419 0.07113829 0.06336181 0.054524437 -0.023586558 -0.058038037 -0.076657325 -0.08487461
-0.015468074 0.008848309 0.029225284 0.023008106 0.0058697495 0.022470884 0.023656638 0.04379949
0.032218494 0.047944993 0.042742938 0.043740448 0.005301999 -0.06830128 -0.055793058 -0.050838657
-0.024615632 0.03902066 -0.012885455 -0.008840157 0.019898392 -0.015041093 -0.018755233 -0.049256478
0.0025771044 -0.01141121 0.012819815 -0.014065916 0.046734806 -0.023548521 0.025354901 -0.021416193
-0.009159534 0.019686129 -0.018891485 0.010991571 -0.019801492 -0.0026927965 -0.019314747 0.031546157
-0.02886536 0.0036063283 -0.037349287 0.025069037 -0.005433145 0.040387183 -0.020269023 0.008464984
0.0074534444 -0.045148157 -0.015877087 0.010930239 0.011214656 0.06731603 0.037841994 -0.004744697
0.04177915 0.00090743526 0.0008579394 0.013690136 0.019925714 0.049551167 -0.0023994946 0.0001746353
-0.015953746 -0.05342639 -0.14854647 -0.1215063 0.02622812 -0.076265536 -0.06259891 -0.023690183
0.06482385 0.09545425 0.05208607 0.011034471 0.009093692 -0.011322854 -0.012276334 -0.022277318
-0.011057301 -0.04054956 -0.015286415 -0.036188457 0.05634502 0.0831805 0.13688348 0.13401207
0.04117448 0.07681591 0.07512273 -0.011503175 -0.02204411 -0.015389586 -0.039303992 -0.04378935
0.009129027 0.00055212394 0.022828305 -0.0021610174 -0.017316302 0.0074732364 -0.024017865 -0.034980517
-0.075330526 -0.011433416 -0.027724093 -0.01897059 0.029730076 -0.047269743 -0.07104547 -0.10179532
-0.09591228 -0.057572614 -0.011273155 0.0014779216 -0.048077684 0.023660548 0.05541861 0.06498597
0.0841203 0.093061395 0.06507142 0.020419698 0.016472336 -0.009831003 0.010404857 0.009726243
-0.024145046 -0.05606306 -0.048436407 -0.027283162 0.014753887 -0.012998327 0.028624022 0.03277539
0.037899572 -0.04793171 0.014835308 -0.0029316805 -0.026045462 -0.0092002405 0.015233908 -0.0070775375
0.03046505 -0.0012227898 0.031351857 0.02705858 -0.0736771 -0.07818715 -0.0017272407 -0.02530805
0.043320928 0.03770663 0.017052952 0.042461973 -0.0071331696 0.03094067 -0.006043958 0.00059052947
0.0071222857 0.017875796 0.044066317 0.040022794 0.0080614695 0.004351731 0.044468492 0.01285117
0.04416544 0.019077793 0.03277956 0.03527276 0.011527636 -0.006792426 -0.02413826 -0.015749265
-0.051588256 -0.029879067 -0.022156952 0.06608528 0.0633974 0.07341311 0.0012984339 -0.03507243
-0.082854 -0.031769402 -0.06910132 -0.075930856 0.024963845 0.026180793 0.014476529 0.031225871
0.033598397 0.051594302 -0.00611439 -0.011132974 -0.046422075 -0.04146299 0.013852015 0.040935278
-0.0077941883 0.007192148 -0.030734234 0.029577821 -0.03283597 -0.030913867 -0.02739014 0.022419019
-0.071814544 -0.026565513 -0.05853779 -0.045956623 -0.06452514 -0.034883715 -0.020307323 0.045299377
-0.024608945 0.008229428 0.009145632 0.04584144 0.011527661 0.051471293 0.016412847 0.019121315

blocks.0.conv_layers.2.weight f4 [64, 64, 10]
00000000: eabe 333d 531b 903d d0af d03c 3520 d73c
00000010: 2dfc 8a3b 2233 2bbd 30f6 f4bb f258 07bd
00000020: 340b 92bd 4a52 46bd d1a9 903c f109 75bc
00000030: ee8b 09bd 806c d7bb 42d4 263d 5261 a8bc
00000040: a4f9 92bc 1171 0fbd 1ece 8cbc 7526 31bd
00000050: 1d37 9fbb 6b9e 393d f136 02bd a642 713c
00000060: 9c50 86bb 677a 87bc a2a9 39bd cb2b 89bc
00000070: 57b5 2e3d d81d 173d 66f7 82bc f10b cebc
00000080: 9bf8 1cbd a387 dc3c 1d01 c13c e5c2 923c
00000090: f02f e0bc c58a 313d 01dc 0b3d 03d6 1c3d
000000a0: 69a2 b6bc 70bb 9abc 13b6 1ebd 91a0 473c
000000b0: ff70 793c e86e 943c 015a 49bd 0a1d 753c
000000c0: 6fd8 73bd 2087 67bd 322b 84bc 173b d53c
000000d0: c447 c63c ef69 243d 80e5 2a3d efc8 e7bc
000000e0: c006 bd3c 42e3 12bd cd6c 29bd 733a 2cbd
000000f0: 4136 7c3d a894 173d 5c22 4e3d ca0f 44bc
00000100: 7846 6bbd 1a1b 8dbc 9363 45bc 7a30 a2bd
00000110: 8477 49bd 509d 8dbd f2e5 0cbd 9d53 d13b
00000120: f3e9 e9bc 52fb 54bd 4f18 e2bc 8a8e 67bc
00000130: 5e92 673b 23f9 a13d 8364 2f3d 484b 353d
00000140: de0b a23c 3221 68bc c083 60bc ea5b 093d
00000150: b849 3ebc c6ad c73b 4d91 a2bc fbff 223c
00000160: fc30 bebc 8453 973b 2c72 8ebc d151 9cbc
00000170: 3d0b 9fbc 0c29 2bbd b66e 09bd 0cbd 303c
00000180: 0a3a 9e3b a874 daba 9199 833d b0e4 293d
00000190: 0b12 753d c794 363d 5b24 493d 996e 19bb
000001a0: 89b1 bcbc 5751 49bb a57c 5ebd 4a09 f7bc
000001b0: 201e 16bd b496 2abd fc28 a2bc 63c2 d83c
000001c0: 6cc4 bc3c ba31 163c 187d ea3b 872c 9fbb
000001d0: d297 edbb 1098 2a3d 00fe 02bc 8401 49bc
000001e0: 61e4 53bd bc3e a33b af78 e43c 44f0 bc3c
000001f0: ba8c 55bb a60a bfbb 3962 a23c 0231 0abd
00000200: 8242 9d3c 3fb3 50bd 63dc eb3a d9cb 45bc
00000210: f806 bcbc 0a96 3e3d 624a 313b f089 3f3d
00000220: ed98 bb3c 20fa f73c b82e 3abd 581e 6cbd
00000230: 04e4 1abd dbde a0bd 3586 04bd d600 06ba
00000240: 6ec5 0abd b3db 91bc 3b99 8f3c 9d57 af3d
00000250: 6268 c33c 9af9 323d 1bed 883b 7c6c 5d3d
00000260: 4678 213d 4ba3 243b 76da c8bb 99c8 303a
00000270: 3c6c b33c a0f0 88bc 640b 63bd ce7f d0bb
00000280: d006 3dbc b8ab 11bc c9c3 6a3c 9555 a7bc
00000290: c490 723c 8415 34bd 6ee0 00bd 76d7 81bb
000002a0: 03e1 9abb 9afa d23c 838a b4b9 3880 c23c
000002b0: a757 b8bc 5e70 8fbc 33c0 773c fe2b 81bb
000002c0: b9f4 7d3c 90d3 91bd 9257 0dbd 34c8 55bd
000002d0: 95b7 583d 6074 273d a3bb c43b bc38 003d
000002e0: 15c5 1bbd 6d01 d33b 83fc 3dbb 158e 273c
000002f0: 8542 313b 91a2 3dbd a2f8 e43c 4277 11b5
00000300: eabf d0bc a607 cb3c f54b e93c bf13 27bc
00000310: 403d 77bc 5c71 19bc 7ca1 d53c e6f2 5f3c
00000320: 2df7 95bd 8290 39bd 26e6 c2bb aed0 1f3d
00000330: 4e0e 223d 4241 333d af4c c03c 4863 293c
00000340: d051 fd3c 62c9 c1bc 67f1 67bc 11a1 de3c
00000350: 096f 803c efb9 213d 6e0a b63c 33e5 a23c
00000360: 4c47 09bc 37ea 15bd 7e69 ac3b f764 51ba
00000370: d63c 66bc 1522 4ebd 85c4 febc 2a75 c23c
00000380: 45ee 6a3d cea2 e33c 5c0a efbb 996b 383d
00000390: 6326 5a3c dfd3 c43b c549 41bc 6b19 a5bc
000003a0: af33 0bbc bb51 69bc c2bd b5bb b4d4 43bc
000003b0: 3b62 80bc 1ab5 243c 3fa0 1e3b 7aae 723b
000003c0: d3ba 683d 30dd 3f3d 4b08 1f3d f8c9 0fbd
000003d0: 88af 883b 0d08 dc3a 72ff 6c3c 4f88 acbc
000003e0: cca4 17bd 4cbf 36bc 5c13 92bd f605 c4bc
000003f0: 2172 0fbd 597b 68bc b6c9 2f3c ce14 103c
0.04388324 0.07036462 0.025474459 0.026260475 0.0042414875 -0.04179681 -0.007475637 -0.03304381
-0.07131043 -0.04841832 0.0176591 -0.0149559835 -0.033580713 -0.0065742135 0.04072977 -0.020554218
-0.017941304 -0.035019938 -0.017188128 -0.043249566 -0.004858865 0.045317095 -0.031790677 0.014725363
-0.004098965 -0.016537858 -0.04532779 -0.016744515 0.042653408 0.036893696 -0.01598711 -0.025152178
-0.038323026 0.026920145 0.023560101 0.017915199 -0.027366608 0.04334523 0.03414536 0.038290035
-0.02229424 -0.018888205 -0.03874786 0.012184278 0.015224694 0.01811929 -0.0491581 0.014960537
-0.05953258 -0.05652535 -0.016133878 0.026029153 0.024204142 0.04014009 0.041722775 -0.028294055
0.023074508 -0.03586126 -0.041363526 -0.04204793 0.061575178 0.037007004 0.050325736 -0.011966655
-0.05744025 -0.017224837 -0.012047666 -0.079194024 -0.049186245 -0.069147706 -0.03439898 0.0063881413
-0.028553938 -0.05199749 -0.027599482 -0.014133105 0.0035335044 0.07908847 0.042820465 0.044261247
0.01978105 -0.014168071 -0.013703287 0.03353492 -0.011614256 0.0060937135 -0.019844675 0.009948726
-0.023216717 0.00461811 -0.017388426 -0.019081982 -0.019414539 -0.041787192 -0.033552848 0.01078726
0.004828696 -0.0016666846 0.06425775 0.04147786 0.05983166 0.04457548 0.049106937 -0.0023411869
-0.023033874 -0.0030718648 -0.05431809 -0.030155797 -0.036649823 -0.041647628 -0.019794933 0.026459878
0.02304288 0.009167129 0.0071560256 -0.004857603 -0.0072507644 0.041648924 -0.007995129 -0.012268428
-0.05173147 0.0049818438 0.027889578 0.023063786 -0.00325851 -0.005830127 0.019822227 -0.033738144
0.019196752 -0.050952192 0.0017994758 -0.012072527 -0.022952542 0.046529807 0.0027052392 0.046762407
0.02290007 0.030270636 -0.04545471 -0.057646126 -0.03781511 -0.07855006 -0.032354552 -0.0005111819
-0.03387969 -0.017804956 0.01752912 0.08561633 0.023853485 0.04369507 0.004178656 0.054058537
0.039421342 0.0025121744 -0.006129558 0.00067437586 0.021902196 -0.016716301 -0.055430785 -0.0063628918
-0.011537269 -0.008891039 0.014328905 -0.02042655 0.014805023 -0.04396583 -0.031464033 -0.0039624525
-0.0047265305 0.025754262 -0.00034435475 0.02374278 -0.022502733 -0.017509636 0.015121507 -0.003942012
0.015500241 -0.071204305 -0.03450734 -0.05219288 0.052909452 0.04088247 0.0060038134 0.031304106
-0.03802975 0.006439379 -0.002898962 0.010226746 0.0027047705 -0.046297614 0.027950589 -5.419025e-07
-0.025482137 0.02478392 0.028478602 -0.010197579 -0.015090287 -0.009365406 0.026077978 0.013668751
-0.07322536 -0.04530383 -0.005947846 0.03901737 0.039564423 0.043763407 0.023474066 0.010338612
0.0309228 -0.023655597 -0.014156676 0.027176412 0.015677946 0.03948396 0.02222177 0.019884681
-0.008378815 -0.036600318 0.005261599 -0.0007987762 -0.01405259 -0.050325472 -0.031099567 0.023737509
0.057356138 0.027787592 -0.007294936 0.045024488 0.013314816 0.0060067023 -0.011797373 -0.020153722
-0.008496209 -0.0142406775 -0.0055463025 -0.011952568 -0.01567184 0.010052944 0.00242044 0.0037030266
0.056818794 0.0468418 0.03882627 -0.03510472 0.0041713156 0.0016787067 0.0144652 -0.02106109
-0.037022397 -0.011154007 -0.07132599 -0.023928624 -0.03502095 -0.014189565 0.010729244 0.008794023

blocks.0.batchnorm.weight f4 [64]
00000000: 0000 803f 0000 803f 0000 803f 0000 803f
00000010: 0000 803f 0000 803f 0000 803f 0000 803f
00000020: 0000 803f 0000 803f 0000 803f 0000 803f
00000030: 0000 803f 0000 803f 0000 803f 0000 803f
00000040: 0000 803f 0000 803f 0000 803f 0000 803f
00000050: 0000 803f 0000 803f 0000 803f 0000 803f
00000060: 0000 803f 0000 803f 0000 803f 0000 803f
00000070: 0000 803f 0000 803f 0000 803f 0000 803f
00000080: 0000 803f 0000 803f 0000 803f 0000 803f
00000090: 0000 803f 0000 803f 0000 803f 0000 803f
000000a0: 0000 803f 0000 803f 0000 803f 0000 803f
000000b0: 0000 803f 0000 803f 0000 803f 0000 803f
000000c0: 0000 803f 0000 803f 0000 803f 0000 803f
000000d0: 0000 803f 0000 803f 0000 803f 0000 803f
000000e0: 0000 803f 0000 803f 0000 803f 0000 803f
000000f0: 0000 803f 0000 803f 0000 803f 0000 803f
1.0 1.0 1.0 1.0 1.0 1.0 1.0 1.0
1.0 1.0 1.0 1.0 1.0 1.0 1.0 1.0
1.0 1.0 1.0 1.0 1.0 1.0 1.0 1.0
1.0 1.0 1.0 1.0 1.0 1.0 1.0 1.0
1.0 1.0 1.0 1.0 1.0 1.0 1.0 1.0
1.0 1.0 1.0 1.0 1.0 1.0 1.0 1.0
1.0 1.0 1.0 1.0 1.0 1.0 1.0 1.0
1.0 1.0 1.0 1.0 1.0 1.0 1.0 1.0

blocks.0.batchnorm.bias f4 [64]
00000000: 0000 0000 0000 0000 0000 0000 0000 0000
00000010: 0000 0000 0000 0000 0000 0000 0000 0000
00000020: 0000 0000 0000 0000 0000 0000 0000 0000
00000030: 0000 0000 0000 0000 0000 0000 0000 0000
00000040: 0000 0000 0000 0000 0000 0000 0000 0000
00000050: 0000 0000 0000 0000 0000 0000 0000 0000
00000060: 0000 0000 0000 0000 0000 0000 0000 0000
00000070: 0000 0000 0000 0000 0000 0000 0000 0000
00000080: 0000 0000 0000 0000 0000 0000 0000 0000
00000090: 0000 0000 0000 0000 0000 0000 0000 0000
000000a0: 0000 0000 0000 0000 0000 0000 0000 0000
000000b0: 0000 0000 0000 0000 0000 0000 0000 0000
000000c0: 0000 0000 0000 0000 0000 0000 0000 0000
000000d0: 0000 0000 0000 0000 0000 0000 0000 0000
000000e0: 0000 0000 0000 0000 0000 0000 0000 0000
000000f0: 0000 0000 0000 0000 0000 0000 0000 0000
0.0 0.0 0.0 0.0 0.0 0.0 0.0 0.0
0.0 0.0 0.0 0.0 0.0 0.0 0.0 0.0
0.0 0.0 0.0 0.0 0.0 0.0 0.0 0.0
0.0 0.0 0.0 0.0 0.0 0.0 0.0 0.0
0.0 0.0 0.0 0.0 0.0 0.0 0.0 0.0
0.0 0.0 0.0 0.0 0.0 0.0 0.0 0.0
0.0 0.0 0.0 0.0 0.0 0.0 0.0 0.0
0.0 0.0 0.0 0.0 0.0 0.0 0.0 0.0

blocks.0.batchnorm.running_mean f4 [64]
00000000: 0000 0000 0000 0000 0000 0000 0000 0000
00000010: 0000 0000 0000 0000 0000 0000 0000 0000
00000020: 0000 0000 0000 0000 0000 0000 0000 0000
00000030: 0000 0000 0000 0000 0000 0000 0000 0000
00000040: 0000 0000 0000 0000 0000 0000 0000 0000
00000050: 0000 0000 0000 0000 0000 0000 0000 0000
00000060: 0000 0000 0000 0000 0000 0000 0000 0000
00000070: 0000 0000 0000 0000 0000 0000 0000 0000
00000080: 0000 0000 0000 0000 0000 0000 0000 0000
00000090: 0000 0000 0000 0000 0000 0000 0000 0000
000000a0: 0000 0000 0000 0000 0000 0000 0000 0000
000000b0: 0000 0000 0000 0000 0000 0000 0000 0000
000000c0: 0000 0000 0000 0000 0000 0000 0000 0000
000000d0: 0000 0000 0000 0000 0000 0000 0000 0000
000000e0: 0000 0000 0000 0000 0000 0000 0000 0000
000000f0: 0000 0000 0000 0000 0000 0000 0000 0000
0.0 0.0 0.0 0.0 0.0 0.0 0.0 0.0
0.0 0.0 0.0 0.0 0.0 0.0 0.0 0.0
0.0 0.0 0.0 0.0 0.0 0.0 0.0 0.0
0.0 0.0 0.0 0.0 0.0 0.0 0.0 0.0
0.0 0.0 0.0 0.0 0.0 0.0 0.0 0.0
0.0 0.0 0.0 0.0 0.0 0.0 0.0 0.0
0.0 0.0 0.0 0.0 0.0 0.0 0.0 0.0
0.0 0.0 0.0 0.0 0.0 0.0 0.0 0.0

blocks.0.batchnorm.running_var f4 [64]
00000000: 0000 803f 0000 803f 0000 803f 0000 803f
00000010: 0000 803f 0000 803f 0000 803f 0000 803f
00000020: 0000 803f 0000 803f 0000 803f 0000 803f
00000030: 0000 803f 0000 803f 0000 803f 0000 803f
00000040: 0000 803f 0000 803f 0000 803f 0000 803f
00000050: 0000 803f 0000 803f 0000 803f 0000 803f
00000060: 0000 803f 0000 803f 0000 803f 0000 803f
00000070: 0000 803f 0000 803f 0000 803f 0000 803f
00000080: 0000 803f 0000 803f 0000 803f 0000 803f
00000090: 0000 803f 0000 803f 0000 803f 0000 803f
000000a0: 0000 803f 0000 803f 0000 803f 0000 803f
000000b0: 0000 803f 0000 803f 0000 803f 0000 803f
000000c0: 0000 803f 0000 803f 0000 803f 0000 803f
000000d0: 0000 803f 0000 803f 0000 803f 0000 803f
000000e0: 0000 803f 0000 803f 0000 803f 0000 803f
000000f0: 0000 803f 0000 803f 0000 803f 0000 803f
1.0 1.0 1.0 1.0 1.0 1.0 1.0 1.0
1.0 1.0 1.0 1.0 1.0 1.0 1.0 1.0
1.0 1.0 1.0 1.0 1.0 1.0 1.0 1.0
1.0 1.0 1.0 1.0 1.0 1.0 1.0 1.0
1.0 1.0 1.0 1.0 1.0 1.0 1.0 1.0
1.0 1.0 1.0 1.0 1.0 1.0 1.0 1.0
1.0 1.0 1.0 1.0 1.0 1.0 1.0 1.0
1.0 1.0 1.0 1.0 1.0 1.0 1.0 1.0

blocks.0.residual.0.weight f4 [64, 12, 1]
00000000: 9f91 9e3e c88a 63be a14b 07be 6c6f 0ebd
00000010: 9231 9fbe e81a e6bc aaf9 9bbd 6751 dcbc
00000020: 050e 2cbe d199 143f 5ac8 ac3d 1d24 31bd
00000030: 8586 6b3c 3396 2bbe 7b36 a53e 0ea7 b4bc
00000040: eb00 5c3e 5865 993e c20b afbe 4dbe 453e
00000050: 3ce5 e83d 560d 9ebc 7327 a5bd cf9b 133e
00000060: 5e16 fb3d 6c29 22bd 1ccf 6ebe 3e34 f8bd
00000070: bcbb 6ebe 8206 6abb d4a1 0cbe 233c 09bf
00000080: e6f4 ec3d 6091 c53e db3f d5bd ec6a dc3d
00000090: ef81 843e abce 273d 0ae4 0b3b 4198 0a3e
000000a0: f13e 883c d333 bdbd cc3a 9fbd bfc1 25bd
000000b0: b3d9 43be d8b0 9cbe c201 8fbe 3148 e1bd
000000c0: e0ba d6bc 7899 20be 3cfd 0abe 4d04 b1bd
000000d0: c6eb 9ebd 413c 91be cfdc 813d 51d1 ae3e
000000e0: 500e 92bd 1bca b7be 41e5 863e 3ff8 3b3e
000000f0: fbc7 483e df23 1f3d f0e5 8f3e 679d 61be
00000100: 1351 b43d 50e2 96bd 2ece 0cbd 8b7c 193d
00000110: e33a 20be e200 fc3d c0fd b1be f027 b8bd
00000120: 17e8 213d bbf8 39bd 093d 493d 9540 20be
00000130: 73fe c7be 7818 0cbe aac5 99bd 0abc e3be
00000140: 4604 993c db98 9ebe b828 6fbd d9d8 fb3d
00000150: ca6e 33bc e24b 393e d8e2 823c e98c 773e
00000160: 98e0 2abd 37af 44be d2a8 a23e 5eed b83d
00000170: 9e05 a03e c424 fb3e 6ce1 7a3d 48d7 133c
00000180: db76 d0bd e8f8 42be 9951 e6bd 4035 713e
00000190: ddee e0bd 5e87 773d edb9 813e b216 3b3e
000001a0: 0e1c 03bf b03f d93e 9dea 543e d892 d5bd
000001b0: efde 613e b3a1 f23d e324 5cbd d24b 7ebe
000001c0: 957d 5d3d 58bf 213e e91f 293e 872a 9d3c
000001d0: 6577 0d3e b23a 32bf f884 573e 2468 0dbe
000001e0: 1ff9 14be 0cff 933e ca27 9d3e fc69 7c3e
000001f0: e680 9e3d ed0a 39be aff6 d9bc edf1 173e
00000200: 11f8 cdbd 3c8b 7fbe 1da4 14be 84bc c23d
00000210: a5ea d53d af79 23bd 4700 08be d271 233d
00000220: e784 d0be fae0 8d3b 951e 18bc 414b 78be
00000230: 70f7 aa3c 1324 b13e ca81 46bd 53a3 0f3d
00000240: a1b6 1a3d 2e7f febc 12ee d7bb f98b e8bd
00000250: b957 d8bd 9210 06bc b570 5fbe 1a13 cdbe
00000260: 941b 86be 60b9 32be 986b 7dbd 9146 e63d
00000270: e0e5 94be 1f31 51bd 54d3 bcbd e641 0cbe
00000280: ce0f e13d 1f7d 8bbe 28d3 df3d fc1a 133c
00000290: 6ec7 573d 3817 3ebf ea4c 923e 6462 cb3d
000002a0: d1bd 85be 59b4 a5bd 5a61 90bd 699f 92bd
000002b0: edc8 973d 975f 46be 7682 9b3d 8ca2 f2bc
000002c0: efaf b03d 8374 abbe f896 a53e 2362 e93d
000002d0: 9c5e c33d 47f7 da3d 358e 123d 9fb0 95be
000002e0: d6ad 223e 860b 7cbe 2fe6 16bc b5c2 5d3e
000002f0: d5a3 4ebe 2781 bbbd 37f3 61be 13e7 b33d
00000300: f672 f63c d1f0 fbbd 873f 97be 2194 4cbc
00000310: 738d 323e b3b4 46bc e12c 083e 77f2 18bf
00000320: 02a2 d93d 8428 063e aaec 8b3d 861e a23c
00000330: 262e 7d3e 53b1 8a3e 8065 0bbe 4d19 3f3c
00000340: 9e05 27bd f62b 5bbe 4e29 c73c fb28 963d
00000350: 2b1d a5be c701 4fbe 7087 e2bd 91ac 7dbd
00000360: 14e2 97bd 8dfd 373d ba79 6d3d 0c24 b23d
00000370: 5b06 6bbe 2bfe a9bd 973f 1cbe c199 bc3d
00000380: cb32 263e e5af 353c ba31 10be e634 8b3e
00000390: ee7a 4f3e cfb1 46be da80 8c3e a2b0 cebd
000003a0: 1982 a5be 5b36 8cbd 7096 07bd 35e5 983d
000003b0: 9064 5cbe 27c1 913e 13e6 573e 21eb 66be
000003c0: b623 1c3d b182 84bd d708 0b3e 5a05 1d3e
000003d0: d188 03be 0b26 a93e 8c8a 3cbe e5ac 3e3d
000003e0: 7082 953b f775 90be 2a85 193e 8e22 bb3d
000003f0: 9a1e b63d 0ebe abbe c0a0 69be b6d7 e1bd
0.30970475 -0.2222091 -0.13212444 -0.03477423 -0.31092507 -0.028089002 -0.07615979 -0.026894284
-0.16802223 0.58047205 0.084366515 -0.04324733 0.014375334 -0.16756515 0.32268128 -0.022052314
0.21484725 0.29960132 -0.34188658 0.19310875 0.11371848 -0.019293468 -0.08064165 0.14414905
0.122601256 -0.039590284 -0.23321193 -0.121193394 -0.23313802 -0.0035709445 -0.13733608 -0.53607386
0.11570148 0.38587475 -0.1041257 0.10762581 0.2588038 0.04096858 0.0021345639 0.13534643
0.016631575 -0.092384 -0.077748865 -0.040467974 -0.19126014 -0.3060367 -0.2793103 -0.110000975
-0.026212156 -0.15683544 -0.13573164 -0.086433984 -0.07759814 -0.28366283 0.06340944 0.3414407
-0.07131636 -0.35896382 0.26346782 0.18356417 0.19607536 0.03885257 0.28105116 -0.220327
0.08804526 -0.073673844 -0.034376316 0.03747229 -0.15647464 0.12304856 -0.34763908 -0.089919925
0.03952798 -0.045403223 0.049130473 -0.15649636 -0.39061317 -0.13681209 -0.075084046 -0.444794
0.018678796 -0.30975994 -0.05838844 0.1229722 -0.010951707 0.18095353 0.015977308 0.24174847
-0.041718096 -0.19207464 0.31769425 0.09029649 0.31254286 0.49051487 0.061250135 0.009023495
-0.1017892 -0.19040263 -0.11246032 0.2355547 -0.109830596 0.06043183 0.25337163 0.18270376
-0.51214683 0.42431402 0.20792623 -0.10428399 0.22057699 0.11847248 -0.053746115 -0.2483361
0.054074842 0.15795648 0.16516079 0.019185318 0.13815077 -0.6962081 0.21046817 -0.13809258
-0.14548157 0.28905523 0.3069442 0.24649805 0.07739429 -0.18070574 -0.026606886 0.14838381
-0.100570805 -0.24955457 -0.14515729 0.09508613 0.104451455 -0.03991097 -0.13281356 0.03990347
-0.40726396 0.004329798 -0.009284635 -0.24247457 0.02086994 0.34597835 -0.04846362 0.035067867
0.037771825 -0.031066503 -0.0065896595 -0.11354823 -0.10563607 -0.008182662 -0.21820338 -0.40053636
-0.26192915 -0.17453527 -0.061870188 0.11243928 -0.2908163 -0.051072236 -0.09219995 -0.13697013
0.10989343 -0.27243897 0.10928947 0.008978602 0.052680425 -0.7425418 0.28574306 0.09930876
-0.2612138 -0.08091039 -0.07049818 -0.07159311 0.074113704 -0.19372402 0.07593243 -0.029618524
0.08627307 -0.3348733 0.32341743 0.11395671 0.0953953 0.10691696 0.03578015 -0.29236314
0.15886626 -0.24613771 -0.0092101535 0.21656306 -0.20179684 -0.09155493 -0.22065435 0.08784308
0.030084115 -0.123017915 -0.29540655 -0.012486489 0.17436771 -0.012128043 0.1329837 -0.5974497
0.10626604 0.13101393 0.068322495 0.019789945 0.24724635 0.27088413 -0.13612938 0.011663747
-0.04077684 -0.21403489 0.024311688 0.07332035 -0.32248816 -0.20215522 -0.11060989 -0.06193215
-0.07416168 0.04491954 0.057977416 0.08698282 -0.22951643 -0.08300432 -0.15258633 0.09209014
0.16230313 0.0110893 -0.14081469 0.27188796 0.20261738 -0.19403766 0.27442056 -0.10092284
-0.3232582 -0.06846305 -0.033102453 0.07465593 -0.21522737 0.28467676 0.2108386 -0.22550632
0.038119994 -0.0647024 0.13577591 0.15334073 -0.1284516 0.33036837 -0.18412226 0.046551604
0.0045626685 -0.28215 0.14992204 0.0913745 0.088925555 -0.33543438 -0.22815228 -0.11027472

blocks.0.residual.1.weight f4 [64]
00000000: 3804 8c3f 129f 843f 9bec 9f3f 777c 803f
00000010: 1aab 763f c04a 853f 2330 7c3f eae9 a03f
00000020: 8b7d 903f 7dec 913f 87d7 783f 2c34 893f
00000030: 53ed 993f b4f5 9e3f e7ea 8c3f 1ff5 8f3f
00000040: 057b 983f 937d 843f 4192 8b3f 60e2 993f
00000050: 774a 8a3f 517d 933f 520d 9e3f 00ab 9f3f
00000060: 4739 8b3f ff55 873f 133f 963f 6f4b 8c3f
00000070: 33ff 933f aa7f 743f 146b 5b3f 3f3f 783f
00000080: f8f2 5e3f b8f6 813f 63d9 8c3f 6b5f a33f
00000090: c85f 9c3f 3c36 663f b7eb 5e3f d080 723f
000000a0: ecca 933f f3f9 983f 7ce3 8b3f 4195 9a3f
000000b0: ddbc 933f 1d11 8a3f 91b1 993f 43f8 9e3f
000000c0: 671b 893f 7bea 913f 0236 a33f a799 893f
000000d0: 3431 a33f e20f 933f ce41 5e3f 035f 8b3f
000000e0: 11b4 a93f 855a 943f 8a83 823f e7b6 933f
000000f0: 89dd 963f 54e4 8c3f 5f2a aa3f 79e7 a03f
1.0938787 1.0361044 1.2494081 1.0037984 0.9635483 1.0413437 0.9851095 1.2571385
1.1288313 1.1400295 0.9720387 1.0719047 1.2025551 1.2418733 1.1009187 1.124668
1.1912543 1.0350822 1.0904008 1.2022209 1.0803975 1.1522619 1.2347815 1.247406
1.0876855 1.0573119 1.1737999 1.096052 1.1562256 0.955073 0.85710263 0.96971506
0.8708949 1.0153418 1.1003841 1.2763494 1.221673 0.89926505 0.8707842 0.947278
1.1546302 1.1951278 1.0928798 1.2076799 1.1542011 1.0786473 1.2007314 1.2419513
1.0711488 1.1399683 1.2750857 1.0750016 1.2749391 1.1489222 0.8681916 1.088837
1.3258077 1.1590124 1.0196393 1.1540192 1.1786357 1.100718 1.3294181 1.257064

blocks.0.residual.1.bias f4 [64]
00000000: 5b2c 48be 91d5 f33d b041 23bc 2977 663d
00000010: 5147 213e 3cba 443d e488 93be ead1 3dbe
00000020: 9bfe 65be ddce 3a3e 23f4 0abd ac65 27be
00000030: 6980 e7bd eab6 6b3e c830 af3d ffe1 e33d
00000040: 69e5 a7bd 1be2 9abb 65f9 f0bd 08d3 52be
00000050: 67dd 0c3e 46da 19be 28b6 0abe 9b02 43be
00000060: 1fa5 3cbe 387b 41be 6cbf 81bd 7470 08be
00000070: 059f debc f493 753d 685a 13be f037 fb3d
00000080: c936 953d 6c31 1d3e 0589 2b3e a3c3 93bd
00000090: 1986 523e 6ed2 afbc 3f5d 69bc c331 113e
000000a0: e241 a13e 56b3 28be 7cda 02be fd6e 4ebe
000000b0: 9112 3b3e 492a 75be b2b8 89be 64b7 08be
000000c0: 2bcb 60be 8a30 063c 5ec1 21bd 9279 383d
000000d0: 7ba2 b03e 5062 45be 0cc9 e6bd 64d7 60be
000000e0: 16f5 11bd d227 a8bd 86de fc3d 7d97 1e3e
000000f0: 51aa 4d3e 6409 523e e5da 56bd 3fec 51be
-0.1954817 0.11905969 -0.009964392 0.056265984 0.15749861 0.04802917 -0.28815377 -0.18537107
-0.22460406 0.18242975 -0.033924233 -0.16347378 -0.11303789 0.23018995 0.08554226 0.1112709
-0.081980534 -0.004726661 -0.11766318 -0.20588315 0.13756333 -0.15024671 -0.1354605 -0.19043963
-0.18422364 -0.1889466 -0.06335339 -0.13324147 -0.027175436 0.059955552 -0.14389956 0.122665286
0.0728584 0.15350884 0.16751488 -0.07215049 0.20558967 -0.021462645 -0.014243423 0.14179139
0.31495577 -0.16474661 -0.12778658 -0.20159526 0.18268801 -0.23941912 -0.26898724 -0.13351208
-0.21952502 0.008190284 -0.03949105 0.045037813 0.34498963 -0.19275784 -0.112688154 -0.21957165
-0.035634123 -0.0821072 0.123471305 0.15487476 0.20084502 0.20511395 -0.052454848 -0.20500277

blocks.0.residual.1.running_mean f4 [64]
00000000: 2726 903e 38c6 6bbd 07bb cf3e 1321 84bd
00000010: 0147 96be 620d 5a3e 6f24 b03c 86a7 863e
00000020: 5ec5 3b3c 4ac9 08bf 0632 42bd 1c97 953e
00000030: cf22 d03c f0c7 ecbe d14b 86be 6837 a23d
00000040: 1fd5 bb3d 2ead 0fbd 94d7 233e df2f 1d3d
00000050: 7d80 90be 75c4 3a3e 9919 113e 8a79 1c3e
00000060: 7116 fe3d 5182 503e 7965 553d c2dd 523e
00000070: adf7 483d f065 42be 4d0c 9abd 99eb eebe
00000080: 775c 4bbe fcd3 96be 1247 b8bd db37 663d
00000090: a2e0 c3be fad1 243c 8efc 80be 518a 91bd
000000a0: d123 9bbe f784 afbd b6b1 a03e a6df 1dbe
000000b0: 398b 01be e3a9 c33d 8499 8b3e 268a 433d
000000c0: baed 063e d980 673e 3817 303e bd48 47be
000000d0: d7f5 43bf 84fd 8b3e 0141 ab3d ba62 5a3d
000000e0: e989 963e 9467 873e e5c6 693e a524 46be
000000f0: ee4e 0dbf 5032 23be d166 6b3d 7b48 813e
0.28154108 -0.057562083 0.40572378 -0.06451621 -0.29351047 0.21294168 0.021501748 0.26299685
0.01146063 -0.5343214 -0.047410987 0.2921685 0.025407223 -0.4624629 -0.26229718 0.07920724
0.09171509 -0.035077266 0.16000205 0.03837573 -0.2822303 0.18239005 0.14169921 0.15280738
0.12406624 0.20362212 0.052098725 0.20592406 0.049064327 -0.18984199 -0.075218774 -0.46664122
-0.19859491 -0.29458606 -0.089979306 0.05620561 -0.3825732 0.010059828 -0.25192684 -0.0710646
-0.30300763 -0.08570283 0.31385583 -0.15417346 -0.12650765 0.09553888 0.2726556 0.04773917
0.13176623 0.22607745 0.17196357 -0.19461341 -0.76546997 0.27341855 0.08362008 0.05331681
0.29402092 0.2644621 0.22829778 -0.19349916 -0.5519856 -0.15937161 0.0574711 0.2525061

blocks.0.residual.1.running_var f4 [64]
00000000: 599b c73e 39de d53e 7f55 213f 0b96 3e3e
00000010: 337f 8b3e 3eaa 403e c721 ff3e f382 bb3e
00000020: a2e8 f13e e4ee 8f3e 862e f53e 923f 8f3e
00000030: 0eb2 be3e faff 8d3e 068a 693e 99b2 2e3e
00000040: 2d6a dc3e 5a6f 6c3e 44ff 1a3e c909 ba3e
00000050: d4c9 4b3e ccc6 a23e 4dc6 b33e 8f49 2d3e
00000060: 8c64 533e 5988 d03e c992 b93e 800b 4a3e
00000070: f340 7f3e 1939 443e ab0d c33e 9a50 eb3e
00000080: 53f6 2c3f 22d4 9b3e 2881 483e a5ea 063f
00000090: ee44 673e 948a 6c3e 96b0 e53e 6576 853e
000000a0: 5dfb 4e3e 5c40 d73e 22eb 973e d3d3 a13e
000000b0: b44f 053e b41c 813e 2a91 3f3e 434c 823e
000000c0: dbef 003f 9fed 9e3e 763f 463e c5ad 4b3e
000000d0: a248 033e 54da 193e 32c5 9f3e af81 cf3e
000000e0: 3f31 403e 2eba 023f 235a ec3e 5aaa 743e
000000f0: e4e4 8e3e 1fa5 983e 36bd cf3e 6391 dc3e
0.38985708 0.41771105 0.6302108 0.18611924 0.27245483 0.18814942 0.49830458 0.36623344
0.47247797 0.28111947 0.47887057 0.27978188 0.3724522 0.27734357 0.22806558 0.17060317
0.43049756 0.23089352 0.15136439 0.3633559 0.1990121 0.31792295 0.3511223 0.16922592
0.20643824 0.40729025 0.362448 0.1973095 0.2492712 0.19162406 0.38096365 0.45959932
0.6756336 0.30435282 0.19580519 0.5270179 0.22584888 0.23099738 0.44861287 0.2606689
0.20213075 0.4204129 0.2967158 0.31606922 0.13018686 0.2521721 0.1870772 0.25448808
0.5036599 0.31040666 0.19360146 0.19890507 0.12820676 0.15024692 0.31205136 0.40528628
0.18768786 0.5106534 0.4616252 0.23893109 0.27909005 0.29813477 0.40574044 0.4307967

linear.weight f4 [1, 64]
00000000: 4444 d03c c49e 47bd 0625 323e 7c39 d2bc
00000010: 7a63 53bc bf86 78bd e9e5 dc3c 37e5 393e
00000020: 0f17 cc3d dbaf cfbd 5a31 af3c 052c bd3c
00000030: e4ea 0a3e 2f4c 2fbe 0e34 8cbd 4a63 a9bd
00000040: 638d c73d 599c e9bc 42ee cc3d 4c9d 203e
00000050: 6efd 6cbd ea9a 303e 8954 913d ae85 523e
00000060: ade4 933d 7a17 933d 1822 133e b500 ea3d
00000070: 72bf 323d 1d90 11bc f093 34bc a940 e6bc
00000080: 2989 21bb 428d a9bc 7638 60bd 2496 e03d
00000090: 062d 20be c5b3 2bbc 3587 49bc 4ace 25bc
000000a0: ff0f b6bd 5448 eb3d b7b2 a93d 6d12 153e
000000b0: bf41 e6bd af33 9b3d 4e4b 473e 17f6 cc3d
000000c0: bb16 753d 270f fc3d f0c6 ea3d 3187 39bd
000000d0: a067 00be 3224 943d 2b95 20bc 674e 8b3d
000000e0: 6bef 0a3e 42ed 8c3d c113 09bd f91a c5bd
000000f0: 17f6 c9bd 1b21 79bd b354 7f3e f449 1b3e
0.025423177 -0.048735395 0.17396936 -0.025662176 -0.012902135 -0.06067538 0.026965098 0.18153845
0.099653356 -0.10140964 0.021385837 0.02309228 0.13566166 -0.17118905 -0.06845866 -0.08270891
0.09743764 -0.028516935 0.100063816 0.15685004 -0.057858877 0.17246595 0.07096202 0.20558807
0.07221351 0.07182212 0.14368474 0.11425916 0.043639608 -0.008884457 -0.011021599 -0.028107004
-0.0024648404 -0.02069724 -0.054741345 0.10966137 -0.15642175 -0.010479872 -0.012300302 -0.010119984
-0.0888977 0.11488405 0.0828604 0.1455781 -0.11243009 0.07578217 0.1946232 0.100078754
0.05983613 0.123075776 0.114637256 -0.045294944 -0.1253953 0.07233466 -0.009801189 0.068020634
0.13567893 0.06881191 -0.033466104 -0.09624285 -0.09861391 -0.060822587 0.24934654 0.1516493
