models/saved_models/save1.pth (torch, 15417 bytes, 14 tensors)

blocks.0.bottleneck.weight f4 [1, 12, 1]
000000 ef 5c a6 bd d0 ad a2 3d b5 8a bb 3d 50 d8 46 3d
       -0.081231944 0.07943308 0.09157316 0.048546135
000010 e9 ae ce 3a 31 78 72 bd 45 c3 37 3e 0f 27 f0 3d
       0.001576868 -0.059196655 0.17945583 0.117262
000020 e4 41 12 3d 87 dc 1f be 42 07 35 3d 2e 6a da 3c
       0.03570737 -0.15611468 0.044196375 0.026661959

blocks.0.conv_layers.0.weight f4 [8, 1, 41]
000000 b7 40 bc 3d ba 6b c0 3c 82 32 fe 3d dd 89 ac bd
       0.09192031 0.023488868 0.12411977 -0.08424733
000010 6d f4 3a bb 70 4f bd 3d 23 fe 03 be bc c8 40 bd
       -0.0028527037 0.09243667 -0.12889914 -0.047066435
000020 87 ce fe 3d b3 a6 3e 3d 91 c7 12 be 3a 4b e9 3c
       0.12441736 0.046545696 -0.14333941 0.028478254
000030 04 01 0d be 0c 69 ff 3d dd 97 11 be 55 31 9a bd
       -0.13769919 0.12471208 -0.14218087 -0.075289406
000040 f1 2a 4d bd b7 c1 f0 bd eb 54 12 3d 34 03 1f 3d
       -0.05008978 -0.11755698 0.035725515 0.038821414
000050 78 5c 06 3e 60 6c 0d be ab 75 bf 3d 64 a1 16 be
       0.13121212 -0.13810873 0.09348615 -0.14710003
000060 d0 4d f5 bb c3 a2 04 be ef 3a 90 3d 47 03 53 bd
       -0.0074860826 -0.12952714 0.07042491 -0.051516797
000070 eb 45 50 3d 5e 7c 81 bd ab 83 1f 3e 1f 03 39 3e
       0.05084793 -0.06322549 0.15577571 0.18067597
000080 c0 71 d5 bc 0f 76 e4 3d c4 b1 d7 bd fb 91 7c bd
       -0.026055217 0.111553304 -0.10531953 -0.061662655
000090 d7 f2 8a 3d 82 85 d3 3c 5d 1b 18 3e d3 24 6c 3d
       0.06784599 0.025820497 0.14854188 0.057652306
0000a0 53 7e 11 bd 26 3f bf bd f4 ec 95 bc 0a 55 12 3d
       -0.035520863 -0.093382165 -0.018301465 0.03572563
0000b0 93 77 c2 bc f1 b2 9c bd 04 22 df 3c c9 36 bb 3d
       -0.023738658 -0.07651318 0.0272379 0.09141309
0000c0 53 6a cf bd 3b 9b e6 bd 02 18 8c 3d 5a 47 24 39
       -0.101277016 -0.112600766 0.068405166 0.0001566684
0000d0 ac 0f ee 3b 10 68 97 3b 1b a1 12 3e 1e 25 45 3c
       0.007265052 0.0046205595 0.1431927 0.012032775
0000e0 4f 19 a7 3d 45 57 08 3e 18 62 98 bd 6f 62 0f be
       0.08159124 0.1331454 -0.07440585 -0.14002393
0000f0 c3 b5 23 3e a6 e1 f7 bd f0 ad 1c 3d a6 40 f2 bc
       0.15987305 -0.12103586 0.038251817 -0.029571842
000100 0e b0 69 bd a7 16 77 3a e2 f9 ac 3c 4f 77 88 3d
       -0.057052664 0.00094256777 0.021115247 0.06663381
000110 cd 77 ed 3d 2a c5 eb bd f5 19 b5 3b 6e 40 b7 3d
       0.11595116 -0.115122154 0.005526776 0.08947836
000120 28 cf 5a 3d d2 e5 bc bd 0d 13 21 be 6e b2 91 3d
       0.053420216 -0.09223522 -0.15729924 0.07114111
000130 45 f1 08 bd a8 8b a3 bd 2c 5f ea 3d 20 32 04 3d
       -0.033433218 -0.07985622 0.11443934 0.032274365
000140 ed 73 e9 bd 9d 41 92 bd 23 f9 f8 bd 34 21 70 be
       -0.11399064 -0.07141421 -0.12156894 -0.23450166
000150 94 36 05 3d 45 0e ec bd af 14 b6 bc 9c ce ca bb
       0.032522753 -0.11526159 -0.02222666 -0.0061891805
000160 a4 3c 20 be 2e 14 30 be 49 a9 18 bc e7 57 a6 3d
       -0.15648133 -0.17195198 -0.0093177045 0.08122235
000170 b6 28 42 be 62 df 36 3c 65 38 59 3c 67 41 e7 3d
       -0.18960842 0.011161657 0.013258074 0.112917714
000180 ab 39 82 3c a5 fd b7 3d 60 1b 9d bd 78 95 1d 3e
       0.015896639 0.08983926 -0.07671237 0.15389049
000190 ec 48 4c 3d 85 a0 22 3e 9c bf c4 3d b8 28 c3 3d
       0.04987423 0.15881546 0.09606859 0.09529251
0001a0 0c 4d 50 bd 8d 83 b4 bd ce fb 3b bd 6a f8 4f bd
       -0.050854728 -0.08814154 -0.045894437 -0.050774015
0001b0 5e ce e2 3d 0d e7 f6 bc 0d 16 6b 3d df 78 65 bd
       0.11074518 -0.03013947 0.057394076 -0.056023475
0001c0 77 34 d2 3d 8f ec c9 3d 14 c4 bd 3d c5 c5 d1 3d
       0.10263913 0.09859573 0.092659146 0.102428
0001d0 da 66 49 3d 52 3c 73 3e 78 d4 3a 3e b2 a7 4d 3e
       0.049170353 0.23753479 0.18245113 0.20083502
0001e0 14 c2 22 3e f9 5d f1 3d 2b e6 1e 3e c1 4f 67 bd
       0.15894347 0.11785502 0.1551749 -0.056472544
0001f0 c2 4f b0 3d 19 92 d8 bd b0 ad 5d 3d 43 5b 03 3e
       0.086089626 -0.10574741 0.05412072 0.12827782
000200 a2 67 de bb 99 f5 ac 3d f6 0e 31 bd aa fa ac bd
       -0.0067872563 0.084452815 -0.04322716 -0.08446248
000210 87 87 f2 bc 52 0b 14 3d 46 33 55 bc e2 7f c8 3d
       -0.02960564 0.03614361 -0.013012713 0.09790017
000220 f6 71 cf 3d 8a f1 92 3d 3f ec 87 3d bd 5d f1 3d
       0.10129158 0.07174976 0.06636857 0.11785457
000230 c3 fa dd bd e8 fd a8 3d d6 0c 96 3d 5d d9 c8 3d
       -0.108388446 0.08251554 0.07326667 0.09807084
000240 84 eb 04 bd 7a 7e ac 3d 06 67 a1 bd 2e 62 2a 3c
       -0.032451168 0.08422561 -0.07880978 0.010399384
000250 05 c4 f8 3d 75 a3 32 be 2a 73 18 be 76 57 0e be
       0.12146763 -0.17445166 -0.14887682 -0.13900551
000260 1f 80 03 bd 6e 6d de bd 7f 0f 38 bd b8 ae df bd
       -0.032104608 -0.10860716 -0.044936653 -0.10921997
000270 b9 23 f4 3d 7e 91 5c bd 91 8c 97 3d 36 1c 8f bc
       0.11920876 -0.05384969 0.07399858 -0.017469507
000280 94 14 1e be fd 76 4a bd 19 64 6f bd c9 97 90 bd
       -0.15437537 -0.049429882 -0.05844507 -0.07060201
000290 e7 d7 46 3e 00 94 6c 3c a3 8c 1b 3e c8 2c 06 bd
       0.19418298 0.014439583 0.15190367 -0.03275755
0002a0 e6 92 0d 3c c8 fb 5e bd 50 06 1f bd 0c de e1 3d
       0.00864098 -0.054439336 -0.03882438 0.1102868
0002b0 88 47 6f 3d 53 b9 11 bc ef 65 f1 bd ac f8 ad bc
       0.058417827 -0.008894282 -0.117870204 -0.02123674
0002c0 f3 3d 31 be f5 96 47 3d 7f 17 1c be df a5 6d bd
       -0.17308788 0.04872795 -0.15243338 -0.058019515
0002d0 d9 87 5e be 92 02 a0 3c 11 b1 83 bc cb 1f 83 bd
       -0.2173151 0.019532476 -0.016075643 -0.064025484
0002e0 e9 70 20 be 10 6c bd bd 0f 00 ae bd 44 36 67 be
       -0.15668072 -0.09249127 -0.08496105 -0.22579294
0002f0 57 2c 37 be 22 4e 45 be a7 4c 8f be 17 d8 a0 bd
       -0.17888008 -0.19268087 -0.2798817 -0.07853716
000300 1b 29 6c be 59 fe a1 bd ca c9 89 bd a3 fd 6e be
       -0.23062555 -0.07909841 -0.06727941 -0.23338942
000310 10 fd 06 be 0e fc 98 be 52 09 38 be 31 69 30 be
       -0.13182473 -0.29879802 -0.17972305 -0.17227627
000320 5c 38 0a bd 82 78 f3 bd 55 37 bd bd e2 a3 aa bd
       -0.033745155 -0.118882194 -0.09239069 -0.083320394
000330 80 dd 6f bd 70 f7 71 bd 1d a7 af bc 29 53 49 bd
       -0.05856085 -0.059073865 -0.02144199 -0.049151573
000340 01 f6 c0 3d ee 10 f6 3d c8 d9 98 3d 61 e9 03 be
       0.094219215 0.12014948 0.074634135 -0.12881996
000350 ea b4 c9 3d 84 26 11 be f8 4a 84 bc 70 85 95 3d
       0.0984896 -0.14174849 -0.01614903 0.07300842
000360 89 bb 93 3d c6 0f a4 bd 32 5f 5e bd 46 19 15 be
       0.07213504 -0.08010821 -0.054290004 -0.14560422
000370 fe 56 0d 3e d5 14 ba bd 73 22 9a bc 90 67 b0 3d
       0.13802716 -0.09086005 -0.018815255 0.08613503
000380 a3 f9 16 3e 38 78 67 3d d3 17 31 bd 1b 0a 71 3d
       0.14743666 0.056511134 -0.04323561 0.058847528
000390 45 b2 bc 3d 02 7c 04 3e 99 73 73 bd 49 23 3b 3d
       0.0921369 0.1293793 -0.059436414 0.045687947
0003a0 67 f5 fe bd 6c 43 d2 3d 0f 52 b0 3d bc b4 14 be
       -0.124491505 0.10266766 0.086094014 -0.1452207
0003b0 da ca ff bd 45 a4 fb 3d 27 c6 b1 bc 37 7c d5 bc
       -0.12489863 0.12287191 -0.021700932 -0.026060207
0003c0 db 89 ef bd 0a 52 f5 3d 33 00 98 bd a5 84 0f be
       -0.11696216 0.11978538 -0.07421913 -0.14015444
0003d0 28 5a 8e bd 0c 14 6c 3d 9c 08 ae bd 5b 59 20 bd
       -0.0695079 0.057636306 -0.08497736 -0.039147716
0003e0 71 f6 1e be 90 ff 01 be 0e 97 48 bd 3e 54 10 3e
       -0.15523697 -0.12695146 -0.048972182 0.14094636
0003f0 dc bf 69 bc 8a 25 41 3c 45 a9 4a 3d ea 30 c2 3d
       -0.014266934 0.011788735 0.049477834 0.09481986

blocks.0.conv_layers.1.weight f4 [8, 8, 20]
000000 f4 94 e7 3c 1f d1 90 bc 83 a7 2c 3c 1d c1 7b 3d
       0.028269269 -0.017677842 0.010537985 0.061463464
000010 75 8d 42 3c 38 f7 bc bc 1c ba 39 bd 71 5a a3 3d
       0.011874546 -0.023067102 -0.045343503 0.07976235
000020 d7 d5 61 3a 32 29 96 3d 3a 6c 27 bc 41 39 61 bd
       0.00086149335 0.07332076 -0.010218674 -0.054986242
000030 7b 9f 2c 3d 3d 7d 9d bd f5 a0 bf bc 25 bb 42 bc
       0.04214428 -0.07689903 -0.02339218 -0.011885439
000040 05 28 39 3d e4 2f b1 bd 95 53 5f bd f9 de 27 bc
       0.04520418 -0.086517125 -0.05452307 -0.010246032
000050 85 88 ad bd 07 65 52 bc 1a c1 a2 38 7b 49 2d bd
       -0.08473305 -0.01284147 7.76073e-05 -0.042306405
000060 0b 00 71 bb 6a 04 9b bd ae 51 9f bd 61 dc a1 3b
       -0.0036773707 -0.07569201 -0.07779251 0.0049396013
000070 3b 4b af 3c 93 9b 65 bb 53 f8 c2 bd 3a f5 92 3b
       0.021398177 -0.0035035356 -0.0952002 0.0044847997
000080 b7 5a 81 bd 09 0f 0d 3d 1a 58 44 bd 58 74 45 3d
       -0.063161306 0.034438167 -0.047935583 0.048206657
000090 8c 55 34 3d cc d9 47 bc 52 be 11 3d 26 e3 02 3c
       0.044026896 -0.012197923 0.035581894 0.007988727
0000a0 36 aa 72 3d ee 5e 85 3d 54 5b 14 3c 03 27 52 bd
       0.059244357 0.06512247 0.009054977 -0.051306736
0000b0 2f 7e 27 3d 18 20 db 3b 78 7c 1d bd b1 7b a9 3b
       0.040891822 0.0066871755 -0.03844878 0.005172216
0000c0 2d 97 99 bd 76 b8 84 3d bf a2 a4 bc bc 27 97 3c
       -0.074995376 0.06480496 -0.020097135 0.018451564
0000d0 93 61 77 3d 01 1f 05 bd 00 c4 88 3d 3e 9b 94 3d
       0.06039579 -0.03250027 0.06678009 0.072561726
0000e0 6e 6e a2 bb 7a 69 34 bd c3 aa 26 3d 5e ae 7b 3d
       -0.004957012 -0.044045903 0.040690195 0.061445586
0000f0 92 42 fa 3c 8a f4 9d 3c 3f 5a e1 3d 7f 6b b7 3d
       0.030549321 0.019281644 0.11003541 0.0895605
000100 af b0 e4 3c b5 9f 0c bd c1 c4 ed 3b f0 f2 86 bd
       0.02791628 -0.034331996 0.007256121 -0.065893054
000110 4d 3d 73 3c 8c 52 a8 3d 86 6a 60 3c b2 69 97 3d
       0.014846158 0.082188696 0.013697272 0.07393207
000120 11 97 51 bc 4b 93 cb bc 92 a0 4f 3d f5 84 51 3c
       -0.012792365 -0.024850508 0.05069024 0.012788047
000130 ef d9 87 b9 66 5a 6e 3a 6f e0 f6 3d 5f 67 c4 3b
       -0.0002591158 0.000909245 0.12054526 0.005993768
000140 91 77 e4 bb 9c 2a 10 3d da fb a4 3d cf c8 8e 3d
       -0.0069722612 0.035196885 0.080558494 0.06971895
000150 58 de 08 3d 5f cb 1e bc 08 3b 82 bd 1e 22 d6 bc
       0.03341517 -0.009692042 -0.063589156 -0.026139315
000160 ce f3 8b bb f2 a6 27 3d 5f ca 21 3d 32 f0 f0 3c
       -0.004271007 0.040930696 0.039499637 0.029411409
000170 2b 33 d0 bc 90 45 c1 b9 ea 43 7e 3c 96 dd 1a 38
       -0.025415024 -0.00036863657 0.015519122 3.692283e-05
000180 02 22 0a bd b1 09 08 bc 99 0c 4a bc 6e 0c b5 bc
       -0.03372384 -0.008303092 -0.012332105 -0.022100653
000190 e9 08 38 3b 2d c1 85 bd 77 73 4f bc 9a f5 4d bd
       0.0028081483 -0.06530986 -0.012661806 -0.050283052
0001a0 6c 03 ae bd d9 37 10 3d 1c 7b bf 3c c9 6b 09 bd
       -0.084967464 0.03520951 0.023374133 -0.033550058
0001b0 b8 11 00 bc 08 4a c5 3c db 96 f3 bc 8f ab 03 bb
       -0.0078167245 0.024083152 -0.02973502 -0.002009127
0001c0 8d 4d 1b bd 9e e0 4e bd 37 15 e4 bc 68 06 76 bd
       -0.037915755 -0.05050718 -0.027842147 -0.060064703
0001d0 a7 8b 91 bc e1 13 9e 3d dd 08 1b bd 45 bf 2e 3d
       -0.017766787 0.07718635 -0.03785025 0.042662878
0001e0 95 1b 40 bd d7 e3 cc bd e7 11 f8 3c df 62 d3 3c
       -0.046901304 -0.100043945 0.030281974 0.025803981
0001f0 78 c9 99 bd 18 e3 ec bc cf 33 ad 3d 70 6b 1e bd
       -0.0750913 -0.02891688 0.08457147 -0.03867668
000200 01 d2 74 3d fe 66 8b 3d 40 20 78 3d 25 a8 41 3d
       0.059770588 0.068067536 0.06057763 0.047279496
000210 c5 87 47 bd fe 99 e6 bc a1 dc 84 bc e9 02 ec 3b
       -0.048713464 -0.028149601 -0.016218485 0.0072024954
000220 3d ea bc bd d8 6c 2a 3b b2 03 af 3c 9c f5 7f 3c
       -0.09224365 0.0026004817 0.021364067 0.015622523
000230 c9 d7 77 bc 3c 3e 89 bd b9 69 85 3d 77 53 26 bd
       -0.015127131 -0.067013234 0.065143056 -0.040606942
000240 d6 93 53 bd f3 ce 01 bd 06 e7 3a 3d 23 27 ba bc
       -0.05165466 -0.031691503 0.045630477 -0.02272374
000250 86 54 56 3d 5e 34 18 bd a0 6a 0b bd 87 3a 62 3c
       0.0523267 -0.037159316 -0.034037232 0.013807899
000260 b9 b9 1d 3d 08 39 a0 bc 24 5a ec 3b 58 26 66 bd
       0.038507197 -0.019558445 0.007212894 -0.05618891
000270 63 ae 83 3d 4a e8 5c 3d c0 77 4a bd 79 3e 89 3d
       0.06429746 0.053932466 -0.04943061 0.06701369
000280 46 02 a2 bc 95 b4 5b 3d c0 89 23 3d aa 6d 70 bd
       -0.019776475 0.053639013 0.03992629 -0.058698334
000290 47 8a 4d bc a8 18 7b bd 01 75 83 3d a4 d2 46 bd
       -0.012545175 -0.06130281 0.06418801 -0.048540726
0002a0 82 34 5c bd d1 2c ea bb 35 ae 28 bc 4f 8f 90 3c
       -0.053761013 -0.007146456 -0.01029544 0.01764646
0002b0 d2 83 b2 3c 9a 08 7d 3d 0b 33 b2 3c 8e f7 98 bc
       0.021791372 0.06177578 0.021752855 -0.01867273
0002c0 b3 ff c3 3a a9 b9 9f bb 35 05 7a 3d d9 3b 38 bb
       0.0014953524 -0.0048744273 0.061040122 -0.0028111844
0002d0 e6 ba e3 3c 19 d5 8a bc 20 bb 9e bb ae 57 0d 3d
       0.027799081 -0.016947316 -0.0048440844 0.034507446
0002e0 d9 bd 66 3d ba 84 8f bd 41 9b bd 3c 4b 5f dd 3a
       0.056333397 -0.070077375 0.02314532 0.0016889361
0002f0 7b da 6f 3d a6 7e 48 3c 33 17 2a bd 61 f4 39 bd
       0.05855797 0.012237227 -0.04152603 -0.045399074
000300 0f 57 c0 bb 57 bb 8a bd cb 8e dc 3c d3 18 2c bd
       -0.005869753 -0.067740135 0.026923558 -0.04201586
000310 97 b3 20 3d 14 12 77 3d f1 59 f2 3c a1 71 c5 3c
       0.03923377 0.060319975 0.029583903 0.024102034
000320 14 64 ee 3c f9 d0 8d 3d d0 b3 76 3d 06 11 41 3d
       0.029100455 0.06924624 0.060230076 0.047135375
000330 3f 7d 62 bd f2 9c 8d bd 61 6a 24 bd c8 b9 a5 bc
       -0.055295225 -0.069147006 -0.040140513 -0.020230189
000340 b1 3a 9e 3d 33 35 60 bd 6a 58 88 3c 3a 95 54 3d
       0.07726038 -0.054738235 0.016643722 0.051900126
000350 85 82 7d 3c 86 fa 56 3d c8 a9 ea bb 5e c6 b6 3c
       0.015473013 0.05248501 -0.007161353 0.022311386
000360 3b a6 83 3d 04 f1 1d 3d 1e f6 75 3d 67 af 49 bd
       0.0642819 0.03855993 0.06004917 -0.049239542
000370 8f b7 2a bd 7e e1 ef bc 40 44 49 bd cc 03 87 bc
       -0.04167896 -0.029282328 -0.049137354 -0.016481303
000380 db 18 7a bd d5 08 b7 3c 88 55 04 3c ad 56 81 3d
       -0.06105886 0.022343079 0.008077033 0.0631536
000390 ab 3d 79 bc 9a aa 18 3d ed 21 8b bd f8 9f 1e 3d
       -0.015212457 0.037272073 -0.0679358 0.038726777
0003a0 fc cf a5 3c 11 d9 c4 3d e2 12 7c 3d 20 96 ed bc
       0.020240776 0.09611715 0.061541446 -0.02900225
0003b0 76 0e fe bc 2e b4 d4 3a 41 d4 c8 3d ef ec 81 3d
       -0.031012755 0.0016228014 0.09806109 0.063440196
0003c0 73 ff 7b 3d 96 72 36 bd d8 81 53 3c fc fc 8a 3b
       0.061522912 -0.04454287 0.012909375 0.004241584
0003d0 1d e8 18 3d 81 94 7e 3d d0 33 75 bd bd e8 85 bd
       0.037330735 0.062153343 -0.059863865 -0.06538532
0003e0 79 6f 6c 3d 03 a8 31 3d 8d 35 9d bd 4a 66 9c bd
       0.057723496 0.04337312 -0.076762296 -0.076366976
0003f0 44 cd 0a bd 02 36 fd 3c d6 7a 9b bd 2d f4 1d bb
       -0.033887163 0.030909542 -0.075917885 -0.002410184

blocks.0.conv_layers.2.weight f4 [8, 8, 10]
000000 63 fd 8a 3d 5e 90 2e bc 9b b4 b2 3d ef e6 7b bd
       0.06786611 -0.010654537 0.08725854 -0.061499532
000010 eb 0f 51 bd 4e 30 c8 3d 53 33 82 bc f3 bf af bc
       -0.05104057 0.097748384 -0.015893614 -0.021453833
000020 26 99 e5 bd 04 67 85 3d 56 61 e0 3d e5 f9 8c bd
       -0.11210851 0.06513789 0.10956065 -0.06883601
000030 ac 09 ad bd 11 8c a8 bd b0 7e d6 3d 6d 1c 9f bc
       -0.084491104 -0.082298405 0.104733825 -0.019422734
000040 a6 bf 99 3d 9c 52 c6 bd c1 ab b0 bd 2e 89 03 3d
       0.07507257 -0.09683725 -0.086265095 0.032113247
000050 20 47 33 3d 1c 5c 82 3b 19 0e 79 bc 2f 08 3b 3c
       0.043769002 0.0039782654 -0.015201115 0.011415525
000060 33 bc 1e 3b 00 ad bc bc 10 d7 ab 3d cf 04 3f bd
       0.0024221062 -0.023031712 0.08390629 -0.046635445
000070 a6 55 5b bd 44 61 43 bd ef 29 82 bd 31 6a 06 bc
       -0.053548478 -0.04770018 -0.063556544 -0.008204029
000080 1c 17 8e bd 3b 9d 95 3d de f9 90 3d 3c 8b 62 bc
       -0.069380015 0.0730538 0.070789084 -0.013827141
000090 a1 4d 8c 3d 4c c6 b5 bd 37 81 2e 3d e3 37 9e 3d
       0.06850744 -0.08875713 0.042603698 0.07725503
0000a0 8b e8 d9 bc 4e da a0 bd 54 ea 62 bd 7c b5 8c bc
       -0.026600143 -0.07854138 -0.055399254 -0.017176382
0000b0 d8 51 93 bd a8 c7 88 3d 10 6d 0e 3d 48 64 d5 bd
       -0.07193345 0.066787064 0.03477198 -0.10419518
0000c0 ab 74 63 3d 1f cb 70 3d 40 7d 89 3d 19 d0 05 bd
       0.055531185 0.05878746 0.06713343 -0.03266916
0000d0 e2 22 b1 bd 6f 85 48 3d f0 73 35 bc de dc 82 bd
       -0.086492315 0.048955377 -0.011075005 -0.06389783
0000e0 19 4a c1 3d 14 86 83 3d 4d 59 87 3a c4 da 0e 3d
       0.09437961 0.06422058 0.0010326296 0.0348766
0000f0 87 6d 1c be 08 e0 13 3a 16 d1 f3 bc 76 c6 11 bc
       -0.15276156 0.0005640988 -0.029762786 -0.008897414
000100 67 a8 13 be df 87 bf 3b 4a 3e ae bd b3 b1 db bd
       -0.14419709 0.0058450545 -0.085079744 -0.10727253
000110 82 30 0f be e6 05 6d 3c d8 4d a0 3d b8 29 a2 3d
       -0.13983348 0.014466738 0.078273475 0.079181135
000120 4a 95 0c bd 2c 4a 98 3d 6d 57 a1 bc 57 1f 62 3d
       -0.03432206 0.07436022 -0.019695008 0.05520567
000130 62 6e 1d bd ac fe 32 bd 31 b9 5f bc f2 55 b5 bd
       -0.038435347 -0.043699905 -0.013654993 -0.088542834
000140 93 06 b6 3b 72 e9 88 bd 4a a8 a3 3d 15 a0 59 bd
       0.005554983 -0.06685151 0.07991083 -0.05313118
000150 a7 b4 bf bc 48 f3 de 3c 04 3b 8d 3d bc bc 9f 3b
       -0.023401571 0.027215615 0.06896022 0.004874794
000160 d5 55 b8 3b f3 98 9b bd c3 c2 c2 bd af d7 11 3b
       0.0056254664 -0.07597532 -0.09509804 0.0022253802
000170 a8 5e 2c 3d ca f2 a6 bd 1c 2b 4f 3d 07 86 a8 bd
       0.04208246 -0.08151777 0.05057822 -0.08228689
000180 b8 4d 6e 3d 08 71 91 3d eb 6b 26 bc 56 a1 92 3d
       0.058179587 0.07101637 -0.010157566 0.07159679
000190 1c 4f 13 3d ca a0 a3 3b 0c 4b bd 3d f9 b1 36 3c
       0.035964116 0.004993533 0.0924283 0.01115083
0001a0 5e 98 af bd ad 27 b4 3d c6 1b 70 bc f8 63 99 bd
       -0.085739836 0.0879663 -0.014655059 -0.07489771
0001b0 20 50 e6 3a 8d ea 92 bc 50 8a ca bd c1 0b b1 3d
       0.0017571487 -0.017934108 -0.09889662 0.0864482
0001c0 1b 05 96 bd 10 6b dc bd 2b 5d 94 bd 21 4c 82 bc
       -0.073251925 -0.10762608 -0.07244333 -0.015905442
0001d0 47 c5 93 bd 58 dc 48 3d a9 76 28 3d 7f 6b 84 bd
       -0.07215362 0.04903826 0.04112879 -0.06465816
0001e0 21 f3 db bc 6d 50 5f bd 8f 25 81 3b c1 21 84 3d
       -0.026849331 -0.05452006 0.003941245 0.064517505
0001f0 9e 47 ea bc a0 42 88 bb 72 bf 82 3d f8 29 01 be
       -0.028598603 -0.004158333 0.063841715 -0.12613666
000200 59 1f 89 3d 93 6c 7f 3c 26 9c 18 3e 67 1c 49 3d
       0.06695432 0.015589851 0.14903316 0.049099352
000210 ac 9a 37 bd 7e ad 7d bd 35 69 99 3c 7e 35 c3 3c
       -0.04482524 -0.061933033 0.018726924 0.023829218
000220 62 6a 21 3d 84 a0 03 3e 4a 14 17 3e 65 08 52 3c
       0.039408095 0.128542 0.14753833 0.012819384
000230 b8 03 08 3d 1f 09 a6 3d 1a 8b a3 3c 76 ac 95 bd
       0.03320667 0.081072085 0.01996379 -0.07308285
000240 e1 3d 26 bc 84 5f 4f bb 50 e6 dd bd 07 50 72 bd
       -0.010146589 -0.0031642625 -0.10834944 -0.05915835
000250 ae 57 5f ba ba 42 9a bd 79 0a bf 3c 09 e9 8d bd
       -0.000851984 -0.07532258 0.023320423 -0.069292136
000260 5a 23 1f bc 9b cd 8f 3c 5f 49 10 3d cd ee a6 3d
       -0.009713018 0.017554095 0.035226222 0.081510164
000270 22 60 84 bd c6 0d 96 bd ff 45 96 bd fe 23 00 3e
       -0.064636484 -0.07326846 -0.073375694 0.1251373
000280 20 0d ab 3b 6b 65 a5 3b 91 c9 bf bc 99 6a d4 bc
       0.0052200705 0.0050474904 -0.023411544 -0.025929736
000290 9d e4 45 3d 9f a9 9f 3d d6 0b 46 bc 13 0e d1 bb
       0.048313726 0.077960245 -0.012087783 -0.0063798516
0002a0 53 22 7a 3c 8a eb b0 bc 68 f2 c5 bd 59 c7 8a 3d
       0.015266973 -0.021596689 -0.09665376 0.06776304
0002b0 26 a0 8e ba 2a dc c8 bd 74 c9 e7 3d 7a fe 18 3a
       -0.0010881468 -0.09807618 0.11317721 0.000583626
0002c0 7b c6 98 3c 0f 1f bd bc 05 06 16 bc 2f 19 84 3d
       0.01864933 -0.023086099 -0.009156709 0.06450116
0002d0 a5 9b b5 3d 17 c2 26 bd 45 cf e3 3d 7c 1d 17 bd
       0.088675775 -0.040712442 0.11123518 -0.036893353
0002e0 77 c2 5b bd d6 7a 5a bd 87 8a 2d 3d 29 38 d8 3c
       -0.053652253 -0.0533398 0.042368438 0.026393967
0002f0 34 a2 4f bd 12 2a 64 bd 54 0f ed 3b 13 e2 2f 3d
       -0.0506918 -0.055704184 0.0072344933 0.04294021
000300 f4 76 2d 3d d6 44 b0 bc 89 46 ce bc 5a 09 eb bd
       0.04234977 -0.021517199 -0.025180118 -0.11476393
000310 b8 e6 93 bd 92 f9 b8 bc cc 3a b5 bd 39 ce 2e bc
       -0.072217405 -0.022579942 -0.08849105 -0.0106692845
000320 f8 a3 51 bd b7 ff 9f 3d 6f 2d 79 bd 6a 69 67 bc
       -0.051181763 0.078124456 -0.060834344 -0.014124254
000330 f4 81 3a bd 73 20 d6 3d 4e 43 3d 3d 84 76 cc 3d
       -0.04553409 0.10455408 0.046206765 0.099835426
000340 35 73 a9 3d 0a 46 5e 3d 5c e8 e7 3c 41 76 c2 bd
       0.08273927 0.054266013 0.02830904 -0.094952114
000350 95 83 af 3d 31 27 e9 3d ed 8b 10 3d c4 e8 f6 3d
       0.08570019 0.11384428 0.035289694 0.12056115
000360 88 7f 1a 3d a1 e7 f0 bc 1e e9 6d 3d 8a a8 55 bd
       0.03771928 -0.029407324 0.058083646 -0.052162685
000370 26 93 a1 3d 21 0d a3 3d dd ea 43 3d f6 06 df bc
       0.078893945 0.079614885 0.047831405 -0.027224999
000380 61 31 43 3d 0e 01 06 3d 50 8e 04 3c dd d3 ca 3d
       0.047654513 0.03271585 0.008090571 0.09903691
000390 62 b3 6b 3d f4 87 c9 bc 3f 07 4c bd 46 c0 a5 bd
       0.05754412 -0.02460096 -0.049811598 -0.08093314
0003a0 75 b7 06 3e 0c ce b0 3d 7a bd 86 3b 2d 2c 27 bd
       0.13155921 0.0863305 0.004111943 -0.040813614
0003b0 1e c0 94 bd 2c 85 09 3d 6c 42 bd bc 4b a9 b3 3b
       -0.07263206 0.03357427 -0.023102961 0.005482828
0003c0 90 f3 d1 bc 4f 2a 60 3d 4e 3b 7f bd c4 5a bb bb
       -0.025628835 0.05472785 -0.062312417 -0.005717607
0003d0 1c 26 88 3d ba 4d 6e 3d 6f a6 a2 3d 7e 70 c2 bd
       0.06647894 0.058179595 0.07941901 -0.094941124
0003e0 f6 69 86 bd 35 13 38 bc 05 cc 7f bd fb c5 61 bb
       -0.06563179 -0.011235048 -0.062450428 -0.003445028
0003f0 71 af 7c bd 19 71 05 be ba 17 65 bd ba d7 8e bc
       -0.06169075 -0.13031425 -0.05593083 -0.01743685

blocks.0.batchnorm.weight f4 [8]
000000 00 00 80 3f 00 00 80 3f 00 00 80 3f 00 00 80 3f
       1.0 1.0 1.0 1.0
000010 00 00 80 3f 00 00 80 3f 00 00 80 3f 00 00 80 3f
       1.0 1.0 1.0 1.0

blocks.0.batchnorm.bias f4 [8]
000000 00 00 00 00 00 00 00 00 00 00 00 00 00 00 00 00
       0.0 0.0 0.0 0.0
000010 00 00 00 00 00 00 00 00 00 00 00 00 00 00 00 00
       0.0 0.0 0.0 0.0

blocks.0.batchnorm.running_mean f4 [8]
000000 00 00 00 00 00 00 00 00 00 00 00 00 00 00 00 00
       0.0 0.0 0.0 0.0
000010 00 00 00 00 00 00 00 00 00 00 00 00 00 00 00 00
       0.0 0.0 0.0 0.0

blocks.0.batchnorm.running_var f4 [8]
000000 00 00 80 3f 00 00 80 3f 00 00 80 3f 00 00 80 3f
       1.0 1.0 1.0 1.0
000010 00 00 80 3f 00 00 80 3f 00 00 80 3f 00 00 80 3f
       1.0 1.0 1.0 1.0

blocks.0.residual.0.weight f4 [8, 12, 1]
000000 7b 0e c5 3e 14 c5 71 bd 5c 7b 79 be 4d 90 1f 3e
       0.3848761 -0.05902584 -0.24363464 0.1558239
000010 35 62 2a 3c a4 fd 45 3e 70 11 96 be 0e bb 08 be
       0.010399391 0.19335037 -0.2931018 -0.13352606
000020 09 91 fc bd 88 5d 69 be 6d cb ca bd 84 38 2a be
       -0.12332351 -0.22789586 -0.09902082 -0.16623122
000030 9f f8 d1 3d 51 20 55 be ae 2d b2 bb 2c 18 39 be
       0.10252499 -0.20813109 -0.0054375743 -0.18075627
000040 4a fe 88 bd 2d 97 14 3e bd 9e b2 be 72 60 8e be
       -0.06689127 0.14510794 -0.34886733 -0.27807957
000050 74 de 1c be 7f 07 05 3f 5a d5 0d 3e ed 4a cb bc
       -0.15319234 0.51964563 0.13850918 -0.024816
000060 b4 3a 45 be 0f c2 16 3e bb 5f 15 3e 07 3a 5c 3e
       -0.19260675 0.14722465 0.145873 0.2150651
000070 97 e2 88 bd a3 f7 45 be 62 41 0a 3f ec c5 7a 3e
       -0.066838436 -0.19332747 0.54006016 0.24489564
000080 94 4c 41 3e fc 9e 8b 3e fe ff 5c 3c 6a 91 94 3d
       0.18876868 0.27269733 0.013488768 0.07254298
000090 72 eb 49 3d 92 3c 7b be f0 90 1a be 57 f5 43 be
       0.049296804 -0.24534824 -0.15094352 -0.19136558
0000a0 48 ca 8e bd bc 37 58 3e f3 0b 7b be df 81 9b be
       -0.06972176 0.21115011 -0.24516277 -0.3037252
0000b0 bb 5b 42 bd c1 6f c9 3b 5d 8b 85 3d d4 19 0d 3d
       -0.047450762 0.0061473553 0.06520722 0.03444846
0000c0 95 53 27 3d 81 fc f8 bd d5 87 9e bd 7d 7d d0 bd
       0.040851194 -0.12157536 -0.07740752 -0.10180185
0000d0 9f 8b 75 3d 57 43 6b 3d 17 cd 3e be d8 3e 03 be
       0.059947606 0.057437267 -0.18632923 -0.12816942
0000e0 fe bd 89 bd 22 36 78 bf f5 e5 aa 3c c2 bb 3d be
       -0.06725691 -0.969576 0.020861605 -0.18528655
0000f0 9a e0 60 3d 55 d2 48 be c5 d8 72 be f6 c8 86 be
       0.054901697 -0.19611485 -0.23715504 -0.26325196
000100 56 4e 3a 3e 67 c5 45 3e ad 2c e8 bd 9f bb e4 bd
       0.18193945 0.19313584 -0.11336646 -0.111685984
000110 56 96 66 be 1f f0 ff 3e 7e 8f ab 3d 6f 11 bb bd
       -0.22518286 0.49987885 0.08376978 -0.091341846
000120 6c 9e b6 3d ce ca 5a bd 17 80 c5 3d 73 88 8c be
       0.08916935 -0.053416066 0.09643572 -0.27447852
000130 52 d0 d4 3d b4 70 49 3d f8 6c 13 be 7e e2 36 bd
       0.103912964 0.049179748 -0.14397037 -0.044649594
000140 bd 20 89 bd cb 38 40 be 9d 6f 3f bf f7 84 93 bd
       -0.066956975 -0.18771665 -0.74779683 -0.072030954
000150 2a df 37 be f9 f6 06 3e be 5f e3 3d d2 79 89 3e
       -0.17956224 0.1318015 0.11102246 0.26850754
000160 e1 f9 e0 bd 5a bb 39 be 1b 5d 00 3f 2e ed 49 3e
       -0.109851606 -0.18137875 0.5014207 0.19719383
000170 05 98 35 3e 17 3c 86 3e 35 9a b7 3a fe ce 98 3d
       0.17733772 0.2621772 0.0014007749 0.074613556

blocks.0.residual.1.weight f4 [8]
000000 c4 6c 93 3f 0c 0e 51 3f 8a 2d e2 3f 3d 7b 3d 3f
       1.1517568 0.8166206 1.7670147 0.7401617
000010 1f 56 a9 3f 8f 35 46 3f e5 bb b2 3f c0 69 ef 3f
       1.3229407 0.77425474 1.3963591 1.8704147

blocks.0.residual.1.bias f4 [8]
000000 67 8e d3 3d 6a d1 91 be 3e bb fe 3d ac 4b 92 be
       0.103298955 -0.28480083 0.12438057 -0.28573358
000010 5b 4d 95 3e 81 56 ab be 6d 00 c3 3e 63 a2 f0 3d
       0.2916058 -0.33464435 0.38086262 0.11749723

blocks.0.residual.1.running_mean f4 [8]
000000 62 22 53 be 42 08 95 3e cb 7a db 3d e8 c9 a6 3d
       -0.20618585 0.29107863 0.1071678 0.08143979
000010 8e e5 0d bf a7 0e 4a 3e 49 ee 89 3e 31 a6 00 3e
       -0.554284 0.19732152 0.2693961 0.12563397

blocks.0.residual.1.running_var f4 [8]
000000 b4 6f 89 3e 7d 0f 93 3e 9e 5e d3 3e 69 a7 91 3e
       0.26843035 0.28722754 0.41283125 0.28448036
000010 c5 2e f7 3d 56 db 7c 3e 3a c3 c2 3e 80 4c b2 3e
       0.120694675 0.24693045 0.3803957 0.3482399

linear.weight f4 [1, 8]
000000 89 9c 44 bd dd d3 00 bc 41 2d 2e 3e 88 8a 1c 3b
       -0.048000846 -0.007863012 0.1700945 0.0023886282
000010 4e 25 14 be 89 f5 12 bc da 04 21 be 2d a2 64 3e
       -0.14467356 -0.008969673 -0.15724507 0.2232749
