models/saved_models/test.pth (torch, 258908 bytes, 7 tensors)

conv1.weight f4 [32, 12, 1]
00000000: 8028 063e 1f73 59bc d826 82b9 224a 833e
00000010: 2bfe 4e3c 8a33 743e 39a4 843e 342e b8bb
00000020: b97c 40be 18ba 1b3c 6791 1bbe 02a3 073e
00000030: 5501 49be c129 d43c e727 163e 7a9f 56be
00000040: dcf1 8bbc 6b20 2dbe 7ee5 ca3d 33a5 bebd
00000050: 94f8 5e3e 8519 62be f077 223d 8558 82be
00000060: f118 963e d08f 0ebe 5fa3 4f3e 16d9 6dbe
00000070: 77bb 163d 965f b3bd 59e7 823d 9369 733d
00000080: 39fc 2d3e 3618 ff3d 54fd 0ebe 6cd1 133e
00000090: affd dc3d 9e29 60be d91e 943d 805e 65be
000000a0: 347e 5d3e f9c2 d5bd 9a11 6bbe 13d3 593d
000000b0: 0142 1fbd c440 5b3e 6115 3bbe afcf bbbb
000000c0: 437c 4abe 5a4c 26bc 1d2b 8abe 53ce c7bc
000000d0: f584 443d 2a76 f4bd 0805 653e e02e 453e
000000e0: 241c 033e 3a57 2a3e ae01 50be 77c6 773e
000000f0: 846c 7a3e 93ce 25be 18cb a53d 3fca 88be
00000100: fbbd 373d e222 653e 78ab 263e c193 7cbe
00000110: f079 643e ba91 d03b a392 46be c674 563d
00000120: 1f37 173e 4c29 30be dcdb 233e 1f1f 36be
00000130: 08e1 d93d 89ca 6b3d f0e3 6bbd a882 953e
00000140: fa0b 72be f0af 333e 0e98 0c3e 1bc0 963d
00000150: eb74 e73d 0fee 763d 58e1 86ba 0147 72be
00000160: 3ef8 f33d 8098 35bd f344 1fbe b283 47be
00000170: 2992 f8bc 09cb 82be d1b8 91bb be9a f83d
00000180: e527 48be 1c50 e7bd bed8 59be 3e22 13be
00000190: e79f 4fbe f1ae f23d 6cbc 20be 85fc 8e3e
000001a0: 8d0c 843e 0438 613e 8c2d 40bd cd5b 68bd
000001b0: 4a8e ddbd 7997 4f3e dfbb cfbd d4a7 9abd
000001c0: 80af 863e fa16 63be 99fe 623e 0fdc edbc
000001d0: 7912 0dbe 4c05 83be ab65 983c 7625 203e
000001e0: 8109 d3bd 1b2e 683e 9f3b 3b3d d6bc dd3d
000001f0: 60ec 2d3e c1d2 64be 1319 35be fe65 a03d
00000200: 846a 97be c4fb 23be 7352 0d3e f313 84be
00000210: cc77 773e db17 fd3d fa52 ecbd 117a 51be
00000220: 9e51 883e bb8b 8b3d 459d b1bd 75f7 f8bd
00000230: 19b9 443e 80c6 9d3e bc90 623e 9af3 e7bd
00000240: fe83 123e 7261 bb3d 15af 05be ce56 3a3d
00000250: 79f1 2abe 5f84 11bd a10d 3cbe cd21 913e
00000260: 5d18 29be 6f83 fb3d a824 fbbd 0fd0 3a3e
00000270: fcb9 cd3c 5466 473d 4469 363e 8388 37bd
00000280: 27f8 33be efd7 1b3e 314c e33d 114c 9a3e
00000290: 8cd0 b23d fcc3 7c3c 324b 8fbe 2d34 833e
000002a0: 06b4 21bd 489d b63c d920 b7bd 27fd 833e
000002b0: ec65 bb3c abda 19be 6f30 113e 5801 913e
000002c0: 0f1a d9bd c9ab 14bd 25a1 64be aba5 5bbd
000002d0: 606b 803c 86c0 4c3e cb2f eabd d783 4b3d
000002e0: 38be 033d a56b 8abe 598d 003c d768 b73d
000002f0: 685d de3d ae51 82be 6b52 7cbc 26ea ebbd
00000300: 07e2 383d 4e3b 9b3e 01ed 1bbe 3d60 c33d
00000310: 0473 8d3e 3afb 8bbe 926f 72be f6ab 0abe
00000320: 6225 1bbe f494 8a3d c88c c93a ead3 8e3e
00000330: 6564 273e bfba 99be 4c97 8d3e 4dd1 8cbe
00000340: d750 8a3e df30 a3bd 030d 85be 0dab 36be
00000350: d2fb 6bbe 1d43 81be 6434 5abe 792c 37be
00000360: db99 2a3c 9584 863e e2da 533e db4e 913e
00000370: 8b9d be3d 75e9 093d 398a 9dbe 6cfe 8abe
00000380: 83fa cd3d fcce 413e 63db 54be 5f6f cb3d
00000390: 0498 b0bd 836c 98bd 4f8b f43d 95cd 96bd
000003a0: 75ae 053e 9e74 af3b b837 99be 0fdc 3b3e
000003b0: 002b a83d cc2f 0a3e 00c4 343d 0321 babd
000003c0: 96d3 31be a54f 8bbe b56a 713d 9284 cbbd
000003d0: e7e1 093d c703 8e3e 3580 ffbc 3ed9 383e
000003e0: 290d a3bd 5c74 44be 49ae 783e 4f48 36ba
000003f0: 7a61 9c3e 82a9 41be 3724 3bbe dee8 36bd
0.13101387 -0.013272076 -0.00024824473 0.25642496 0.012633841 0.23847786 0.25906542 -0.005620742
-0.18797578 0.009504817 -0.15192185 0.13245776 -0.19629414 0.025898816 0.14663659 -0.20959273
-0.017083101 -0.16906898 0.099070534 -0.09308853 0.21774513 -0.22080047 0.039665163 -0.2545816
0.29315904 -0.13922048 0.20277165 -0.23227343 0.036799874 -0.08758466 0.06391782 0.059426855
0.16990747 0.1245579 -0.13963825 0.14435357 0.10790574 -0.21890876 0.07232446 -0.2239933
0.21630174 -0.10437579 -0.22955933 0.05317981 -0.038881306 0.21411425 -0.18269874 -0.005731545
-0.19773965 -0.01015004 -0.26986018 -0.024390375 0.04797836 -0.119366005 0.223652 0.19256163
0.12803704 0.16634837 -0.20313141 0.24196802 0.24455458 -0.16192083 0.08095378 -0.26716802
0.044858914 0.22376588 0.16276348 -0.24665739 0.2231214 0.006365028 -0.19391875 0.052357458
0.14767121 -0.17203254 0.16001838 -0.1778531 0.106386244 0.0575662 -0.057590425 0.29201245
-0.23637381 0.17547584 0.1372988 0.0736086 0.11301597 0.060285624 -0.0010290546 -0.23659898
0.11912583 -0.04433489 -0.15553646 -0.19483832 -0.030343132 -0.2554553 -0.0044470807 0.1213889
-0.19546469 -0.112945765 -0.21274087 -0.14368531 -0.20275842 0.11849774 -0.15696877 0.27927032
0.25790825 0.21994025 -0.046918437 -0.056728173 -0.10818155 0.20272626 -0.101432554 -0.07551542
0.2630577 -0.22176734 0.22167434 -0.029035596 -0.13776578 -0.2558998 0.018603167 0.1563929
-0.10304547 0.22673838 0.045711156 0.10827033 0.16984701 -0.22346021 -0.17685346 0.078319535
-0.29573452 -0.1601401 0.13800983 -0.2579647 0.24166793 0.12358066 -0.11539264 -0.20456721
0.2662477 0.06813761 -0.08672575 -0.12156574 0.19211234 0.30815506 0.22125524 -0.1132576
0.14308164 0.091494456 -0.1305507 0.04549294 -0.16693677 -0.03552663 -0.18364574 0.283461
-0.165132 0.12280928 -0.12262851 0.1824343 0.025113098 0.048681572 0.17813593 -0.044807922
-0.17575131 0.15219091 0.11098517 0.3013616 0.087311834 0.015427586 -0.27987057 0.25625744
-0.039478324 0.022291794 -0.08941812 0.25779077 0.022875749 -0.15024821 0.14178632 0.28321338
-0.106006734 -0.03629664 -0.22327097 -0.05362479 0.0156762 0.19995317 -0.11434897 0.04968628
0.03216383 -0.2703525 0.0078462 0.089555435 0.108576596 -0.25452942 -0.015400509 -0.1151927
0.04513743 0.30318683 -0.15227129 0.0953984 0.27626812 -0.27340108 -0.23675373 -0.1354216
-0.15150979 0.06766692 0.0015377039 0.27896053 0.16346891 -0.30025288 0.27654493 -0.27503434
0.270148 -0.07968306 -0.2598649 -0.17838688 -0.2304528 -0.25246516 -0.21309048 -0.17888059
0.010412659 0.26273027 0.20688966 0.28380474 0.09307393 0.033669908 -0.30769518 -0.27147233
0.10057547 0.18926615 -0.20786814 0.09933352 -0.08622745 -0.07442572 0.119406335 -0.073634304
0.13054831 0.005354478 -0.29925323 0.18345664 0.082113266 0.13494796 0.044132233 -0.09088328
-0.1736587 -0.272092 0.058939654 -0.09937395 0.033662703 0.27737257 -0.031189064 0.18051621
-0.079614945 -0.19185013 0.24285235 -0.0006953524 0.3054312 -0.18912318 -0.18275534 -0.044655673

conv1.bias f4 [32]
00000000: a5ae 553b 1367 4e3d feb9 703d 8280 d13d
00000010: d29a 843e ebae 6fbd e97b e73d d0ef efbd
00000020: 9e52 453b 4556 583e de15 b73d 1025 6b3e
00000030: 7c37 1a3e 5196 a53c 4d25 683e 52ae a8b9
00000040: a201 993d 7c78 843e 8161 6dbe 5171 1d3e
00000050: 8d9e 5abe 9b4f 233e 64ca f93c 7b66 23be
00000060: 4583 4d3e 17fb 663c 6c73 b33d ac50 8fbd
00000070: c24c 5abe 2da5 51be cc4c 0abe cc5e 273e
0.0032605317 0.050391268 0.058771126 0.10229589 0.2589937 -0.058516424 0.11302931 -0.117156625
0.0030109058 0.21126659 0.08939718 0.22963357 0.15060228 0.020213278 0.22670479 -0.00032173336
0.074710146 0.25873172 -0.23181726 0.15375258 -0.21349545 0.15948336 0.030492015 -0.15957062
0.20069607 0.01409795 0.08762249 -0.06997809 -0.21318343 -0.20473166 -0.13505858 0.16344756

conv2.weight f4 [64, 32, 1]
00000000: a7fc 1bbe 79cc 813d 0a21 223e 38f6 07be
00000010: 073f 06be 9b5e 20be 3841 253e ff67 ad3d
00000020: acce 313e a323 10be 2364 c7bd 361d 133e
00000030: ae65 f6bd 06c5 10be 2d16 c5bd 3e41 1dbd
00000040: 5467 18bd 0cef 013e ecfd 103e 7b9f 423e
00000050: fcbd f0bd 285c 88bd 0271 033d 17d7 70bc
00000060: ed66 043e 3537 f03d 13ca 043d d233 35be
00000070: 42e5 1c3d 6777 66be 5655 073e af90 a0bd
00000080: 5ef5 8c3d b34c 97bd 8e66 2a3e 6758 c7bd
00000090: b4bd 233e daba 29be 183f 8dbd 0298 eb3d
000000a0: a5d4 4cbd 5e28 903d 99f0 e9bd 50bf 81be
000000b0: a9dc 4a3c 3839 14bd 114d f63d b3f0 a6bd
000000c0: 03ef d4bd ef38 0f3e 035e 11bc 94f4 93bd
000000d0: fb8c 143d d0c8 78bb 2709 873e 9a50 08bd
000000e0: ce39 bd3c 245d 1b3e c044 eebd 28c3 63be
000000f0: 6eeb abbd fa73 cabd 7b0b 483d 8388 2bbc
00000100: f1ff 5bbe 2a90 8a3d 51bd 8bbb c627 ae3d
00000110: 2fae e33d a542 cbbd 6f46 bc3c 945d 41be
00000120: db7d ec3c 15a6 7d3b 2004 22bd 51bf 7cbd
00000130: 83b8 9b3d 1c83 73bc 98c3 c13d 3512 563e
00000140: 559b 0d3d 9f4a 0cbe bf31 60be e413 51be
00000150: 6b99 dbbd 6124 d33d a234 a4bc 07a6 89bc
00000160: cee6 c33c 88d6 5bbc 5976 d43d 140b d8bc
00000170: 501d bc3d 1200 da3d 9d3a ec3d b18b e93d
00000180: e2ed c13d 108e 0e3e 71a0 583d d6f0 8fbd
00000190: 06c5 11be 299f 9c3c d62d c93d 7b04 c1bd
000001a0: d16e 5bbd 6a03 143e 523d b9bd bae0 38be
000001b0: 2443 2e3e 1488 033d ec57 62bc c944 793e
000001c0: 2a69 c23d 4ffe 813d 63a3 9d3c 63a1 11bd
000001d0: 5b0f 3d3e 7552 bcbd 0d53 b2bd 2996 18bd
000001e0: 1dc5 4a3d 33a4 75bd cb80 703c 8a07 0bbe
000001f0: 7a58 63be 2e74 18be 15fe f13c 2a0f b8bd
00000200: 106a bebc 0b5d ae3b 128d 13bd 6e14 303b
00000210: 0b43 b03d 89b1 a7bd 93ba c23d 8157 0f3e
00000220: 976b e13d 7580 09be e279 2ebe bdd1 dbbd
00000230: 2fde cf3d d3d9 1bbe 8de2 69bd eee8 1cbe
00000240: f778 403d ecdc a23d c6a8 36bd 37e7 1ebe
00000250: a088 a93d 8e45 cf3d 2909 083e 2742 0ebd
00000260: 6d3b e73d ef0f a43d c5a0 173e cf90 e83d
00000270: 38b2 0e3e 419e 32bc d601 80bd 8034 2bbd
00000280: 005e 94bd 092b 203e aa12 ce3d 8be3 43be
00000290: b54f db3d 96e4 523d e043 32be b9ba 0f3d
000002a0: 6e48 56bc 3cc2 11be 0027 003e 5db8 e2bc
000002b0: 1eb5 babd 0e08 eabd 2bc7 f93d 0e0c 03bc
000002c0: 8c04 4abe d5fb 823d 4bf3 a03d 2cf2 6c3d
000002d0: 10a9 40bd 7d53 d73d 1d1f 453c 003c 463e
000002e0: dfd3 7b3d 9a95 0cbe a826 bebd d397 06bc
000002f0: c56e 3cbe 67a2 fd3c c02a e6bd 83af 263e
00000300: effa 3f3e 010c 263e 6878 8ebd 4665 ad3c
00000310: 8e81 1fbc 5479 ab3d aaac 1d3e 0c0a 673d
00000320: 4b28 e1bd cc04 9c3d 2c3f 083e 4f62 07be
00000330: f0d4 ddbd f69c 14be 0e50 21be daa5 07be
00000340: 2b23 023e d056 363e 28b3 523e 52fa 64bd
00000350: 83b5 393e 67cf d6bd ed2e 723e f894 763d
00000360: bcf2 5a3d f390 16be d4c8 0abb 41f6 fb3d
00000370: 46bd f3bd 43cb 7bbd cff8 f93d 4a16 013e
00000380: c1d6 b83d 3aca 953d b089 dd3d c72f 823c
00000390: 48f0 26be 2dfa 433e 2ce7 c1bd b99e fabc
000003a0: 031c efbd 6ef5 7fbd 384d 70bd aa8e ee3d
000003b0: 49ad ce3c 4906 16be 09ad e1bd f080 f4bc
000003c0: e328 133e ba85 c0bc a5b4 0abe f876 08be
000003d0: a725 de3d 0f9c 863d f2f6 833d 8f4d b4bd
000003e0: cf3f 3bbe 3550 1fbe 5cb9 16bc f808 0b3e
000003f0: da27 ab3d 3f27 873c 22eb 11bd 530e d53d
-0.15233098 0.06337828 0.15832916 -0.13277519 -0.1310998 -0.15661089 0.1613816 0.08467101
0.17363995 -0.14076094 -0.097358964 0.14366612 -0.120311126 -0.14137658 -0.0962337 -0.038392298
-0.037207916 0.12688845 0.14159364 0.1900615 -0.11754987 -0.066582024 0.032090195 -0.014699719
0.12929888 0.1172928 0.032419275 -0.17695549 0.038304575 -0.22506486 0.13216147 -0.07840096
0.068827376 -0.07387676 0.16640684 -0.09733658 0.15990335 -0.16575184 -0.068968 0.115036026
-0.05000748 0.070389494 -0.114228435 -0.25341272 0.012381711 -0.03618738 0.12026418 -0.081513785
-0.1039715 0.13986562 -0.008872512 -0.07224384 0.036267262 -0.003796149 0.2637417 -0.033279993
0.023098852 0.15172249 -0.11634207 -0.22242415 -0.08394514 -0.09885402 0.048839074 -0.010469559
-0.21484353 0.06765778 -0.0042645116 0.0850368 0.11117207 -0.09924821 0.022982804 -0.18883353
0.028868606 0.003870373 -0.039554715 -0.06170589 0.07603552 -0.014862802 0.09461135 0.20905383
0.034571964 -0.1370034 -0.21893977 -0.20417744 -0.107226215 0.10309673 -0.020044629 -0.0168028
0.023913767 -0.013417847 0.103741355 -0.02637247 0.091852784 0.10644545 0.11534617 0.11403597
0.09469201 0.1392138 0.052887384 -0.07028358 -0.14235315 0.019118862 0.09823196 -0.09424683
-0.05357248 0.14454427 -0.09044899 -0.18054476 0.170178 0.032112196 -0.0138149075 0.24342646
0.09492715 0.06347334 0.019242948 -0.0355543 0.18462889 -0.09195415 -0.08707247 -0.03725258
0.049504388 -0.059971046 0.014679144 -0.13577095 -0.2220172 -0.14888069 0.029540101 -0.08987267
-0.023243934 0.00532115 -0.036023207 0.0026867646 0.086065374 -0.08188159 0.095082425 0.13998224
0.11006849 -0.13427909 -0.17038682 -0.10733364 0.101498 -0.15219812 -0.05710082 -0.1532323
0.04699036 0.07952294 -0.04459455 -0.15517889 0.08278012 0.101206884 0.13284744 -0.034731057
0.112906314 0.080108516 0.14807422 0.11355745 0.13935173 -0.0109019885 -0.0625035 -0.041798115
-0.072444916 0.15641417 0.10062154 -0.1912977 0.10708562 0.051487528 -0.17408705 0.035090182
-0.013078792 -0.14234251 0.12514877 -0.027675802 -0.091165766 -0.114273176 0.121961914 -0.0079984795
-0.19728297 0.063956894 0.078589045 0.05784814 -0.04703623 0.10513971 0.012031344 0.19358826
0.061481353 -0.13728943 -0.09284717 -0.008214909 -0.1840163 0.030961229 -0.11238623 0.1627789
0.18748067 0.16215517 -0.069565594 0.021166455 -0.009735478 0.08372751 0.15397897 0.056406066
-0.109940134 0.076181024 0.13305348 -0.13221096 -0.1083163 -0.14513001 -0.15753195 -0.13246861
0.12708728 0.17806554 0.20576155 -0.055902787 0.18135647 -0.104887776 0.23650713 0.06020066
0.053454146 -0.14703731 -0.0021176832 0.123028286 -0.119013354 -0.061473142 0.122056596 0.12606159
0.09025336 0.07313962 0.108172774 0.015891923 -0.16302598 0.19138403 -0.09467921 -0.030593263
-0.11675265 -0.06248992 -0.05866739 0.11648305 0.025229113 -0.14650835 -0.11019332 -0.029846638
0.14371066 -0.023501266 -0.13545473 -0.13326633 0.10847025 0.065727346 0.064435855 -0.08803856
-0.1828606 -0.1555794 -0.009199467 0.1357764 0.083572105 0.016498206 -0.03562463 0.10403123

conv2.bias f4 [64]
00000000: 2467 86bd b8e0 ccbb 3320 353c 800f 893d
00000010: 980c 693c 038e 133e f9dc 2cbe ccfd 9a3d
00000020: 4b98 da3d d96e 083d 901a 433d 8d93 0bbe
00000030: b20f 833d 262b ce3d 1789 c8ba 929f f1bd
00000040: 18a8 06bd d6ed 333d 9982 b5bd ac7c cebc
00000050: 2b07 06be 4d14 4fbe 2fa4 073e 75c9 27be
00000060: 3c21 a9bb 859f e73d b5c6 e5bd cc33 883d
00000070: cfa0 3cbd a5a4 16be f43f 39bd 2347 08be
00000080: 2ca7 b6bd 9db7 b2bd 0caf de3d 947c ae3d
00000090: f7bd 043e e52b 153e 16eb 063e 614c 0bbe
000000a0: 9a29 183d 0ac7 053c 522a a83d f2ca 1fbe
000000b0: ab82 2e3d 2be1 183e b660 aa3d f99d e5bc
000000c0: 3756 16bd 678e 093d ab0e 91bc 016b cb3d
000000d0: c3f7 2e3e ed20 203e 0b05 99bd 0b24 993d
000000e0: bca8 e33d e5ab 3d3d aefa 02be 3181 0dbd
000000f0: ce8b d83d 4f1c ab3c d9a8 f9bc aa4f 8a3d
-0.06562641 -0.0062523745 0.01105504 0.066924095 0.014224194 0.14409642 -0.1688117 0.07567939
0.10673579 0.033308838 0.047632754 -0.13630505 0.06399478 0.10066824 -0.0015299645 -0.11798014
-0.03287515 0.04392799 -0.088628 -0.025205933 -0.13088672 -0.20222588 0.13246225 -0.16385444
-0.0051614325 0.11309723 -0.11219541 0.066505045 -0.046051797 -0.14711244 -0.045227006 -0.13308387
-0.08918604 -0.08726428 0.10873231 0.08519855 0.12963091 0.14567526 0.13175616 -0.13603355
0.03714905 0.00816513 0.08211197 -0.15604761 0.042605083 0.14929645 0.083192274 -0.028029429
-0.036703315 0.03358307 -0.01770719 0.09932519 0.17086701 0.1563756 -0.07471665 0.07477578
0.11116168 0.04630651 -0.12790939 -0.034547035 0.10573541 0.020887522 -0.03047602 0.06753476

fc1.weight f4 [32, 1920]
00000000: 8959 89bc 0588 8dbc 339c 5dbc 3d12 d0bb
00000010: c635 7ebc a1ad 863c 6ee7 4d3c 2179 253c
00000020: 3d9d 5cbb 7a93 373c ed60 7bbb f654 843c
00000030: a5f0 063c ec58 323c dfee 073c 1a1c 563c
00000040: 85f7 8abc 266d 3cbc adc4 6abc 6f8f 453c
00000050: 6d95 81bc 0876 133c fb15 52bc ed0e d7bb
00000060: 5176 813c 06c2 89bc b3f2 a23c 4742 543a
00000070: 3a85 04bc f44c 19bc bbc7 76bc 55eb b43c
00000080: 377a 87bc 0113 ebbb 7e5d 383c a6f2 c23c
00000090: efa1 ca3c be6c 293b 2f21 1b39 7d55 573c
000000a0: 78f7 823c e54b 10bb b1ab 23bc 2af4 fdbb
000000b0: bcf2 723c 970f 62bc 4ecb 9dbc 6140 333c
000000c0: e8c5 38bc 073b 6cbc 3053 38bc 791c 86bc
000000d0: 2860 d43b 907c c73b f8df 45bc 2aa1 683c
000000e0: 5535 7ebc b6b4 b53c 0924 79bc 863f 053c
000000f0: 74c3 a4bc 671e 283c 5fab acbc 978a 4f3c
00000100: 4460 d93a 8603 00bc 402d 54bc 6819 bbba
00000110: 39f0 32bc 3c8f 87bb f900 9bbc ba20 acba
00000120: d2ac 4ebc c49f 033c 5cf0 183c 4e27 793b
00000130: aaa1 2fbb 8c4a 863c 0deb eabb 5a88 21bc
00000140: 270c 5f3c 9bbb c03a 8e8e 8bbc f293 5a3c
00000150: 018c 893b 455b 7aba ee4d cebc c1c8 7ebc
00000160: 78cf 503c 2e90 6dbc cd32 853c a8fa 2abc
00000170: acd5 b93b a1d3 cdbb 1b2a 093c 0ea0 9fbc
00000180: 31fb babb cf12 28bc ba61 703c 96da 95bc
00000190: 3fb7 a2bc f753 2a3c 6cea d3bc 4b31 ccbc
000001a0: 72df ddbb 57ad 33bc 4018 d8bb b0ab e7bc
000001b0: 2a11 ae3b 880f 0dbc 0944 eabc c75e 68bc
000001c0: 0801 2ebc fdc6 74bb 7b2c 083c b627 15bb
000001d0: 0f11 213c 4d06 e0bc aa2b eabc 2c39 97ba
000001e0: 9dee e4bb 0ce6 f63b 56e8 d6bc 5e81 e0bc
000001f0: ecf8 cbbc c7b4 d7bc aa73 5d39 366f a2bc
00000200: ff19 1fbb 7437 323c 590c 80bb 2df5 bcbb
00000210: 4cc3 e8bc 0302 c4bc d05f 903b 8e3a e33b
00000220: 8efd 7db9 ede7 11bc 3c02 363b 11f0 6fbb
00000230: 9044 dc3b 73a9 09bc 6dd8 76bc 5681 d6bc
00000240: 9482 03bc dff5 77ba 2930 7d3c fcca 543c
00000250: 0477 643b e84b acbc ea30 ecbb 2dbc a53a
00000260: 32ad 033c 1b62 613c f324 b8bb 6ae0 9f3b
00000270: bd80 8ebc cba3 5b3c 7343 debc f15c bbbb
00000280: 9e00 5c3b 75e6 dfbc 4af5 a5bc c415 e23b
00000290: 300a b1bc 30a6 9fbb 5f61 c2bc 1e28 87bb
000002a0: 76a2 3abc 77af c2bc c6b2 3e3c 16f2 0abc
000002b0: 9b70 9e3b e6be c33b 2fd4 fbbb ed05 47bc
000002c0: 8f50 afbc dc15 5e3c 8f3f 843c 2c72 cfbc
000002d0: 48ab 1e3a 3b5a 2fbc 434c c8bc 2a20 533b
000002e0: b7f6 55bc b402 27bc 74a5 98bc cdeb 5dbc
000002f0: 0cc7 0ebc 3f42 c2bc 015c c0bc 109a abbc
00000300: d083 42bc 4cd0 163c 3491 163c c02f c53a
00000310: c0e4 96ba 2e69 5ebb 11c3 65bc 015f 7fbb
00000320: 1e9f 78bc c2c2 203c 3cd0 a3bc 110e 4cbc
00000330: 3655 2e3c 957b d0bc d33b 193b ff63 833c
00000340: b48b 123b 0f40 5fbc 289b 143c 9093 473c
00000350: 8a07 fe3b 49ab 9a3c 5cb9 b9bc 8447 b7bc
00000360: 2e75 1a3a a2c0 a13c 329c 903c 339d 8fbc
00000370: 4736 09bc 3c54 cbbc 3b80 0ebc 731c 8f3c
00000380: 95e3 89bc 61d9 743c ce5d 3e3c 3f17 edbb
00000390: f59d c63c 8213 e5ba 93db c7bb f2a9 493c
000003a0: 6c14 493c f82e 0f3b f5b7 bc3c 8c8d 0d3c
000003b0: 3b1d b2b9 35e6 9abc d75a 253c fb44 943b
000003c0: 2414 293c 0a2b 643c ae3a 813b c690 cf3b
000003d0: 88d8 643a c3ab a4ba c8bc 9b3a ba9e 553c
000003e0: 5156 a7bc 1abf a8bc 6d67 3dbc 38e7 04bc
000003f0: c780 89bc edc3 89bc 240f 24bb 1be5 a23b
-0.016766327 -0.017276773 -0.01352601 -0.0063498304 -0.01551575 0.016440215 0.012567384 0.01009968
-0.0033663057 0.011204595 -0.0038357333 0.016153794 0.008236085 0.010885458 0.008296697 0.013068223
-0.01696373 -0.011500632 -0.014329118 0.012058123 -0.015818322 0.009000309 -0.012822623 -0.0065630586
0.015803488 -0.01681615 0.019891119 0.00080970343 -0.008088404 -0.009356726 -0.015062268 0.022084871
-0.016537769 -0.0071738963 0.011252759 0.023797344 0.02473542 0.002585217 0.00014794314 0.013142941
0.015987143 -0.0022017893 -0.009989665 -0.007750054 0.01482838 -0.013797662 -0.019261982 0.010940642
-0.011277653 -0.01441837 -0.011250302 -0.016370999 0.0064811893 0.006087847 -0.012077324 0.014198581
-0.015515645 0.022180896 -0.015206345 0.008132821 -0.02011273 0.010261155 -0.02107781 0.01266732
0.0016584476 -0.00781334 -0.012950242 -0.001427454 -0.010921531 -0.004136948 -0.018921362 -0.0013132312
-0.012614446 0.008033697 0.00933465 0.0038017812 -0.002679924 0.016392969 -0.0071691335 -0.009859169
0.013613737 0.0014704348 -0.017035749 0.013340937 0.004197598 -0.00095503434 -0.025183644 -0.015550793
0.012744777 -0.014499707 0.016259575 -0.010435738 0.0056712236 -0.0062813316 0.008371855 -0.0194855
-0.005706214 -0.010258391 0.014671737 -0.018292706 -0.01986277 0.010395995 -0.025868617 -0.024925848
-0.0067710215 -0.01096662 -0.0065946877 -0.02828011 0.0053121047 -0.00860966 -0.028596895 -0.014182753
-0.010620363 -0.0037350052 0.008311386 -0.0022759265 0.009830727 -0.027346754 -0.028585274 -0.0011537424
-0.0069864527 0.007534748 -0.026233833 -0.027405437 -0.024898969 -0.026331319 0.0002111929 -0.01982842
-0.002427697 0.010877479 -0.003907722 -0.005766532 -0.028413437 -0.02392674 0.004405953 0.0069344705
-0.00024222417 -0.008905393 0.0027772328 -0.0036611597 0.0067220405 -0.008402216 -0.015066248 -0.026184719
-0.008026738 -0.000945894 0.015453377 0.012987848 0.0034860978 -0.021032289 -0.0072079794 0.0012644582
0.008036898 0.0137563 -0.005619639 0.004879047 -0.017395372 0.0134057505 -0.027131772 -0.0057178666
0.0033569704 -0.02733157 -0.020258565 0.0068995673 -0.021611303 -0.004872106 -0.02372807 -0.0041246554
-0.011391273 -0.023765309 0.011639303 -0.008480569 0.004835201 0.0059736846 -0.0076852064 -0.012147409
-0.021400718 0.013555016 0.016143588 -0.025322996 0.00060527446 -0.010702665 -0.024450427 0.0032215216
-0.01305931 -0.010193516 -0.018633582 -0.013544989 -0.008714449 -0.02371323 -0.02348137 -0.020947486
-0.011872247 0.009204935 0.009189893 0.0015044138 -0.0011512265 -0.0033937204 -0.014023558 -0.003896654
-0.015174655 0.009812059 -0.019996755 -0.012454526 0.010640433 -0.025449554 0.0023381605 0.016038893
0.0022361102 -0.013626113 0.009070195 0.012181178 0.0077523636 0.018880503 -0.022671394 -0.022372968
0.0005892095 0.019745175 0.017652605 -0.017531013 -0.008374757 -0.02482044 -0.008697565 0.01746962
-0.016832152 0.014944405 0.0116190445 -0.007235437 0.024245242 -0.0017477127 -0.0060991733 0.0123085845
0.012272935 0.0021848064 0.023036936 0.008639704 -0.00033972584 -0.0189086 0.010092459 0.0045248247
0.010319743 0.013926277 0.0039437627 0.006334397 0.00087297754 -0.0012563396 0.0011881823 0.013038332
-0.020426901 -0.020598937 -0.011560303 -0.0081117675 -0.016785039 -0.016817058 -0.0025033439 0.004971159

fc1.bias f4 [32]
00000000: a49b 56bc 1ca0 923c 4163 b8bc 7e4b 033c
00000010: 795b 93bb 81f4 f83b 6251 b23c 7dc1 d13b
00000020: 20ba a5bc dc1d b93c 8474 433c e4bd 9dbc
00000030: 7ba7 bb3c c005 313d 9788 a9bc ab6d ac3c
00000040: 91c6 193b 1791 623b d918 c2bc 8368 683c
00000050: baba c5bc 99b4 f2bb 6ca0 093c b59e 193c
00000060: 8c3f b6bc a892 adbc 2b44 173c 7e48 0ebc
00000070: 87ec a7bc 642f 523c 3aff 24bc 4819 1ebc
-0.013098631 0.017898612 -0.022508265 0.008013604 -0.0044969884 0.0075975065 0.021767322 0.0064012394
-0.020230353 0.022597246 0.011929635 -0.019255586 0.02290701 0.043218374 -0.020695014 0.021048388
0.0023464302 0.0034571344 -0.023693489 0.014185074 -0.02413689 -0.007406783 0.008400064 0.009376218
-0.022247098 -0.021188095 0.009232561 -0.008684276 -0.020498527 0.012828682 -0.010070616 -0.009649582

fc2.weight f4 [1, 32]
00000000: 6f57 2c3e f7ac 0f3e 8292 8ebd 8aca f1bc
00000010: 60cd 073e 900e 7a3b 8b9a 20be 6ad3 5f3d
00000020: 0bc0 a23d 9885 d3bd 85fe 103e 9667 3b3e
00000030: d401 31be 57f2 53be 4df2 e3bd 30b0 28bd
00000040: bd96 5cbc 619a 183e 3b01 6b3a 5d2a 1d3e
00000050: 2e72 093d ccb5 153e 996d 9cbd a98f bc3b
00000060: 1d2f 1eb9 8a14 173e 31ca 3f3e 32d0 0fbd
00000070: 5c90 dc3a 2e71 5cbd a02f 1c3e 0880 c63d
0.16830228 0.14030825 -0.06961538 -0.029515523 0.13261938 0.0038155653 -0.15683953 0.05464498
0.079467855 -0.10328215 0.14159591 0.18301234 -0.17285854 -0.20697914 -0.111301996 -0.04118365
-0.013463673 0.14902641 0.0008964722 0.15348192 0.033556156 0.14620131 -0.076380916 0.0057544303
-0.00015085605 0.14753929 0.18729474 -0.03511066 0.001682769 -0.053818874 0.15252542 0.09692389
