models/saved_models/test1.pth (torch, 15225 bytes, 14 tensors)

blocks.0.bottleneck.weight f4 [1, 12, 1]
0.09980756 -0.22270812 -0.141652 -0.10095326 -0.14828566 0.056688625 0.031726923 -0.15554915
0.2342421 0.10939786 0.0751981 -0.26619333
00000000: e867 cc3d 990d 64be 390d 11be 95c0 cebd
00000010: 32d8 17be 5532 683d 17f4 013d 4748 1fbe
00000020: 29dd 6f3e fc0b e03d 7601 9a3d 7e4a 88be

blocks.0.conv_layers.0.weight f4 [8, 1, 41]
0.1447169 0.15410434 0.008096937 0.11202077 -0.059431516 -0.06871893 0.13676286 0.08889284
-0.01930029 -0.09395833 0.0914773 0.10355446 0.09461004 0.058158036 0.015469066 0.14063479
-0.076986834 -0.08742547 -0.023944505 -0.033966612 -0.12370064 -0.08864479 0.052544765 -0.11543789
-0.0035339745 -0.08759364 0.086892866 -0.059671212 -0.12485447 -0.12195455 -0.020998178 0.14223517
-0.12395359 -0.021706412 0.11052411 0.0944785 0.05482216 -0.0359388 -0.067604184 -0.055971798
0.060472105 -0.047422625 -0.04986019 -0.041362744 -0.1272712 0.11241329 0.17930265 -0.049365174
-0.06791381 0.06015534 0.15500829 -0.0133943325 0.04889403 0.094736405 0.09012403 0.06478852
0.06654405 -0.10403668 -0.03615607 0.13679129 0.1753482 0.26366276 -0.1425057 -0.10010326
-0.09972679 -0.068350576 -0.33390298 -0.344436 -0.083410904 -0.07243377 0.11988501 -0.051798675
0.16686063 -0.035710655 -0.20306365 -0.11703968 -0.043711904 0.1232548 0.025530245 0.095661
0.1827776 0.24109326 -0.23860931 -0.043224547 0.050541613 -0.007192835 -0.041550726 -0.20250839
-0.014749923 0.0017879691 0.03153625 0.11628348 -0.12429359 -0.020015752 0.0051345616 0.13236095
-0.053836957 0.2614365 0.23060642 0.08608437 -0.17878845 -0.08340327 0.05140716 0.11711663
-0.040761035 0.10314642 0.16012697 -0.06566827 0.14929643 0.04205976 -0.19471842 -0.15838975
-0.16577882 0.040991597 0.013358385 -0.0013701746 -0.12518816 0.07268629 -0.09416918 0.016109267
-0.091147676 0.17082238 -0.060336415 0.01101752 0.060180385 -0.12172416 0.03064105 0.103634425
0.11503157 0.03783519 0.0035536676 -0.199271 -0.17598166 0.10122885 0.06756881 0.07246744
-0.081770346 -0.04231903 0.08087191 0.042294677 -0.076642804 -0.01873943 -0.11421681 -0.08409564
0.11335032 -0.08406383 0.038320426 0.011904308 0.18272701 0.007010949 0.036660522 -0.09689983
-0.09204942 -0.17155366 0.091097504 -0.07418669 0.18720903 0.009278274 0.09026245 0.11728428
0.08006264 0.08004768 -0.022816345 -0.1410661 0.09461569 0.17294553 0.10921079 -0.03266864
0.0066992007 0.012109336 0.10501454 0.019109929 0.11829244 -0.059745293 0.069095194 -0.029989816
0.017098462 -0.04342811 -0.022966687 0.14929076 0.026829546 -0.046241708 -0.123294115 -0.1251579
-0.092676625 -0.109834425 0.11376351 0.009745274 -0.10162298 -0.030342327 -0.03481881 -0.13778658
0.14269799 -0.102648295 0.096282914 0.06255468 -0.13043715 -0.15394218 -0.025918571 0.07278165
-0.110019006 0.090634234 0.16241044 0.034702696 0.084547944 -0.084539704 -0.043228313 -0.05504624
-0.09238672 -0.1127125 -0.04129514 -0.07682256 0.13525656 0.12640837 0.13725677 0.13517141
0.08736957 -0.018620506 -0.04520635 -0.082678616 0.05432189 -0.17589365 0.09416388 0.23918173
0.19769338 0.2625168 0.05920605 0.07558847 -0.049401563 -0.16848867 -0.33690837 -0.2010843
-0.20422208 -0.11529871 -0.1524569 0.1877072 0.06312055 0.16260278 -0.094189785 -0.15901437
-0.0746465 0.13817222 0.086055994 -0.04036327 0.2421672 -0.031770844 0.12203405 -0.13493149
-0.0058808564 -0.020311782 0.1045774 0.13438232 -0.04065213 -0.12984303 -0.013688373 0.04764128
00000000: ab30 143e 87cd 1d3e 04a9 043c 256b e53d
00000010: 766e 73bd 83bc 8cbd 900b 0c3e 730d b63d
00000020: a41b 9ebc 3a6d c0bd 7358 bb3d 5c14 d43d
00000030: e9c2 c13d 1f37 6e3d f771 7d3c 9102 103e
00000040: 46ab 9dbd 200c b3bd 4427 c4bc 9320 0bbd
00000050: c356 fdbd 668b b5bd 2e39 573d b36a ecbd
00000060: 419a 67bb 4b64 b3bd e3f4 b13d cd69 74bd
00000070: b3b3 ffbd 4fc3 f9bd 5f04 acbc 19a6 113e
00000080: 61db fdbd a5d1 b1bc 775a e23d f27d c13d
00000090: 348d 603d 9034 13bd 1074 8abd af42 65bd
000000a0: 99b1 773d 3a3e 42bd 333a 4cbd fb6b 29bd
000000b0: 6253 02be f038 e63d 1d9b 373e 2333 4abd
000000c0: 6516 8bbd 7265 763d 7eba 1e3e e773 5bbc
000000d0: 1b45 483d 2905 c23d f392 b83d d8af 843d
000000e0: 3f48 883d 2f11 d5bd 6318 14bd 0413 0c3e
000000f0: 7b8e 333e cefe 863e 04ed 11be f002 cdbd
00000100: 8f3d ccbd 63fb 8bbd 55f5 aabe ea59 b0be
00000110: 56d3 aabd 2858 94bd 4686 f53d d92a 54bd
00000120: 83dd 2a3e 5645 12bd ebef 4fbe 80b2 efbd
00000130: 410b 33bd 036d fc3d ce24 d13c eae9 c33d
00000140: 0d2a 3b3e 27e1 763e 0056 74be 390c 31bd
00000150: b904 4f3d e0b1 ebbb 1831 2abd 5c5e 4fbe
00000160: a9a9 71bc 4a5a ea3a 282c 013d 0826 ee3d
00000170: a38d febd 13f8 a3bc d33f a83b a189 073e
00000180: 2484 5cbd 01db 853e 1724 6c3e 014d b03d
00000190: 5214 37be 55cf aabd 5090 523d d8da ef3d
000001a0: 0bf5 26bd 6e3e d33d 53f8 233e 167d 86bd
000001b0: 2ae1 183e db46 2c3d 4464 47be ec30 22be
000001c0: ecc1 29be cee6 273d 21dd 5a3c 6e97 b3ba
000001d0: 5331 00be 8ddc 943d c5db c0bd 95f7 833c
000001e0: a2ab babd 10ec 2e3e 5123 77bd d482 343c
000001f0: b57f 763d 844a f9bd f002 fb3c 493e d43d
00000200: ac95 eb3d 12f9 1a3d a6e4 683b b20d 4cbe
00000210: 8934 34be 1251 cf3d 8461 8a3d cf69 943d
00000220: 3677 a7bd b856 2dbd 2ca0 a53d 2f3d 2d3d
00000230: e7f6 9cbd 6f83 99bc 81ea e9bd 563a acbd
00000240: 3624 e83d a829 acbd e1f5 1c3d 490a 433c
00000250: ca1c 3b3e 1abc e53b 5829 163d 6b73 c6bd
00000260: 6884 bcbd c3ab 2fbe 5491 ba3d 31ef 97bd
00000270: b9b3 3f3e e703 183c 85db b83d be32 f03d
00000280: e2f7 a33d 0af0 a33d 58e9 babc a273 10be
00000290: dfc5 c13d a218 313e e8a9 df3d 8dcf 05bd
000002a0: f884 db3b 3d66 463c dd11 d73d 6d8c 9c3c
000002b0: 4f43 f23d 7bb7 74bd c881 8d3d 34ad f5bc
000002c0: 1312 8c3c ade1 31bd a224 bcbc addf 183e
000002d0: a3c9 db3c f267 3dbd a081 fcbd 6429 00be
000002e0: 3ecd bdbd dff0 e0bd d8fc e83d a4aa 1f3c
000002f0: b51f d0bd 7990 f8bc 2b9e 0ebd ed17 0dbe
00000300: 6c1f 123e 4539 d2bd fa2f c53d ab1c 803d
00000310: 5191 05be 05a3 1dbe 2f53 d4bc 8c0e 953d
00000320: a551 e1bd 719e b93d ec4e 263e 6a24 0e3d
00000330: 7927 ad3d 2723 adbd 2c10 31bd 2b78 61bd
00000340: 4035 bdbd d0d5 e6bd 1825 29bd 2555 9dbd
00000350: b280 0a3e 3271 013e 0a8d 0c3e 606a 0a3e
00000360: d1ee b23d 088a 98bc 4b2a 39bd 6853 a9bd
00000370: a180 5e3d 771d 34be fed8 c03d 0eec 743e
00000380: 2270 4a3e 9a68 863e 0b82 723d 21ce 9a3d
00000390: 4b59 4abd 4b88 2cbe 417f acbe 0be9 4dbe
000003a0: 981f 51be bb21 ecbd a91d 1cbe 5136 403e
000003b0: 5945 813d 5881 263e 93e6 c0bd aad4 22be
000003c0: 44e0 98bd 057d 0d3e 203e b03d f553 25bd
000003d0: aefa 773e 2522 02bd fdec f93d 7b2b 0abe
000003e0: 33b4 c0bb e564 a6bc ad2c d63d 859b 093e
000003f0: d982 26bd 92f5 04be 3345 60bc 8123 433d

blocks.0.conv_layers.1.weight f4 [8, 8, 20]
-0.040617276 0.015685322 -0.017939264 -0.033278834 -0.057807293 -0.04367482 -0.029229963 -0.037523746
0.032270268 0.04375811 0.058220107 0.034689464 0.007916621 0.05582323 0.0035584208 0.013064104
-0.0137319965 0.01932916 0.045231808 0.024993524 -0.105215885 -0.06855311 -0.0066772033 0.012126048
-0.06702486 -0.011798383 0.076418884 0.034863535 -0.04596402 0.048661016 -0.069030106 -0.011519405
-0.082981855 -0.13423651 -0.103658766 0.03432385 0.07695668 0.039737977 0.051763557 0.10868799
0.016650174 0.057080626 -0.019738225 0.09136738 0.061031725 0.02536768 -0.034995016 -0.023084871
-0.068321705 -0.073815614 -0.03952306 -0.104480125 -0.03277473 -0.06891808 0.05881167 -0.04697074
-0.030111719 0.019898642 0.020201536 0.07747546 0.060145263 -0.01321844 -0.03282558 0.037804455
0.090271905 -0.036596887 0.011433175 -0.033181507 0.018696798 -0.057031278 -0.007915132 0.0017761909
-0.0022643125 0.030086424 0.06022496 -0.04275212 -0.0062562716 -0.028878972 -0.00436428 0.03703796
-0.019129114 0.037668258 -0.09066926 -0.056543328 0.049052596 -0.05863041 -0.068722 0.00219346
0.058305416 -0.03845557 -0.036867633 -0.0612395 -0.0018848147 -0.014689954 0.017661458 0.035425127
-0.016629571 0.05872061 0.09340011 -0.006853168 -0.07434876 0.018387228 -0.07228034 -0.012277574
0.06562191 0.030851692 0.102542095 0.10742867 0.027984722 -0.015983716 -0.13325773 -0.14037184
-0.12622753 -0.120463975 -0.066722296 0.02310979 0.014514988 0.13282745 0.1545877 0.10172653
-0.080576755 0.018146459 -0.110167 -0.09540828 -0.120145045 0.017665755 -0.0641699 -0.058686696
-0.045359768 0.004730848 0.0532797 0.11782292 0.15786624 0.085017495 -0.0037410334 0.08836714
-0.007744019 -0.07142471 -0.031047547 -0.0036681422 0.064964816 0.062098563 -0.058014415 -0.035206497
0.030802617 0.047024127 -0.045783434 -0.03496683 -0.0027440945 0.054026686 -0.003407106 0.048774045
-0.044445995 -0.06305843 0.029175624 -0.08477991 -0.04154603 0.045954563 -0.036163464 -0.04052235
-0.045097828 -0.06123153 -0.05250985 0.03662305 0.05068397 0.039531365 -0.08036129 -0.0027611526
0.012712712 0.042175923 -0.07494806 -0.051275514 0.041867346 0.002493136 -0.006019737 -0.025254168
-0.06770527 -0.06224249 0.050494906 0.07878422 -0.062403027 -0.10327335 -0.023344265 0.045829784
-0.06577626 0.014160328 0.10814864 0.0492202 -0.016282517 -0.051585816 -0.06881942 -0.12096162
-0.045211904 -0.009643307 0.007445037 -0.0139731895 0.04458301 0.08632099 0.1100236 0.06382383
0.102722354 -0.010907038 0.06474542 0.08945972 -0.044184364 -0.055505205 0.046762053 -0.05697962
0.025155248 0.016454343 0.061352577 -0.08793358 -0.081121475 -0.044614673 0.01710388 -0.022364091
-0.020766903 -0.036440693 0.0007864442 0.020899164 0.0041274764 0.061256524 0.03628065 -0.04977245
0.0049820975 0.06595795 0.029458206 0.04943814 -0.001021137 -0.005569657 0.02484343 -5.8715013e-05
0.057171382 -0.01854277 0.0006215726 -0.04013842 -0.002835562 -0.04392126 0.004366524 0.019677125
0.012814782 0.0043383385 0.004646643 0.05793161 -0.056042623 0.025608886 0.022621062 0.048017364
0.08092443 -0.074882895 -0.03286297 0.01904347 0.022525009 0.0017052079 -0.06499867 -0.021445714
00000000: 4d5e 26bd 817e 803c 5df5 92bc 634f 08bd
00000010: 57c7 6cbd 5ee4 32bd ad73 efbc 80b2 19bd
00000020: d42d 043d b43b 333d 3578 6e3d 8a16 0e3d
00000030: b7b4 013c e6a6 643d 6534 693b d30a 563c
00000040: 2bfc 60bc 3058 9e3c fd44 393d 38bf cc3c
00000050: 6d7b d7bd 9365 8cbd 71cc dabb 55ac 463c
00000060: 5444 89bd 014e 41bc 8181 9c3d 11cd 0e3d
00000070: c544 3cbd c650 473d a85f 8dbd e3bb 3cbc
00000080: 64f2 a9bd 4c75 09be 0c4b d4bd 2a97 0c3d
00000090: 779b 9d3d 4ac4 223d 0606 543d cf97 de3d
000000a0: f265 883c 60cd 693d 0fb2 a1bc d21e bb3d
000000b0: 67fc 793d e1cf cf3c ef56 0fbd 7c1c bdbc
000000c0: 40ec 8bbd a42c 97bd efe2 21bd adf9 d5bd
000000d0: cc3e 06bd ec24 8dbd 81e4 703d 6464 40bd
000000e0: daac f6bc 7a02 a33c b17d a53c 74ab 9e3d
000000f0: e15a 763d 2892 58bc 1e74 06bd d8d8 1a3d
00000100: 7ae0 b83d 9ee6 15bd 3652 3b3c 55e9 07bd
00000110: 072a 993c a199 69bd 78ae 01bc 14cf e83a
00000120: dc64 14bb ce77 f63c 73ae 763d d91c 2fbd
00000130: 6901 cdbb 9893 ecbc 3c02 8fbb 1eb5 173d
00000140: a9b4 9cbc 084a 1a3d ceb0 b9bd fa99 67bd
00000150: 60eb 483d 7126 70bd 1fbe 8cbd 27c0 0f3b
00000160: a9d1 6e3d 9683 1dbd 8402 17bd 45d6 7abd
00000170: e30b f7ba 22ae 70bc c3ae 903c f019 113d
00000180: bd3a 88bc 0685 703d 8f48 bf3d 8a90 e0bb
00000190: 2a44 98bd d0a0 963c b707 94bd e127 49bc
000001a0: c864 863d b0bc fc3c 9701 d23d 9003 dc3d
000001b0: 3740 e53c 48f0 82bc b774 08be a3bd 0fbe
000001c0: ca41 01be d1b5 f6bd b3a5 88bd be50 bd3c
000001d0: 46d0 6d3c eb03 083e 3d4c 1e3e 0056 d03d
000001e0: 6d05 a5bd e2a7 943c 3c9f e1bd 6b65 c3bd
000001f0: 9b0e f6bd c6b7 903c 826b 83bd 7661 70bd
00000200: 2acb 39bd 3b05 9b3b d13b 5a3d 254d f13d
00000210: b0a7 213e a71d ae3d 202c 75bb d5f9 b43d
00000220: 8ac1 fdbb 1e47 92bd 6d57 febc 3765 70bb
00000230: 460c 853d 105b 7e3d 86a0 6dbd b034 10bd
00000240: c555 fc3c 5f9c 403d 6987 3bbd 6139 0fbd
00000250: 44d6 33bb 164b 5d3d c149 5fbb 4bc7 473d
00000260: 010d 36bd c724 81bd b801 ef3c 17a1 adbd
00000270: 2c2c 2abd da3a 3c3d 2420 14bd c4fa 25bd
00000280: 80b8 38bd eacd 7abd 9214 57bd 0d02 163d
00000290: ff99 4f3d a4eb 213d 7694 a4bd 74f4 34bb
000002a0: fb48 503c a9c0 2c3d 5e7e 99bd 4606 52bd
000002b0: 187d 2b3d e263 233b 3741 c5bb d4e1 cebc
000002c0: 10a9 8abd fbf1 7ebd bfd3 4e3d 9f59 a13d
000002d0: 519a 7fbd fa80 d3bd 793c bfbc 03b8 3b3d
000002e0: b4b5 86bd b800 683c 097d dd3d 1f9b 493d
000002f0: ea62 85bc a64b 53bd 32f1 8cbd baba f7bd
00000300: 1e30 39bd f6fe 1dbc 7ff5 f33b ceef 64bc
00000310: ad9c 363d 0fc9 b03d 0e54 e13d 11b6 823d
00000320: 1960 d23d 6fb3 32bc 3f99 843d a836 b73d
00000330: aafa 34bd 6d59 63bd 9189 3f3d 7663 69bd
00000340: 6112 ce3c 42cb 863c d74c 7b3d 8516 b4bd
00000350: 0423 a6bd e0bd 36bd 701d 8c3c e634 b7bc
00000360: 5a1f aabc d642 15bd 6029 4e3a b934 ab3c
00000370: c83f 873b 1fe8 7a3d 059b 143d 32de 4bbd
00000380: dd40 a33b f614 873d 5652 f13c a67f 4a3d
00000390: acd7 85ba ab81 b6bb 7384 cb3c c444 76b8
000003a0: 8a2c 6a3d 02e7 97bc 08f1 223a 2f68 24bd
000003b0: d6d4 39bb c7e6 33bd 0f15 8f3b ec31 a13c
000003c0: 17f5 513c 9f28 8e3b de42 983b b249 6d3d
000003d0: f38c 65bd bac9 d13c ce4f b93c dbad 443d
000003e0: b5bb a53d 345c 99bd 529b 06bd 0d01 9c3c
000003f0: 5e86 b83c 4881 df3a 061e 85bd ecae afbc

blocks.0.conv_layers.2.weight f4 [8, 8, 10]
-0.078899376 0.023751616 0.051646348 -0.055224556 0.014257736 -0.037575882 -0.08597098 0.086557336
-0.07525934 0.018867036 -0.09222549 0.011571171 0.0883771 -0.05104426 0.027434098 0.050110515
-0.038637683 -0.047468867 0.118537456 0.059372667 -0.3164839 -0.3134941 -0.26869842 0.023926124
0.08667493 0.067135185 0.14489399 0.27180475 0.13905072 0.13280295 0.09939337 0.050895702
0.08550695 -0.06599595 0.052809455 0.08979879 0.07446316 -0.035243087 -0.090566665 0.13910007
-0.07017013 -0.15493234 0.097753234 0.057962533 0.054961808 -0.0038224994 0.016067276 -0.022882286
0.041728698 -0.069452845 0.097446546 0.0011635193 0.090831496 0.0064640734 -0.07761066 0.0046104034
0.12012353 0.105417624 0.058399756 -0.0032154275 -0.115210354 -0.08118423 -0.10605082 0.024118023
0.15050595 -0.016950084 0.17400602 0.16211522 0.14281128 -0.10263647 -0.32339874 -0.17075594
-0.26205826 -0.1851487 0.112549335 0.22797364 0.18002509 0.123948954 0.05004431 0.12331098
-0.048796043 0.10458338 -0.03425519 0.08925703 -0.11015855 0.031351194 0.08853521 -0.04366789
-0.098371 -0.045288 0.0116061 -0.027251542 0.03775623 -0.022860978 0.08363457 -0.08677092
-0.09009855 -0.012893358 0.103069074 -0.11601315 0.13027297 0.13383202 0.20361635 0.056967918
-0.09947735 -0.0458027 -0.21522085 -0.0513072 -0.009705901 -0.13190374 -0.0052063493 0.056403138
0.045514103 0.08567058 0.091611244 -0.098672174 0.06775077 0.09461198 0.09319943 0.093381934
0.09868782 0.069339484 0.06121779 -0.12302831 -0.024057541 -0.08757877 -0.002216399 -0.12447052
-0.084615014 -0.025546676 0.07214373 0.10831363 0.029253595 -0.069685645 0.0077921706 -0.021714782
0.036825538 -0.06871998 -0.057127316 -0.07767193 0.14746667 0.15478301 0.16262342 0.04611607
0.05009085 -0.008072958 -0.16766895 -0.03536808 0.02961006 -0.04765155 0.14612906 0.19004421
0.18001899 0.004583925 -0.04295424 -0.0818998 -0.03473855 -0.10196668 -0.19468878 0.012189081
0.0028128666 -0.11344538 -0.11903754 -0.0075519993 -0.02295078 0.01048761 -0.076565504 -0.026811358
0.10459292 -0.032213036 -0.012097772 -0.012325009 -0.12581047 -0.12732702 -0.006901244 0.025059516
-0.08002972 -0.028968701 0.0696593 -0.07627607 -0.17228287 -0.3074726 -0.1112243 -0.1726544
0.09688756 0.081574015 0.19123177 0.21315739 0.07557479 0.19097194 -0.10279423 0.036337305
-0.026963642 0.051971436 -0.013457144 0.074832395 -0.09772117 -0.038572975 0.06874466 0.041163575
-0.020834807 0.015116506 -0.014513245 -0.017484795 0.03037656 -0.052061863 0.12591568 0.11843555
0.0654158 -0.10581914 -0.036106627 0.12478606 -0.059183363 0.0020105338 0.07522088 0.11160819
0.07741918 -0.006608739 -0.009459437 0.09118289 -0.19544567 -0.08022683 -0.037349753 0.013229325
0.09468539 0.03554672 0.17774017 0.0058520758 0.0816061 0.097286716 -0.30436492 -0.16465865
-0.11558487 -0.02191276 0.054015215 0.050158802 0.13376342 0.19832292 0.16254164 0.06224854
-0.0782976 0.046258867 0.0486542 0.055415243 -0.0056512314 0.034553196 -0.1258625 -0.0716654
-0.063454196 -0.028435573 -0.06601467 0.0013250348 0.062276665 0.11948377 -0.023618218 0.0051548146
00000000: ff95 a1bd c092 c23c 1f8b 533d 2533 62bd
00000010: 4799 693c 2be9 19bd 8e11 b0bd f944 b13d
00000020: 9221 9abd 0b8f 9a3c b8e0 bcbd 0295 3d3c
00000030: 0eff b43d c913 51bd 79bd e03c af40 4d3d
00000040: 8c42 1ebd b76e 42bd c4c3 f23d c130 733d
00000050: 2e0a a2be 4c82 a0be d792 89be b800 c43c
00000060: a082 b13d 2c7e 893d 175f 143e fe29 8b3e
00000070: 5063 0e3e 7ffd 073e c08e cb3d 0378 503d
00000080: 451e af3d e228 87bd ba4e 583d 6ee8 b73d
00000090: 2480 983d 0e5b 10bd 047b b9bd 4070 0e3e
000000a0: 5bb5 8fbd 95a6 1ebe d932 c83d 1f6a 6d3d
000000b0: a21f 613d e682 7abb 859f 833c a273 bbbc
000000c0: b6eb 2a3d 4b3d 8ebd 0e92 c73d 3b81 983a
000000d0: dd05 ba3d 94d0 d33b 56f2 9ebd de12 973b
000000e0: 5303 f63d 32e5 d73d 9534 6f3d ecb9 52bb
000000f0: 68f3 ebbd eb43 a6bd 2c31 d9bd 2993 c53c
00000100: 3b1e 1a3e e7da 8abc a22e 323e 8801 263e
00000110: 1f3d 123e 1233 d2bd 8594 a5be a5da 2ebe
00000120: 802c 86be 9f97 3dbe 4480 e63d ec71 693e
00000130: 7f58 383e f3d8 fd3d 43fb 4c3d 788a fc3d
00000140: 5cde 47bd d02f d63d 2c4f 0cbd 64cc b63d
00000150: ce9a e1bd 1c6a 003d f351 b53d 1add 32bd
00000160: bc76 c9bd e97f 39bd 8327 3e3c a03e dfbc
00000170: 47a6 1a3d f246 bbbc 9a48 ab3d f4b4 b1bd
00000180: 9785 b8bd aa3e 53bc e115 d33d 4d98 edbd
00000190: 4766 053e 430b 093e ce80 503e 3157 693d
000001a0: c8ba cbbd 9d9b 3bbd db62 5cbe 8027 52bd
000001b0: 8005 1fbc c611 07be 069a aabb fa06 673d
000001c0: ff6c 3a3d 0f74 af3d ad9e bb3d a314 cabd
000001d0: eac0 8a3d edc3 c13d 58df be3d 073f bf3d
000001e0: d71c ca3d dc01 8e3d 81bf 7a3d 44f6 fbbd
000001f0: 5214 c5bc 805c b3bd 0141 11bb 66ea febd
00000200: a34a adbd 4347 d1bc 18c0 933d 89d3 dd3d
00000210: 3ca5 ef3c 59b7 8ebd 7755 ff3b 33e3 b1bc
00000220: 60d6 163d 10bd 8cbd 55fe 69bd 7612 9fbd
00000230: 8101 173e 707f 1e3e c186 263e 34e4 3c3d
00000240: 102c 4d3d 7144 04bc 69b1 2bbe 1fde 10bd
00000250: cc90 f23c 462e 43bd dba2 153e f39a 423e
00000260: e656 383e c034 963b c9f0 2fbd 15bb a7bd
00000270: 034a 0ebd e8d3 d0bd 7f5c 47be b6b4 473c
00000280: 1258 383b 0d56 e8bd f4c9 f3bd c376 f7bb
00000290: 4603 bcbc 39d4 2b3c 60ce 9cbd 7ea3 dbbc
000002a0: d034 d63d d1f1 03bd bc35 46bc d6ee 49bc
000002b0: 76d4 00be 0462 02be d523 e2bb 9d49 cd3c
000002c0: 9fe6 a3bd c54f edbc 89a9 8e3d a136 9cbd
000002d0: ec6a 30be 0c6d 9dbe 91c9 e3bd 51cc 30be
000002e0: fc6c c63d 4710 a73d 43d2 433e ee45 5a3e
000002f0: f5c6 9a3d 268e 433e c885 d2bd 6dd6 143d
00000300: dbe2 dcbc 00e0 543d 5a7b 5cbc ba41 993d
00000310: 0922 c8bd b2fe 1dbd 00ca 8c3d 239b 283d
00000320: c2ad aabc 39ab 773c f6c8 6dbc 463c 8fbc
00000330: 43d8 f83c d23e 55bd 0af0 003e 568e f23d
00000340: b8f8 853d b5b7 d8bd 8be4 13bd d58f ff3d
00000350: 416a 72bd 29c3 033b 680d 9a3d d692 e43d
00000360: f28d 9e3d 1f8e d8bb c1fb 1abc 18be ba3d
00000370: e922 48be f74d a4bd 0efc 18bd d0bf 583c
00000380: 6aea c13d 7099 113d 8501 363e c5c2 bf3b
00000390: 1921 a73d 423e c73d b8d5 9bbe 479c 28be
000003a0: c3b7 ecbd 6382 b3bc 0f3f 5d3d 5173 4d3d
000003b0: 47f9 083e 2a15 4b3e 5171 263e 53f8 7e3d
000003c0: 7e5a a0bd f079 3d3d a049 473d 18fb 623d
000003d0: f72d b9bb a787 0d3d 19e2 00be 4fc5 92bd
000003e0: 46f4 81bd b8f1 e8bc b332 87bd caac ad3a
000003f0: d115 7f3d e8b3 f43d fe7a c1bc b8e9 a83b

blocks.0.batchnorm.weight f4 [8]
1.0 1.0 1.0 1.0 1.0 1.0 1.0 1.0
00000000: 0000 803f 0000 803f 0000 803f 0000 803f
00000010: 0000 803f 0000 803f 0000 803f 0000 803f

blocks.0.batchnorm.bias f4 [8]
0.0 0.0 0.0 0.0 0.0 0.0 0.0 0.0
00000000: 0000 0000 0000 0000 0000 0000 0000 0000
00000010: 0000 0000 0000 0000 0000 0000 0000 0000

blocks.0.batchnorm.running_mean f4 [8]
0.0 0.0 0.0 0.0 0.0 0.0 0.0 0.0
00000000: 0000 0000 0000 0000 0000 0000 0000 0000
00000010: 0000 0000 0000 0000 0000 0000 0000 0000

blocks.0.batchnorm.running_var f4 [8]
1.0 1.0 1.0 1.0 1.0 1.0 1.0 1.0
00000000: 0000 803f 0000 803f 0000 803f 0000 803f
00000010: 0000 803f 0000 803f 0000 803f 0000 803f

blocks.0.residual.0.weight f4 [8, 12, 1]
0.050583757 0.29184717 -0.24938744 -0.027900843 0.14514735 0.038344923 0.041643504 -0.33980632
0.08171751 0.19074804 -0.009265502 0.11104208 -0.06719971 -0.10006172 -0.07279602 0.16263618
-0.014225452 0.24309754 0.0522191 -0.14781316 -0.43281978 -0.3393039 0.32607323 0.022208015
0.18009676 -0.1314841 -0.16742675 -0.09090612 0.120237865 -0.11270935 -0.17844082 -0.4692586
-0.26537338 -0.11910181 0.051534895 0.2640917 -0.00751381 0.05960979 -0.110998504 0.017635997
0.020382129 0.028451312 0.21793397 0.11356045 0.060377646 -0.8774579 -0.15803957 0.16622837
-0.120884165 0.0074998843 -0.16635787 0.082660615 -0.017220544 -0.09141054 0.2689251 0.040726624
-0.08836377 -0.8621499 0.24833821 0.06979831 -0.025672408 0.09108857 -0.17991716 0.14431396
0.077777416 -0.040749658 0.30172712 0.0585337 0.014613294 0.6649083 0.03930085 -0.01898639
-0.094895825 0.026380954 -0.29097298 -0.16172522 0.11853991 -0.408369 0.0032739844 0.049694087
0.01082211 -0.78971297 0.258008 0.09368796 0.043629713 -0.25115362 -0.018316247 -0.03475281
-0.30330428 0.15262671 -0.444573 0.126214 0.13289186 0.09333377 0.049281936 -0.007347868
00000000: ea30 4f3d fe6c 953e 6c5f 7fbe 4f90 e4bc
00000010: 82a1 143e 910f 1d3d 6192 2a3d 18fb adbe
00000020: 835b a73d 7453 433e 55ce 17bc 086a e33d
00000030: 00a0 89bd 29ed ccbd 1416 95bd 198a 263e
00000040: df11 69bc 90ee 783e b2e3 553d 555c 17be
00000050: 8e9a ddbe 3eb9 adbe 12f3 a63e 95ed b53c
00000060: 496b 383e c5a3 06be eb71 2bbe fd2c babd
00000070: 453f f63d 29d4 e6bd 31b9 36be aa42 f0be
00000080: 05df 87be a6eb f3bd 4116 533d 0737 873e
00000090: 6836 f6bb 6529 743d 2f53 e3bd 5e79 903c
000000a0: 6cf8 a63c ba12 e93c 152a 5f3e 6292 e83d
000000b0: 8d4e 773d 15a1 60bf 20d5 21be c537 2a3e
000000c0: 1e92 f7bd 97c1 f53b b859 2abe f849 a93d
000000d0: 1912 8dbc 7335 bbbd 8db0 893e f6d0 263d
000000e0: 10f8 b4bd dbb5 5cbf 5f4c 7e3e 6bf2 8e3d
000000f0: f14e d2bc a58c ba3d 343c 38be 0ac7 133e
00000100: c449 9f3d 1de9 26bd fa7b 9a3e 08c1 6f3d
00000110: 996c 6f3c 6e37 2a3f eef9 203d 5989 9bbc
00000120: be58 c2bd df1c d83c 69fa 94be 4c9b 25be
00000130: 0dc5 f23d be15 d1be 5890 563b 078c 4b3d
00000140: 384f 313c a12a 4abf a019 843e 79df bf3d
00000150: 12b5 323d 3597 80be f40b 96bc f658 0ebd
00000160: b34a 9bbe 2d4a 1c3e 129f e3be 3e3e 013e
00000170: ce14 083e c725 bf3d dbdb 493d 62c6 f0bb

blocks.0.residual.1.weight f4 [8]
1.4816825 0.85213685 1.4084687 1.3736855 1.0324281 1.6268077 1.2565997 1.4465051
00000000: c6a7 bd3f a425 5a3f b448 b43f edd4 af3f
00000010: 9b26 843f 3c3b d03f 42d8 a03f 1427 b93f

blocks.0.residual.1.bias f4 [8]
-0.26428378 0.0776481 -0.10462866 0.4197402 0.15381823 -0.59740466 0.120740846 0.16238509
00000000: 3450 87be f805 9f3d 8d47 d6bd 30e8 d63e
00000010: 8782 1d3e 83ef 18bf fa46 f73d 4748 263e

blocks.0.residual.1.running_mean f4 [8]
0.17024535 -0.4202937 -0.0021859538 -0.4426918 -0.58363295 0.28256977 -0.39226004 0.09031492
00000000: cc54 2e3e bc30 d7be 3842 0fbb 80a8 e2be
00000010: f868 15bf fcac 903e 4fd6 c8be 07f7 b83d

blocks.0.residual.1.running_var f4 [8]
0.29862186 0.3168327 0.5404277 0.16605245 0.19136979 0.15161568 0.38193133 0.44704005
00000000: f7e4 983e e537 a23e 7859 0a3f a709 2a3e
00000010: 71f6 433e 2441 1b3e 818c c33e 6fe2 e43e

linear.weight f4 [1, 8]
0.5382913 -0.12679093 0.6441194 -0.3644355 -0.21154034 0.7350497 -0.37000895 0.6696732
00000000: 75cd 093f 7bd5 01be 02e5 243f 4a97 babe
00000010: 089e 58be 382c 3c3f d071 bdbe b46f 2b3f
