models/saved_models/test1.pth (torch, 15417 bytes, 14 tensors)

blocks.0.bottleneck.weight f4 [1, 12, 1]
00000000: a4ff 17be 5d8b d83d d895 3b3e 7869 8b3d
00000010: 5362 073e 44fc d7bc 2a9c 383b 8105 fd3d
00000020: a4c3 2c3e ca84 3f3d 881f fc3a 695b 3e3e
-0.14843613 0.105734564 0.1831888 0.06807226 0.13221101 -0.026365407 0.0028169253 0.123545654
0.16871506 0.046757497 0.0019235471 0.18589558

blocks.0.conv_layers.0.weight f4 [8, 1, 41]
00000000: 3a6b d63d 83f6 15bd d6ff e43d ec7c be3d
00000010: 527e a1bd ce33 893c 60af 53be ee59 33be
00000020: 45d9 8e3d cdfe 553d 9bbd 4dbe f136 45bd
00000030: 774c 333d 6343 fbbb 5bb5 0b3d ac92 0a3e
00000040: b788 c03d b878 0bbd d664 a13d a76f ebbd
00000050: d3e8 613e 24bf 233e 68f2 933e eb9e cd3d
00000060: fd18 3d3e 2ba4 753c df12 ba3d 76ef c7bb
00000070: cbe8 73bd 0e1a 63be da56 033d 40b4 66be
00000080: 8b64 53be 2227 3a3d 7bf3 e4bc a1b3 70bd
00000090: 7d07 41bb 7737 dcbd 647a c7bd 6bce a7bd
000000a0: af6f 0abd 60c8 ccbd 843a 5a3d 7d46 db3d
000000b0: b790 3cbe 3088 33be 8fc6 a6bd 5a4b 18be
000000c0: 928f 2bbd a33d 023d 1f73 aabd b8ee 0dbb
000000d0: 05cf f4bd 5424 913d 216a c83d 5212 c7bd
000000e0: b6c1 9a3d 0d26 08be 46a5 a43c 14f1 bd3d
000000f0: 14d4 a23b bea2 4bbd 1eec 3abd 3ddb 1c3e
00000100: f7f4 cebd e901 2d3d 09b1 023e 96b3 043e
00000110: 5558 de3d 5be2 323e b700 7cbd 1449 a43c
00000120: bf2d ba3d f775 903c 18e0 0fbe 1b5f 0f3e
00000130: 0e40 e4bd c6a0 09bd c1dc 12be 968e fa3d
00000140: 4731 9cbd 51d0 043e ec7e 47bc 5676 d93d
00000150: 3baf 79bd e9ab 473e 6850 493e a43f bbbc
00000160: 03bb 563e 9e7d 083e cfb7 613e a338 513d
00000170: b3d3 6cbd 83d0 573e 1d8e 44bd 8c08 c53d
00000180: 9059 3cbc 046b 58bd 6390 5f3c f888 5ebd
00000190: 2d7e 883d 905a 2b3e 0235 d1bd 584b 20ba
000001a0: f39b e1bd 84b6 f0bd d970 cfbd a8d4 aabd
000001b0: 7c89 07be e85d 53bd 9e31 efbd e012 afbd
000001c0: 4d3a dfbc 0e2b ef3c c50d 93bd 99ec 76bd
000001d0: 7af6 643d 282c c63d ce99 05be f305 3ebb
000001e0: 002b ff3c d604 62bd b938 d6bd 408b dd3c
000001f0: 7bb1 e23c c7c9 043c 9501 153d 6d35 c5bd
00000200: da1b 15be b056 2b3d c468 96bd d5b0 e83d
00000210: 1662 203e 37c6 10be 9c6e 29bd a8e3 7abd
00000220: 4158 c23d eb1f 1dbb adea 0d3e 8530 24be
00000230: 77a4 c0bd 8b19 08be 6ad1 5e3d 6b72 323e
00000240: 804d 2f3e 21aa 423e ea5c fbba 7006 d8bd
00000250: 3403 5cbc 1b8e 3ebe d47e 6ebe 67df 8cbe
00000260: f568 0abe fd6a 1cbe 214d 1c3e 109f 543e
00000270: 0b47 31bb 22ee bfbd ecd4 a93d de4d f63d
00000280: 0243 f13d cb45 eb3d a7f2 f23d 5adf 4c3d
00000290: 9729 bbbd a4a3 0fbd 10b3 09be c6e9 4cbe
000002a0: 3a17 683d 0047 eebd 90e9 9abd ebca ab3d
000002b0: f73c 4bbe 2495 543b 6f41 1dbe fc06 083e
000002c0: 6c58 ae3d b3ac ee3d bb76 873d 01db ad3d
000002d0: 75fa e7bb 445a 053e e68f b63d 1c5d c23d
000002e0: ae68 5b3e 9f4d 2d3e efa2 e43d 3291 8ebc
000002f0: e91a f33c 7ac4 2d3d 80d2 21bd e851 8fbe
00000300: e374 81be 0325 05bd be36 6abe bca1 dc3c
00000310: 683a ed3d 6d37 d4bb cd8e 783d d4d3 f7bd
00000320: 69d7 cbbb cb11 923d 34de afbd a5a3 023e
00000330: 25d9 083e 67b6 d4bd 6988 88bd ccaa 0cbe
00000340: a799 e7bc 0501 eebd bd61 ecbd 0bd5 bebc
00000350: c3d2 ce3b 4e99 fdbd ac09 493d 2525 1bbe
00000360: 4b3e 6b3d 6838 cb3d 5b03 313d d402 883d
00000370: 79e5 2bbe 8d06 af3d 34ed 853c 5444 ddbd
00000380: ae1b 84bd cd49 e23d cf4d 153a caa7 ecbd
00000390: 35b4 42be 7191 633c 3d16 04be bd40 b9bd
000003a0: b0bc d73d 2cdc f13d cbaf 1d3e 833f 1c3e
000003b0: a0cc a93d ca88 ddbd df12 e43d 158b e33c
000003c0: 3b5f 113e a038 a0bd 6a34 a33d 33f9 053e
000003d0: ac20 55bc 8b22 b83d a5b9 f73d ab9e 443e
000003e0: 5046 e03d b90a 823d ab17 953d 9ade 683e
000003f0: 1059 14bd bec6 47bd 4e30 cf3d 8c8f 773d
0.104696706 -0.036612045 0.11181609 0.09301171 -0.07885422 0.016748335 -0.20672369 -0.17514774
0.069750346 0.05224495 -0.2009186 -0.0481481 0.043774094 -0.007667945 0.0341085 0.13532513
0.09401076 -0.034050673 0.07880561 -0.11495905 0.22061472 0.15990883 0.2889588 0.10040077
0.18466564 0.014992754 0.090856306 -0.006101544 -0.05954818 -0.22177908 0.03206525 -0.22529697
-0.20643823 0.045447476 -0.027948132 -0.058765057 -0.0029453926 -0.107527666 -0.09740141 -0.08193668
-0.033797916 -0.09999156 0.05327846 0.10706804 -0.1841458 -0.1753242 -0.08143341 -0.14872494
-0.041884966 0.031797063 -0.08322739 -0.002165718 -0.11953548 0.07087007 0.097858675 -0.09720291
0.07556479 -0.13295765 0.02009834 0.09274498 0.0049691293 -0.04971575 -0.045635335 0.15318008
-0.10105317 0.04223815 0.12762846 0.12959132 0.10856692 0.1746916 -0.06152412 0.020054378
0.090907566 0.017634375 -0.14050329 0.14001124 -0.1114503 -0.03360059 -0.14342023 0.12234227
-0.076265864 0.12970091 -0.012176257 0.10618274 -0.06095813 0.19499172 0.19659579 -0.022857495
0.20969777 0.13329169 0.22042774 0.051079404 -0.05781908 0.21075635 -0.047987092 0.09620771
-0.011495963 -0.052836433 0.013645264 -0.054329842 0.06664691 0.16733766 -0.102151886 -0.0006114743
-0.11016073 -0.11753562 -0.10128946 -0.08341342 -0.1323604 -0.051603228 -0.116793856 -0.08548522
-0.02724948 0.029195335 -0.07180361 -0.06028423 0.05589912 0.09676391 -0.13046953 -0.0028995245
0.031148434 -0.055180393 -0.10460038 0.027043939 0.02767252 0.008104748 0.036378462 -0.09629331
-0.14561406 0.04183072 -0.07344201 0.11361853 0.15662417 -0.14138113 -0.04136525 -0.061252266
0.09489489 -0.0023975323 0.13859053 -0.16034134 -0.09406369 -0.13290994 0.05439893 0.1742646
0.17119408 0.19010212 -0.0019177471 -0.10548103 -0.013428498 -0.18608896 -0.23290569 -0.27514192
-0.135166 -0.15275188 0.15263797 0.20763803 -0.0027050402 -0.09371592 0.08292565 0.12026571
0.11780359 0.11487921 0.118626885 0.050017692 -0.09138792 -0.03506817 -0.13447213 -0.20011052
0.056662776 -0.11634636 -0.0756408 0.08388313 -0.19847475 0.0032437528 -0.15356992 0.13283914
0.08512959 0.116540335 0.06614443 0.08489037 -0.0070794174 0.13022715 0.08914165 0.094904155
0.21426651 0.16924141 0.111638896 -0.017403219 0.029675918 0.042423703 -0.03950739 -0.27992177
-0.2528449 -0.032506 -0.22872445 0.02693259 0.11583406 -0.006476334 0.06068306 -0.1210095
-0.0062207473 0.071323 -0.08587304 0.12757738 0.13364084 -0.10386353 -0.06666643 -0.13737029
-0.02827151 -0.11621288 -0.115420796 -0.023294946 0.006311746 -0.12382756 0.04908149 -0.15150888
0.057432454 0.09922868 0.04321609 0.066411644 -0.16786756 0.08546171 0.016348459 -0.10804048
-0.06450592 0.11049233 0.00056954933 -0.11555441 -0.19014056 0.013889656 -0.12899108 -0.09045551
0.10534036 0.118095726 0.15399091 0.15258603 0.08290982 -0.10817106 0.11136412 0.02777628
0.14196484 -0.078233 0.079689816 0.13083343 -0.013008278 0.089909635 0.12095956 0.19201152
0.10950911 0.063497014 0.07279905 0.22741166 -0.03621775 -0.04877352 0.10116635 0.06043963

blocks.0.conv_layers.1.weight f4 [8, 8, 20]
00000000: 97c6 51be 8625 8dbd 4017 f0bc b3d2 533e
00000010: 43e7 823e 6c9f 9e3e fca8 533e fc28 093e
00000020: d2e7 893d 33a0 bdbd 2397 44be eef5 12be
00000030: 857a 21be 8d0b f9bc 388e 56bc d147 39bd
00000040: d967 50bc d6ed 13bd 6a79 e33d 6080 813d
00000050: 5777 ab3d c580 d03c 497a ab3d 8514 c53c
00000060: 71dc 52bd 01b7 8fbc e7e4 883b e081 fcbc
00000070: 3d3f 2cbe a21a 30bd fd1e 04be 93ac 2c3c
00000080: e6aa 13bc df1a 973d c39b 8b3b f204 0b3d
00000090: 9f2d 4d3d 1a4d 903d 29dd ca3d 1d33 213e
000000a0: c34d a53d 2b0d fabc 9433 903d 3c30 b5bd
000000b0: 5ae1 a1bd 73e3 813c 9410 a5bd 73fe 43ba
000000c0: 0e8e 003e d57a f83d a110 803d e444 143c
000000d0: a659 56bd a4ba aabd 8979 513a 874f 52bd
000000e0: 7b23 e1bd 10e5 f3bc 0964 03bd d9ee 5b3c
000000f0: 81dd 80be 6572 debe 29e8 cbbe 8ece 2fbe
00000100: 46f9 85bd ec6a 0c3e 8670 bd3e 717e a33e
00000110: 9785 be3e 79e5 d23d 28e7 22bd f945 c9bd
00000120: 750a d3bd 5865 56bd 6e2b 19bd 234b 4f3c
00000130: d3eb 053d abba 0bbd b98f 713b 940c 0b3d
00000140: c2c0 85be 8fd8 2abe d360 09be f6e2 aebd
00000150: 29c8 6db9 2ca6 de3d 751e 583e 6c32 993e
00000160: e235 693e 0c25 733e e2f9 0e3c 4600 bebd
00000170: a804 a7bd eea0 76bd dcfc 16be 4581 4c3d
00000180: 06a8 3ebc 5691 3dbd 3018 89bd 82f3 83bd
00000190: faed a23b 6dfc 6c3d 013a e5bb fd9d c4bd
000001a0: 587f 19be ad01 61bd ffe7 2dbe 039d 00be
000001b0: 85b8 4dbd 73c7 813d c8e9 ea3d 59ba 003d
000001c0: 48e7 533d 63b8 243d a016 623d 6025 23bc
000001d0: 6886 d5bc 8d22 113d 2fc2 183b 23f1 9bbd
000001e0: 9662 70bc 4d06 ca3d e128 763d 2136 a93d
000001f0: 2ee8 003d 0626 3dbb d0e3 763c c7b6 f83c
00000200: 5a0f 9f3c 357b 6d3d 8116 32bd 3414 c5bc
00000210: 37f1 f63c 00ea 2bbd a36f 183d 9a84 a33c
00000220: fd28 32bd a961 11bd d49a 573d 2df0 adbd
00000230: 7539 1bb9 fa30 293d 6487 af3c 2a96 3d3d
00000240: ecc4 3c3d 053a 083e 4b27 173e 685d 743d
00000250: 26cb 75bd 2148 1cbe d724 58bc fcac 57bd
00000260: 22bb b3bd f755 16bd ce01 03bd 2f1a 03be
00000270: 7aa7 f7bd 8f02 34bc 8eb6 70bc 1812 b4bd
00000280: 8432 6c3e e2b5 f23c 9804 323c 419b b6bd
00000290: 97c6 37be 5d9d 3fbe 1128 99be 385c 3cbe
000002a0: 036d 5ebd 8e68 45ba f16f 253e b7ac e43d
000002b0: e6a5 353e ec60 863d ab14 0f3e 9bfe 273d
000002c0: ca00 5d3c b3db 3cbd 9b11 5abb 8147 ddbd
000002d0: 55ca efbb b1e9 bdbd a600 21be a422 4fbd
000002e0: 6af7 92bd 2a75 693d 1f91 8e3d 96e0 ee3d
000002f0: fec8 213e 19f6 3f3d 7088 1d3e 7b39 953d
00000300: a909 fb3c 631c acbd e085 55bc b4a3 54bd
00000310: 3e44 7cbd fa8e 99bd f4be 17bd 7b74 cb3c
00000320: 8cbe f63c 1bcb a63d de03 0f3d 8123 573d
00000330: 94b6 f63c 2273 2a3d 1f5d 713d c427 36bd
00000340: 4145 653b cc32 d2bd f3a3 6abd 3141 573c
00000350: 5027 af3d 90a5 453b 71d6 20bd d074 a43d
00000360: ae89 4bba 2fb6 2fbd bf7f 5ebd 1d2b 7c3d
00000370: a246 863e 4051 dc3e 058a c33e 3b31 553e
00000380: 33fc 943d 387c d2bd 3852 b5be 3fff a9be
00000390: c340 aebe 639d 07be 6b1d 353d ac1e 0b3e
000003a0: 18b0 243d e5c2 9e3d 60a6 bdbc 5eea 13bd
000003b0: efe8 c2bd 6494 a2bb fccf 67bd c98d 673d
000003c0: 1dde bd3e c3e4 7f3e f30f 353e 319e 9d3d
000003d0: 11c5 6fbd 4575 6fbd 67ac 61be 0b03 51be
000003e0: 6172 87be bd50 6abe 64b7 37be f4f1 b43d
000003f0: 1ee0 b83d 27f5 fb3d 3aca 8c3c 6ebf 1dbd
-0.20485912 -0.06891923 -0.029307961 0.20685844 0.25567064 0.30981004 0.20669931 0.1339454
0.06733669 -0.09259071 -0.19198279 -0.14351627 -0.15769394 -0.030401016 -0.013095431 -0.045234505
-0.012720072 -0.03611549 0.11107142 0.06323314 0.08372372 0.025452027 0.083729334 0.024057636
-0.05147976 -0.017543318 0.004177678 -0.030823648 -0.16820998 -0.04299415 -0.12902446 0.010539192
-0.009012913 0.07378172 0.0042605116 0.033940263 0.050092336 0.07045956 0.09905464 0.15742154
0.080714725 -0.030523857 0.07041088 -0.088470906 -0.079043105 0.015855527 -0.08059803 -0.00074765756
0.1255419 0.12132803 0.06253172 0.009049628 -0.05233159 -0.0833638 0.00079908274 -0.051345374
-0.109930955 -0.029772311 -0.032077823 0.013423645 -0.25168994 -0.4344665 -0.39825562 -0.17168638
-0.06541686 0.13712662 0.3699991 0.31932405 0.37211296 0.10297675 -0.03977123 -0.09827799
-0.10304729 -0.052342743 -0.037394933 0.012652191 0.032695603 -0.034113567 0.0036859347 0.033947542
-0.26123625 -0.16684173 -0.13415842 -0.08539383 -0.00022676647 0.108715385 0.21105368 0.2992128
0.22774461 0.23744601 0.008726569 -0.09277396 -0.08155185 -0.06021207 -0.14744896 0.04992797
-0.01163674 -0.04628118 -0.066940665 -0.0644293 0.0049722167 0.05785792 -0.00699544 -0.096004464
-0.14989984 -0.05493324 -0.1698303 -0.12559895 -0.0502248 0.0633687 0.114703715 0.031427715
0.05173424 0.040214907 0.055197358 -0.009957641 -0.026065066 0.03543334 0.0023309102 -0.076143526
-0.014671942 0.09864483 0.06009758 0.082622774 0.031471424 -0.0028861775 0.015068963 0.030360593
0.0194165 0.057978828 -0.043478493 -0.024057485 0.030144317 -0.041971207 0.03721584 0.01996069
-0.04349612 -0.035493527 0.05263789 -0.084930755 -0.00014803356 0.041306473 0.021426864 0.046285786
0.046086237 0.13303383 0.14761083 0.05965939 -0.06000819 -0.1526189 -0.013192377 -0.052655205
-0.08775927 -0.036703076 -0.031984143 -0.12802957 -0.120924905 -0.010986938 -0.014691962 -0.087925136
0.23066145 0.029627744 0.010865353 -0.08916331 -0.1794685 -0.18712373 -0.2991338 -0.18394554
-0.05430318 -0.00075305335 0.16155984 0.11165755 0.17739066 0.06561455 0.13972728 0.041014295
0.013488958 -0.04610796 -0.0033274654 -0.10804654 -0.007317821 -0.09273089 -0.15722904 -0.050570145
-0.07176097 0.056996502 0.069612734 0.1166393 0.15799329 0.046865556 0.15384078 0.07286354
0.030644255 -0.08403852 -0.013032407 -0.051913932 -0.06158852 -0.07497974 -0.03704734 0.024835816
0.030120157 0.08144208 0.034915797 0.052524094 0.030116357 0.041613705 0.058926698 -0.044471517
0.0034983905 -0.10263595 -0.05728526 0.013138101 0.0855242 0.0030158497 -0.039267007 0.08030093
-0.00077643513 -0.042898353 -0.054321047 0.061564554 0.26225764 0.4303074 0.38191238 0.20819561
0.07274666 -0.10277599 -0.3541429 -0.3320255 -0.34033784 -0.13243632 0.04421751 0.13585919
0.040207 0.07752017 -0.023150623 -0.03611218 -0.09517085 -0.004961537 -0.056594834 0.0565317
0.3708352 0.2498961 0.17681865 0.07696188 -0.058537547 -0.058461446 -0.22038423 -0.20411317
-0.26454452 -0.22882362 -0.17941052 0.088352114 0.09027122 0.123026185 0.017186273 -0.03851264

blocks.0.conv_layers.2.weight f4 [8, 8, 10]
00000000: f292 1bbe 70b0 1cbe 91e0 1fbe c4dc 73bd
00000010: b39e 18bc fbd9 f63c 6ad7 c03d 36f5 f43d
00000020: 54f2 ab3d c247 d23c f426 563d a745 593d
00000030: 7bb7 9d3d 81c0 b23d 90a3 45bd 8871 3ebe
00000040: dad8 8a3c eafb 1cbe bb1f 623d ba50 8a3d
00000050: 8aaf 893d 035f b63c f6b7 14bd 7d25 debd
00000060: 3526 3dbd 1886 96bd a544 ffbc ce11 a73d
00000070: bdbb 54bb fa83 33bd e520 513d 567b bf3d
00000080: dd6e ea3d 3636 94bd b79f d9bc 1dd9 c5bd
00000090: 2168 d2ba e591 b93d 379a c73d a8f2 573c
000000a0: 30c8 91bc 72d7 93bc 7a22 73ba ee07 84bc
000000b0: f7e1 8bbd ea03 9cbc f2ba f13d 71bb a6bd
000000c0: 5bb7 ca3d 36ba 9ebc bfe4 4f3e 4316 973e
000000d0: ac3e 82bc 4b86 00be 57cd 3dbe ef97 15bd
000000e0: 3a01 3abe 9048 13be 3342 763d d9f6 f33d
000000f0: 5b6b 87bd 43b2 d23c a40c ac3c b830 90bb
00000100: d0ee 893c cc97 8c3d 6d16 8a3d 45d5 903d
00000110: db81 94bc 3d63 133d da63 8e3c c246 d83a
00000120: 1e44 9f3d bd58 bb3d 19a3 febd 8307 debd
00000130: 48d7 533c 92a1 14be fea0 91bd 660e 26bd
00000140: 5c90 d23d 7d0c 2a3e 222f 1b3e 8ac8 c53d
00000150: 8262 32bc 13b2 e2bc 1cc9 afbd 8356 10be
00000160: 7e88 2ebe d1d7 b43c 136a 29be 52ac 2ebe
00000170: d446 afbb b13f 09bd a144 473e 27a9 dd3c
00000180: 6e72 3e3d c38e ad3d ac4d b43d 0bc4 91bd
00000190: 7e0d e43d 421d f93d 58c7 d63c a587 0fbd
000001a0: be39 e03d 856c 92bb ba72 913d 02b7 9a3b
000001b0: be35 0b3c f5e3 1ebd ede8 b0bd d878 8f3d
000001c0: 1379 c8bd 9f80 d53d 6b4c 8dbd 0d2d aabd
000001d0: b6b7 143d 92ae 9fbd 5859 903c ff57 ce3d
000001e0: 85e8 633d 410a ffbc e0a0 0bba 4209 8d3d
000001f0: d371 89bd 0f92 c6bb 7209 abbd 6d5f 90bd
00000200: aaec 893d 1425 ab3d cc83 53be 2107 2ebe
00000210: 2657 edbd 46a9 8e3d 6531 da3c 0a22 7a3e
00000220: 04fe f53d e3d9 0d3e 5d34 683d 0d99 a8bd
00000230: 427f 8e3d 0f1f 803d 065f 5c3d 766e 36bc
00000240: 4830 a5bd 9649 4bbc 2451 83bd 2f51 883d
00000250: 4023 adbc 2c82 d03b 20cb 3dbe a697 85bd
00000260: cddc 20be 0026 3e3d 799e f8bc 70c8 3bbc
00000270: 7f32 6f3d 4873 1b3e 47e9 603d 7d86 013e
00000280: a039 cc3d 0fb4 593e cd7e a03c 8de2 313d
00000290: 817f 9ebd d5d9 dabd 01ea 9fbd 5641 13be
000002a0: 9a48 77bd ffe1 1dbe 03e6 3fbe 2acd 4cbd
000002b0: 9ae9 afbd afee f8bc 92ea 263e 93fa 2e3e
000002c0: 0a71 9d3d 40b1 223e 10b3 3a3d c842 ef3d
000002d0: c4a1 ad3d b3b4 643d d244 c83d e3b7 acbd
000002e0: 09e6 ba3d 7a37 fdbc 5782 c2bd 1072 793d
000002f0: 2d95 94bd fafe 9f3c 511a bbbd 9127 aebb
00000300: 2c1e c83d 3a81 b53d dc1b 293d 24ea ed3c
00000310: 5866 893b 492f b1bd 0f1c 2e3c 9516 9dbc
00000320: b834 733c 1e57 1b3b e631 36bd bd6f 9e3d
00000330: f060 9c3d 242d b23c 857b 84bc cd6b 74bc
00000340: 841d 87bd d28d 5ebd a2c5 b1be a59c 80be
00000350: f04a 0bbe 2562 e93d 8e11 fa3d 65c2 2f3e
00000360: 866a 183e fc76 9b3d 5feb 31bc 4fe5 743b
00000370: 9afe 023e 3bc6 163d 31bd 25bd 713a 183d
00000380: 347e b8bc b79f 263d 7b51 cbbd 34fd 11be
00000390: def1 63bd fe1d c2bc 7fd8 65bd 1fc6 62be
000003a0: 2540 e1bc ffcd e83d e4e1 d23d 9635 bfbc
000003b0: 82a2 9a3d abd5 d03d 7f00 c13b 282c b9bd
000003c0: 2c96 653e 6d52 223e a444 ca3d d4aa b43d
000003d0: 059e 17be 37bb 023c 90e7 2dbe 8ae8 c5bd
000003e0: dfee ecbc 4324 6b3d 657f 60be 61b5 6abe
000003f0: 768d bdbd 0e4e df3d 183f cd3d 00e4 833c
-0.15192774 -0.1530168 -0.15613009 -0.05953671 -0.009315181 0.030133238 0.09416087 0.11960833
0.0839583 0.025668982 0.052283242 0.05304494 0.07701012 0.087281235 -0.04825169 -0.18597996
0.016949106 -0.15330473 0.05520604 0.067536786 0.067229345 0.022262102 -0.03630825 -0.10846994
-0.046179015 -0.07349795 -0.031160662 0.08157693 -0.0032460534 -0.043827035 0.05105676 0.09349696
0.11446927 -0.072369024 -0.026565416 -0.09660552 -0.0016052761 0.0906103 0.09746211 0.013180412
-0.017795652 -0.018047068 -0.0009274852 -0.016117062 -0.06830209 -0.019044835 0.11803235 -0.0814122
0.098982535 -0.019375902 0.20302103 0.29509172 -0.015899025 -0.12551229 -0.18535362 -0.03652185
-0.1816453 -0.14383149 0.060121726 0.11912317 -0.06612273 0.025719767 0.021002121 -0.004400339
0.016837507 0.068648905 0.06742559 0.07071928 -0.018128326 0.035983313 0.017381597 0.001650058
0.07776664 0.09147785 -0.12433452 -0.108412765 0.012929745 -0.14514759 -0.07110785 -0.040541075
0.102814406 0.16606326 0.15154698 0.096573904 -0.010887744 -0.027672803 -0.085832804 -0.14095502
-0.17044255 0.022075566 -0.1654437 -0.17057922 -0.0053490195 -0.033508006 0.19459774 0.027058197
0.046495847 0.08474495 0.08803877 -0.0711747 0.11135386 0.121637836 0.026218101 -0.03504147
0.109485134 -0.004468503 0.071019605 0.0047215233 0.0084967 -0.038791616 -0.08638177 0.07005471
-0.09788718 0.10424923 -0.06899341 -0.08309374 0.036308013 -0.077969685 0.017620727 0.10075378
0.05564167 -0.03113282 -0.00053264014 0.068865314 -0.06711163 -0.006059892 -0.08351411 -0.07049451
0.06734593 0.083566815 -0.20655745 -0.16994907 -0.11588888 0.0696588 0.026634881 0.24427047
0.1201134 0.13852648 0.056690563 -0.08232317 0.06957866 0.06255924 0.05380156 -0.011134734
-0.080658495 -0.012407681 -0.06411961 0.066561095 -0.021134973 0.006363174 -0.18534517 -0.06523065
-0.15709229 0.04642296 -0.030349003 -0.011461362 0.058397766 0.15180695 0.05490997 0.1264896
0.099719286 0.21260093 0.019591713 0.043428946 -0.07739163 -0.106860794 -0.078083046 -0.14380392
-0.060371973 -0.15418242 -0.18740086 -0.050000347 -0.08589478 -0.03038725 0.16300419 0.17087774
0.07687576 0.15887928 0.045580924 0.116826594 0.0847812 0.05583639 0.097787514 -0.08433511
0.09125907 -0.030910242 -0.094975166 0.060899794 -0.072550155 0.019530762 -0.09135879 -0.0053147753
0.0977138 0.08862539 0.041286334 0.029042311 0.0041931085 -0.08651597 0.010626807 -0.019175807
0.014844112 0.002370305 -0.04448118 0.07736156 0.07635677 0.02175004 -0.01617218 -0.01491828
-0.065974265 -0.05433447 -0.34721094 -0.2511951 -0.13602805 0.11395673 0.122103795 0.17164
0.14884385 0.07591054 -0.0108593395 0.0037368124 0.12792435 0.03681014 -0.04046363 0.03716511
-0.022521116 0.04067966 -0.099276505 -0.14256746 -0.055650584 -0.023695942 -0.05611467 -0.2214589
-0.027496407 0.11367416 0.102969915 -0.023340981 0.07550527 0.10197004 0.0058899517 -0.09041625
0.22420567 0.15851755 0.098763734 0.088216454 -0.14806373 0.007979206 -0.16982865 -0.09663494
-0.028922496 0.05740763 -0.21923597 -0.22920753 -0.09255497 0.109035596 0.100218 0.01609993

blocks.0.batchnorm.weight f4 [8]
00000000: 0000 803f 0000 803f 0000 803f 0000 803f
00000010: 0000 803f 0000 803f 0000 803f 0000 803f
1.0 1.0 1.0 1.0 1.0 1.0 1.0 1.0

blocks.0.batchnorm.bias f4 [8]
00000000: 0000 0000 0000 0000 0000 0000 0000 0000
00000010: 0000 0000 0000 0000 0000 0000 0000 0000
0.0 0.0 0.0 0.0 0.0 0.0 0.0 0.0

blocks.0.batchnorm.running_mean f4 [8]
00000000: 0000 0000 0000 0000 0000 0000 0000 0000
00000010: 0000 0000 0000 0000 0000 0000 0000 0000
0.0 0.0 0.0 0.0 0.0 0.0 0.0 0.0

blocks.0.batchnorm.running_var f4 [8]
00000000: 0000 803f 0000 803f 0000 803f 0000 803f
00000010: 0000 803f 0000 803f 0000 803f 0000 803f
1.0 1.0 1.0 1.0 1.0 1.0 1.0 1.0

blocks.0.residual.0.weight f4 [8, 12, 1]
00000000: 2166 193e 84ed 48bd 9665 c0bd 5a30 b7bd
00000010: 814b 803d 564a a73d c458 213e 541b bd3e
00000020: 2898 0abe e95c 8cbe 0d21 8cbe a1a3 633e
00000030: e9d8 fd3d a151 d5bd 7971 533e e5be 49bd
00000040: f559 7dbe a0b7 31bd cfe7 cabe 36c3 aabc
00000050: ff32 febc 69ad 9bbc c6d0 873d 74f0 593d
00000060: a991 1dbe c5bc 093e 418f acbe 3d0b af3d
00000070: 142b 1a3d 83e3 a43d ca29 83bd b60c c0be
00000080: 2328 a53d a5b1 823e 0818 10be 40bc 8b3e
00000090: ae42 14bd ed2e 6c3e b6c5 663c 9851 4b3d
000000a0: 4256 513d 8c43 e6bd 935f cd3e 7e63 cd3d
000000b0: 0358 683e 0c7c 153f c3ba 503c 6dcf 793c
000000c0: 7a18 2abd 0b28 f0bd fd68 86be 8c60 a63d
000000d0: 72b1 d33d ce3a 003e 2fef a43c c688 7e3e
000000e0: 8fe2 cbbd 8e6c 263f 305b 8e3d d182 6ebd
000000f0: d5fe 983d 7872 1abe 4b8c b2be 09b9 ecbd
00000100: a622 193e 73cc 9b3d 4118 82bc 2e36 24bf
00000110: a739 133e da59 cf3d 531a 8c3d a58a e13c
00000120: 1409 7b3e e13c 003d a625 5fbe 524f 593e
00000130: 0e8d 12bd 9ed7 0a3e ce18 eb3c 7bff df3c
00000140: d116 6a3d 3148 e4be 01ef 0fbd 7f73 5cbd
00000150: 3231 1dbe b7c2 9b3d ecca 50bd 446d 83be
00000160: 6705 d83c 8abf 30be 3740 433e e82a ef3d
00000170: d169 51bc 4999 2abf 9469 263e f3ba c73c
0.14980365 -0.049054638 -0.09394376 -0.08944769 0.06264401 0.08168475 0.15756518 0.36934912
-0.13534606 -0.27414635 -0.27368966 0.22230388 0.12394888 -0.1041596 0.20648755 -0.049254317
-0.24741347 -0.04338801 -0.3962998 -0.020845037 -0.031030176 -0.019003587 0.06631617 0.05320783
-0.15387596 0.13450916 -0.33703044 0.085470654 0.03763874 0.08051207 -0.06404455 -0.37509698
0.08064296 0.25526157 -0.14071667 0.2729206 -0.036196403 0.23064776 0.014085224 0.04963836
0.051107652 -0.11243352 0.4011198 0.10028742 0.22689824 0.58392406 0.01273984 0.015247208
-0.04152725 -0.117263876 -0.26251975 0.081238836 0.103365794 0.12522432 0.020133583 0.24856862
-0.09955322 0.6500939 0.069509864 -0.058230225 0.0747048 -0.15082729 -0.3487266 -0.1155873
0.14954624 0.07607355 -0.015880706 -0.6414517 0.14377461 0.1012456 0.068409584 0.027531931
0.24515182 0.03130806 -0.21791705 0.21221665 -0.03577905 0.13558814 0.028698351 0.027343502
0.057150666 -0.44586328 -0.03514004 -0.053821083 -0.15350798 0.07605498 -0.05097477 -0.256693
0.026369764 -0.17260566 0.19067465 0.116781056 -0.012781576 -0.66640145 0.16251212 0.024381137

blocks.0.residual.1.weight f4 [8]
00000000: 61b8 923f a7d9 d93f 287f b13f 4b4a bd3f
00000010: 0e7d a13f 8f2b c43f a215 8a3f 6bdd c33f
1.1462518 1.7019547 1.386693 1.4788297 1.2616289 1.5325793 1.0787852 1.5301946

blocks.0.residual.1.bias f4 [8]
00000000: dae3 fa3e 54e5 9bbd 3c2f 22be 3a90 e4be
00000010: 6d4a 30be d3cb 853d 4f2f 8b3e 25a5 203f
0.49001962 -0.076121 -0.15838331 -0.44641286 -0.17215891 0.06533017 0.2718453 0.6275199

blocks.0.residual.1.running_mean f4 [8]
00000000: e5ac 0dbe f76e 653d 59d3 933e 1bfb 963e
00000010: 6503 633e 25a8 9f3d 198a 9cbe 1bf0 c8be
-0.13835485 0.056014027 0.28872183 0.29488453 0.22169264 0.07795743 -0.3057411 -0.39245686

blocks.0.residual.1.running_var f4 [8]
00000000: 8e85 b13e 7a06 853e ee3e e83e 5627 ac3e
00000010: d0c3 403e ef73 213f 98fd ee3d ab1f 4c3e
0.34672207 0.25981504 0.45360512 0.3362376 0.18824697 0.63067526 0.11669463 0.19933955

linear.weight f4 [1, 8]
00000000: 8c84 61be 6993 0d3f 82a8 af3e aa9d 293f
00000010: 7bcb 113f 7d11 053f 7c9d 5dbe 760d f2be
-0.22023219 0.55303055 0.3430825 0.662562 0.5695111 0.5197981 -0.21642107 -0.47275895
