models/LSTMs/lstm0.pth (torch, 59036 bytes, 9 tensors)

lstm.weight_ih_l0 f4 [128, 9]
0.008220949 -0.11292717 0.07507274 0.051248908 -0.114096984 -0.17220816 -0.15120143 -0.17856856
0.03824231 0.0010304964 0.07675585 0.10961275 0.033267755 0.020045538 0.09252668 -0.015303808
0.028675474 -0.111380875 -0.07922094 -0.10977603 -0.102670915 0.04002524 0.082570076 -0.10632381
0.06296192 0.07272303 -0.14598486 -0.13572635 -0.120157 -0.08275913 0.12998451 0.05749284
0.047513377 0.017585346 0.070205115 -0.031421382 0.11198396 0.07981265 -0.084466666 -0.021562
-0.18001479 0.00019668852 0.02691471 0.13737795 -0.00084188743 0.07644681 0.13740446 -0.059789147
-0.09774055 0.17544752 0.10964237 0.03348542 -0.046925966 0.06795464 0.085716136 0.011825852
0.14742856 0.047721528 -0.041663956 0.09349443 -0.065169424 -0.16296041 0.12279641 0.12074249
-0.050776873 -0.032096636 -0.096285135 -0.074837044 0.1508104 0.16972637 -0.14762329 -0.13048625
-0.011201728 0.10670996 0.036005706 -0.09745986 0.00017626502 0.16010301 -0.13926077 -0.0331073
-0.12806651 -0.091569796 -0.026546834 0.08016996 -0.19513269 -0.020164333 0.0586296 0.13071735
0.0257209 -0.025074217 -0.026969979 0.1283413 0.06593943 0.09950265 0.049983583 0.12306337
0.04550435 0.16527863 -0.0900502 -0.044501387 -0.067697324 -0.012788867 -0.109091245 -0.019700646
-0.012364397 0.053386584 -0.1471462 -0.0063570673 0.037590235 -0.075169474 -0.16727835 0.03570584
0.1164971 -0.087325424 0.13007203 0.078386955 -0.0014290388 -0.1615891 -0.08924548 -0.12605904
-0.12145006 0.03788374 -0.06401721 0.0456951 -0.15572037 0.07146396 0.06131887 -0.13621673
-0.002198791 -0.06517006 -0.12457476 -0.16732398 0.1450211 0.12396664 -0.10800347 0.1711817
-0.044992927 0.13480358 -0.09669455 -0.027288157 0.16481416 -0.034563392 -0.0900566 0.093138784
0.018272916 0.16254325 0.044312336 0.07729259 0.047582142 -0.1417809 -0.012384085 0.1461368
-0.079600066 0.08402097 0.12591329 0.07179115 0.10332094 -0.11812495 0.16268514 0.06318015
-0.044760335 0.0726172 0.048966575 -0.118506946 0.07871352 0.1238041 -0.030120885 -0.065052964
-0.07102789 -0.07917151 -0.0888954 0.1478535 -0.1079496 -0.089145355 0.09770293 0.008382102
-0.019138133 -0.0935129 0.017886009 -0.11973708 0.047550257 0.08052507 0.086163715 -0.19136067
0.08262631 0.14914215 -0.045097306 -0.020339722 -0.10806469 0.14148584 -0.14068072 -0.14339367
0.045498405 0.016523983 0.10501727 0.08955891 -0.12765956 0.019207196 2.2973458e-05 -0.021854373
-0.0033866074 -0.07227661 0.0039894995 -0.1688462 0.007966115 0.053240776 -0.004144439 -0.101432145
-0.052017644 -0.08534518 0.111319296 -0.16728051 -0.17172018 0.05030992 -0.08685147 -0.0036993402
0.1082804 -0.15716067 -0.009744057 -0.14911501 0.15558021 0.048404764 -0.07074899 -0.116035506
0.014006845 -0.046971925 0.13343307 0.12140233 0.008523674 0.11025866 0.15286975 -0.08479881
0.056671683 0.13229278 0.08630635 0.15028144 -0.10598524 0.13287884 -0.029013136 -0.03763757
0.13853107 -0.1794732 0.0032110733 -0.05052936 -0.0006513039 -0.16044025 -0.04193787 -0.14083344
0.0359148 -0.043013737 0.020334842 -0.13339534 -0.11079823 -0.07601703 -0.13662943 0.15275471
00000000: 29b1 063c 5c46 e7bd bdbf 993d 60ea 513d
00000010: aeab e9bd 5657 30be 8cd4 1abe adda 36be
00000020: f8a3 1c3d b911 873a 2c32 9d3d a67c e03d
00000030: c543 083d 8a36 a43c a17e bd3d d3bc 7abc
00000040: d4e8 ea3c a81b e4bd 973e a2bd 41d2 e0bd
00000050: 2145 d2bd 82f1 233d 801a a93d 4cc0 d9bd
00000060: 2ef2 803d d0ef 943d 0e7d 15be d9fb 0abe
00000070: e014 f6bd 9e7d a9bd a91a 053e 9d7d 6b3d
00000080: 639d 423d 250f 903c b3c7 8f3d b5b3 00bd
00000090: d957 e53d d174 a33d dcfc acbd cba2 b0bc
000000a0: cc55 38be 2c3e 4e39 3d7c dc3c ceac 0c3e
000000b0: 1cb2 5cba 2590 9c3d c1b3 0c3e 77e5 74bd
000000c0: 332c c8bd 84a8 333e 2e8c e03d 0228 093d
000000d0: 7135 40bd cd2b 8b3d f18b af3d 38c1 413c
000000e0: 83f7 163e a677 433d d3a7 2abd 027a bf3d
000000f0: 8c77 85bd 18df 26be af7c fb3d d747 f73d
00000100: 69fb 4fbd c377 03bd 2431 c5bd 2a44 99bd
00000110: 0b6e 1a3e c0cc 2d3e 8f2a 17be 309e 05be
00000120: 7487 37bc c08a da3d b87a 133d 0999 c7bd
00000130: c8d3 3839 0bf2 233e 609a 0ebe 859b 07bd
00000140: de23 03be f288 bbbd bf78 d9bc 2630 a43d
00000150: ddd0 47be ac2f a5bc 9725 703d c5da 053e
00000160: a3b4 d23c 7268 cdbc 25f0 dcbc e76b 033e
00000170: 400b 873d 0cc8 cb3d 96bb 4c3d a608 fc3d
00000180: c562 3a3d cd3e 293e 3d6c b8bd 1647 36bd
00000190: e5a4 8abd 6588 51bc 3b6b dfbd 4063 a1bc
000001a0: 0a94 4abc e4ab 5a3d 7ead 16be f24e d0bb
000001b0: 38f8 193d 74f2 99bd 044b 2bbe 4940 123d
000001c0: 0896 ee3d acd7 b2bd 9a31 053e 5789 a03d
000001d0: 964e bbba 9d77 25be 56c6 b6bd 9f15 01be
000001e0: cfba f8bd fb2b 1b3d 741b 83bd c92a 3b3d
000001f0: 2975 1fbe b25b 923d 7f29 7b3d 667c 0bbe
00000200: 9719 10bb e177 85bd 0d21 ffbd fa56 2bbe
00000210: 6980 143e 39e2 fd3d ec30 ddbd 414a 2f3e
00000220: 814a 38bd f309 0a3e cb07 c6bd 6a8b dfbc
00000230: 0bc5 283e 5892 0dbd 986f b8bd 8cbf be3d
00000240: 15b1 953c bd71 263e da80 353d 944b 9e3d
00000250: 7ee5 423d 032f 11be 9ee6 4abc e3a4 153e
00000260: 5c05 a3bd 3013 ac3d 6aef 003e 3d07 933d
00000270: ee99 d33d 7eeb f1bd ef96 263e 9864 813d
00000280: 9d56 37bd 54b8 943d 2d91 483d c5b3 f2bd
00000290: 8e34 a13d 018d fd3d 13c0 f6bc 7d3a 85bd
000002a0: 1277 91bd ac24 a2bd cb0e b6bd e866 173e
000002b0: ae14 ddbd d791 b6bd 7918 c83d 1555 093c
000002c0: 93c7 9cbc b183 bfbd ae85 923c b738 f5bd
000002d0: 0fc4 423d 54ea a43d 9a76 b03d 0df4 43be
000002e0: fc37 a93d b8b8 183e f4b7 38bd 7d9f a6bc
000002f0: 0551 ddbd aae1 103e 9b0e 10be cad5 12be
00000300: 895c 3a3d 4e5d 873c 4b13 d73d a96a b73d
00000310: 30b9 02be 6958 9d3c 20b7 c037 f107 b3bc
00000320: d8f1 5dbb c205 94bd 59ba 823b 05e6 2cbe
00000330: 4f84 023c 0013 5a3d 13ce 87bb a8bb cfbd
00000340: 7410 55bd 74c9 aebd 5ffb e33d 954b 2bbe
00000350: 6ad7 2fbe c611 4e3d 2fdf b1bd a170 72bb
00000360: 1dc2 dd3d baee 20be 8aa5 1fbc 9bb1 18be
00000370: 6b50 1f3e 1344 463d d9e4 90bd 06a4 edbd
00000380: f77c 653c a265 40bd aea2 083e c9a1 f83d
00000390: e1a6 0b3c 4bcf e13d e389 1c3e 00ab adbd
000003a0: 9120 683d c277 073e 62c1 b03d 61e3 193e
000003b0: ca0e d9bd 6411 083e f5ac edbc da29 1abd
000003c0: 17db 0d3e d3c7 37be df70 523b e0f7 4ebd
000003d0: 44bc 2aba 734a 24be 0bc7 2bbd a436 10be
000003e0: 661b 133d 2c2f 30bd 4195 a63c ca98 08be
000003f0: 2fea e2bd d1ae 9bbd 96e8 0bbe bb6b 1c3e

lstm.weight_hh_l0 f4 [128, 32]
0.16597927 -0.018744685 -0.19546215 0.10225686 -0.14856492 -0.1569152 0.101904266 0.1543339
-0.123086795 -0.02692684 0.04986278 -0.15926568 0.01738435 0.14636008 0.04273478 0.07650197
0.06309466 -0.09740748 0.15847176 -0.10545035 0.13054504 0.055233207 -0.03981561 0.13623348
-0.08855465 -0.16404325 -0.05539579 0.051265284 0.04538613 -0.13051419 0.13517456 0.077767566
-0.12745604 -0.025115686 0.15299554 0.16783267 0.078256436 -0.17486964 0.11782197 0.0781976
-0.16904095 0.020868406 -0.13855183 -0.12665382 0.060374152 -0.13520783 -0.03756643 0.086655386
0.13038552 0.14510012 -0.010249408 -0.08101473 0.08126226 -0.18866417 0.17409872 -0.10846651
-0.088488705 0.11830809 0.12562042 -0.067001574 -0.050584286 -0.05433483 -0.06745399 0.044546988
-0.1281233 0.13087979 0.09133029 0.19650455 -0.14185606 -0.16687687 -0.1538529 0.10930539
-0.031100065 0.106064424 0.024627455 0.14570174 0.10701227 0.11036941 -0.05049742 -0.0047749346
0.02861724 0.14489444 0.15238558 -0.09253333 0.0031957747 -0.112650424 0.10486892 -0.051326033
0.08242921 0.024397235 0.058931753 -0.078654036 0.10138431 0.019071035 0.024057526 -0.024424817
-0.09424387 -0.08188315 0.044970073 -0.14504278 -0.10373578 0.038559765 0.0128554 0.13565393
0.02030973 0.088626966 0.08358905 0.07016739 0.16522656 -0.11928633 0.10764429 -0.05381364
-0.15897776 0.16346273 -0.099424735 -0.13557942 0.055190593 0.016675781 -0.12382647 0.11546215
-0.062141918 0.0885468 0.039389424 -0.09766678 -0.0751414 0.026431412 -0.09127352 -0.0910747
0.1411208 0.015436431 0.14153998 0.08839777 0.018770423 0.10976671 0.037870966 -0.056961507
0.13304612 0.14165498 0.090266354 0.086349994 -0.12019858 -0.041811757 0.12434888 0.10178951
0.10235208 0.0029454434 -0.008616104 0.08788276 -0.14309296 0.02412948 0.04023121 0.006076011
0.049619272 -0.11824044 0.04471336 0.002459415 -0.07102682 -0.052144192 0.05784149 -0.14982624
0.15998958 -0.131002 -0.04932873 0.15481372 0.1572287 0.15819134 0.01739465 -0.08578493
-0.16031587 -0.15538947 -0.06144918 0.1415221 0.07728618 -0.050032414 -0.080020584 -0.06544233
0.14860247 -0.15087086 0.089311294 0.08825525 -0.058583748 -0.107549675 0.07348317 0.008277035
0.18201596 0.060982954 -0.07481848 0.06047013 0.13498354 -0.15939826 0.0029949495 -0.12562227
-0.10657166 0.12596625 -0.1141119 0.014834667 0.008992461 0.10764015 -0.13316146 0.04561591
-0.15592577 0.054083616 0.029757753 0.045839123 -0.026341889 -0.12326901 -0.051316284 -0.106958136
-0.16104768 -0.02725389 -0.16640295 -0.12131765 -0.10476383 0.08332186 0.12196133 -0.11789705
0.149289 0.06553224 -0.045994516 0.08777522 -0.1536381 -0.14272113 -0.14816631 0.03972264
0.14505076 0.051446088 -0.017820982 0.15632531 -0.14852607 -0.11713919 -0.13012652 -0.101033315
0.02856184 -0.072723724 0.074189074 -0.06177626 0.029673498 0.085911624 -0.14111993 -0.047429435
-0.04387 -0.07910908 -0.025109332 -0.12824316 0.15892524 0.08422791 0.07158017 -0.05100366
0.10199447 -0.11621784 0.06321161 0.17077327 0.122858785 0.15737973 0.0065514855 0.10263721
00000000: 78f6 293e 748e 99bc 3b27 48be 0b6c d13d
00000010: 6721 18be 61ae 20be 2fb3 d03d b509 1e3e
00000020: ee14 fcbd ad95 dcbc ea3c 4c3d 8b16 23be
00000030: a069 8e3c 6bdf 153e aa0a 2f3d 11ad 9c3d
00000040: c637 813d 937d c7bd 6c46 223e 5af6 d7bd
00000050: 99ad 053e 373c 623d b115 23bd ca80 0b3e
00000060: 245c b5bd f4fa 27be b2e6 62bd 8cfb 513d
00000070: cfe6 393d 83a5 05be 336b 0a3e 9a44 9f3d
00000080: d683 02be 69bf cdbc ddaa 1c3e 54dc 2b3e
00000090: e944 a03d 0711 33be a54c f13d 1026 a03d
000000a0: 1219 2dbe 38f4 aa3c 88e0 0dbe 8ab1 01be
000000b0: e34a 773d ec73 0abe 42df 19bd 6178 b13d
000000c0: c883 053e 2095 143e 22ed 27bc 0deb a5bd
000000d0: d46c a63d 2e31 41be ef46 323e b123 debd
000000e0: 9139 b5bd 834b f23d a4a2 003e 1f38 89bd
000000f0: 7831 4fbd 338e 5ebd 5125 8abd e776 363d
00000100: c132 03be 5a05 063e 600b bb3d 7d38 493e
00000110: b742 11be c5e1 2abe 9d8b 1dbe 81db df3d
00000120: 90c5 febc 4e38 d93d 84bf c93c d632 153e
00000130: 4029 db3d 5b09 e23d 62d6 4ebd 0e77 9cbb
00000140: b46e ea3c 355f 143e f70a 1c3e 1d82 bdbd
00000150: 3470 513b 44b5 e6bd 84c5 d63d 3f3b 52bd
00000160: a5d0 a83d b6dc c73c 6c62 713d 5e15 a1bd
00000170: 94a2 cf3d dc3a 9c3c 4a14 c53c 8e16 c8bc
00000180: ee02 c1bd 5ab2 a7bd 8a32 383d 1886 14be
00000190: 6d73 d4bd d8f0 1d3d 759f 523c dde8 0a3e
000001a0: 9760 a63c 0e82 b53d bc30 ab3d ecb3 8f3d
000001b0: 2731 293e 644c f4bd 9c74 dc3d b16b 5cbd
000001c0: 11cb 22be c662 273e 329f cbbd 55d5 0abe
000001d0: 880f 623d a69b 883c bb98 fdbd 6b77 ec3d
000001e0: 8688 7ebd 0658 b53d ce56 213d 8505 c8bd
000001f0: bce3 99bd b086 d83c 9ced babd 5f85 babd
00000200: f981 103e 16e9 7c3c dbef 103e e409 b53d
00000210: 6ec4 993c 5ecd e03d 961e 1b3d 7850 69bd
00000220: 3e3d 083e 010e 113e 91dd b83d 44d8 b03d
00000230: ac2a f6bd ce42 2bbd a0aa fe3d 0577 d03d
00000240: f89d d13d 5708 413b 8f2a 0dbc e0fb b33d
00000250: f686 12be 30ab c53c 7bc9 243d 4619 c73b
00000260: 943d 4b3d 0b28 f2bd 5b25 373d 232e 213b
00000270: 8276 91bd 2695 55bd 33eb 6c3d 0d6c 19be
00000280: 4fd4 233e 6325 06be ec0c 4abd 7d87 1e3e
00000290: 8f00 213e e9fc 213e 3a7f 8e3c 02b0 afbd
000002a0: d829 24be 6b1e 1fbe 23b2 7bbd 2beb 103e
000002b0: 3748 9e3d caee 4cbd d5e1 a3bd a106 86bd
000002c0: 3f2b 183e e47d 1abe d7e8 b63d 2bbf b43d
000002d0: 83f5 6fbd 0143 dcbd 587e 963d 679c 073c
000002e0: 6462 3a3e 43c9 793d 6e3a 99bd 87af 773d
000002f0: 2039 0a3e 4c39 23be ea46 443b 20a3 00be
00000300: 3e42 dabd 4cfd 003e 80b3 e9bd 1a0d 733c
00000310: 1d55 133c 7072 dc3d 7a5b 08be c0d7 3a3d
00000320: 01ab 1fbe c886 5d3d 88c6 f33c cec1 3b3d
00000330: f2ca d7bc 7674 fcbd 0631 52bd de0c dbbd
00000340: afe9 24be 8d43 dfbc 8965 2abe 6375 f8bd
00000350: 6b8e d6bd a7a4 aa3d ddc6 f93d 0274 f1bd
00000360: 37df 183e c435 863d bf64 3cbd 7fc3 b33d
00000370: 4e53 1dbe 7d25 12be e9b8 17be 35b4 223d
00000380: 3088 143e 22b9 523d 4ffd 91bc be13 203e
00000390: 3817 18be ace6 efbd e33f 05be 8eea cebd
000003a0: 85fa e93c 2df0 94bd 71f0 973d 1b09 7dbd
000003b0: d615 f33c 6ff2 af3d be81 10be 5e45 42bd
000003c0: 07b1 33bd f103 a2bd 16b2 cdbc 2d52 03be
000003d0: 4cbd 223e af7f ac3d a098 923d 37e9 50bd
000003e0: 7ae2 d03d 9e03 eebd 1775 813d 30df 2e3e
000003f0: 639d fb3d 2728 213e d8ad d63b 7533 d23d

lstm.bias_ih_l0 f4 [128]
-0.13503754 -0.03300208 0.100518644 -0.09695059 0.117289126 -0.089748345 0.15094753 -0.017410055
-0.11081496 -0.08414572 0.06847127 0.0533913 -0.052512776 -0.14073554 0.07516775 0.008148716
0.05830985 0.030702334 0.12843104 0.12558676 0.063054666 0.11047926 0.122135706 -0.06069314
-0.13838004 0.19131143 -0.059930377 -0.09544514 -0.031907804 -0.14891942 -0.0035725576 0.023182452
0.05512102 -0.056864414 0.18572748 -0.13652797 0.011813707 -0.11846825 -0.1679514 -0.13437405
0.05173395 -0.12837452 0.09663918 0.13884284 0.10853951 0.13556312 -0.13215673 0.017588802
-0.09665585 -0.124074414 0.06383261 0.031258762 0.04027637 -0.10500534 0.1165572 -0.0031743655
0.065411076 0.102766916 -0.08100864 -0.003968397 -0.09597781 0.15897308 -0.036156014 0.13986818
0.014279467 0.14526844 -0.16645946 0.16057938 0.14636101 -0.030093154 0.12181918 -0.11570075
-0.11733708 0.077837795 0.07675813 0.052583177 -0.021939736 0.14347139 0.16918866 -0.030950986
0.047657546 -0.051293775 -0.15026008 -0.05231971 0.1643764 -0.098466896 0.15921678 0.17948106
-0.06037881 -0.06030097 0.05348876 0.055361602 -0.1325185 0.076008715 0.15120623 0.17329615
0.19488522 0.047950648 -0.0674686 -0.14835931 0.18038511 -0.13349208 -0.17796224 0.15497063
0.044146948 0.20349188 -0.12228348 0.09239956 -0.0045292247 0.14928189 0.17981032 -0.09609301
-0.041927807 -0.06990196 0.08973082 -0.059266955 0.00023713103 -0.048054755 -0.06514534 -0.041808788
0.062490966 0.19382079 -0.14118885 0.016495682 0.014885786 -0.14481243 0.1622878 -0.032439433
00000000: 4847 0abe 302d 07bd b8dc cd3d 088e c6bd
00000010: 4835 f03d fbcd b7bd fd91 1a3e 889f 8ebc
00000020: f4f2 e2bd 9754 acbd aa3a 8c3d d6b0 5a3d
00000030: a317 57bd fa1c 10be 8df1 993d 3182 053c
00000040: 4fd6 6e3d 7683 fb3c 6d83 033e d199 003e
00000050: ce22 813d f342 e23d 4922 fa3d 5f99 78bd
00000060: 7fb3 0dbe 25e7 433e 8e79 75bd be78 c3bd
00000070: c2b1 02bd 557e 18be 9221 6abb 20e9 bd3c
00000080: 94c6 613d a9ea 68bd 582f 3e3e fdcd 0bbe
00000090: 478e 413c 7b9f f2bd 74fb 2bbe 5a99 09be
000000a0: fae6 533d 9c74 03be c3ea c53d d12c 0e3e
000000b0: f649 de3d 0fd1 0a3e 1854 07be 6416 903c
000000c0: 81f3 c5bd ba1a febd acba 823d 3009 003d
000000d0: d6f8 243d 0a0d d7bd 8bb5 ee3d 0409 50bb
000000e0: 3ef6 853d 7677 d23d dce7 a5bd 5409 82bb
000000f0: 0490 c4bd d7c9 223e 5418 14bd 9b39 0f3e
00000100: 6df4 693c 40c1 143e 5974 2abe ec6e 243e
00000110: a9df 153e eb85 f6bc 567c f93d 84f4 ecbd
00000120: 6c4e f0bd 6c69 9f3d 5e33 9d3d 7561 573d
00000130: f6ba b3bc 2aea 123e cb3f 2d3e ec8c fdbc
00000140: 8f34 433d 6c19 52bd c7dd 19be 314d 56bd
00000150: 4952 283e 03a9 c9bd b909 233e e2c9 373e
00000160: c54f 77bd 26fe 76bd 0817 5b3d d9c2 623d
00000170: eeb2 07be 75aa 9b3d ced5 1a3e 8c74 313e
00000180: fe8f 473e e667 443d fa2c 8abd 81eb 17be
00000190: e0b6 383e 26b2 08be bc3b 36be 9fb0 1e3e
000001a0: 6ed3 343d 2d60 503e c36f fabd fb3b bd3d
000001b0: e469 94bb 5add 183e 3220 383e 69cc c4bd
000001c0: 7ebc 2bbd c228 8fbd cbc4 b73d e8c1 72bd
000001d0: 60a6 7839 10d5 44bd ec6a 85bd b13f 2bbd
000001e0: 87f6 7f3d f578 463e cf93 10be f421 873c
000001f0: 83e3 733c b649 14be c62e 263e 36df 04bd

lstm.bias_hh_l0 f4 [128]
0.03989777 0.16950801 -0.024075033 0.1604752 0.040474813 -0.10611624 -0.1552896 0.11085232
-0.02324304 0.0025481232 -0.06351584 -0.034596775 -0.026287898 -0.13312297 -0.061123632 0.096248396
-0.0026531075 -0.1300346 0.02683423 -0.040305287 -0.045038518 0.025681421 -0.11935894 -0.04254385
0.088075094 0.19580534 0.16489384 -0.07960477 -0.10449655 -0.0067937225 0.07809634 0.058504745
0.18621382 0.1379608 0.06855651 0.059162565 -0.09216779 -0.051125325 0.1004343 0.16166444
-0.062258728 -0.045469694 0.16764306 -0.070947774 -0.020638788 0.0642512 -0.12743892 -0.15030734
-0.10714056 -0.16087614 -0.084605955 0.13894886 -0.048140224 -0.16920228 0.11756097 0.10860642
0.13683598 0.08394371 0.00049157784 -0.07591716 -0.061026115 0.120506436 0.17121954 0.19159363
0.06293321 0.028379109 0.046717875 0.13264221 -0.055863913 0.029553961 0.011373642 -0.09681018
0.116239496 0.1884892 -0.02022665 0.1295186 0.014635179 -0.124099426 -0.16078256 0.05535721
-0.08282402 -0.0017626355 0.17061883 -0.13180622 0.14943612 -0.14844944 -0.14700855 -0.04821326
-0.1102461 -0.12871343 0.09471158 0.18811683 -0.08861037 -0.021425357 -0.017717492 0.01823531
-0.087849624 -0.024972703 0.025425274 0.00791929 0.1652431 0.13828057 -0.06813767 -0.08983188
0.11895168 -0.11979668 -0.027947966 -0.1792086 -0.13242772 -0.15147196 -0.112300806 0.025120178
0.087435074 -0.16045593 0.011598098 -0.0033794174 0.13063346 -0.12219994 0.04292174 0.09136569
-0.026828883 -0.0116371475 0.04550325 -0.10492056 0.10666542 0.018799067 -0.13550697 -0.022503939
00000000: d86b 233d 8293 2d3e 0139 c5bc 9c53 243e
00000010: ebc8 253d 7953 d9bd 3d04 1fbe 8b06 e33d
00000020: 3068 bebc 6afe 263b 9814 82bd 59b5 0dbd
00000030: b859 d7bc 6351 08be c65c 7abd e11d c53d
00000040: c2df 2dbb ca27 05be 76d3 db3c 2817 25bd
00000050: 4f7a 38bd d861 d23c 7672 f4bd 7642 2ebd
00000060: b760 b43d 3281 483e eed9 283e d307 a3bd
00000070: 4a02 d6bd e09d debb f9f0 9f3d aca2 6f3d
00000080: d6ae 3e3e 9945 0d3e 5b67 8c3d 7254 723d
00000090: 77c2 bcbd ca68 51bd 80b0 cd3d 5d8b 253e
000000a0: 0203 7fbd 6e3e 3abd 9faa 2b3e 114d 91bd
000000b0: ad12 a9bc 2296 833d 597f 02be 2bea 19be
000000c0: 836c dbbd b7bc 24be e345 adbd 9c48 0e3e
000000d0: af2e 45bd 5d43 2dbe cec3 f03d 0b6d de3d
000000e0: bb1e 0c3e aeea ab3d 3bdd 003a 757a 9bbd
000000f0: 85f6 79bd 14cc f63d 2d54 2f3e 1f31 443e
00000100: 20e3 803d 4e7b e83c 3e5b 3f3d 5cd3 073e
00000110: 8fd1 64bd 261b f23c 8358 3a3c 6a44 c6bd
00000120: f90e ee3d 5003 413e 5cb2 a5bc 86a0 043e
00000130: 64c8 6f3c d727 febd 2fa4 24be 3ebe 623d
00000140: a49f a9bd 3c08 e7ba b4b6 2e3e 36f8 06be
00000150: c805 193e 2103 18be 6989 16be 447b 45bd
00000160: b5c8 e1bd 74cd 03be 25f8 c13d b3a1 403e
00000170: 5b79 b5bd 3b84 afbc 4624 91bc 3862 953c
00000180: 81ea b3bd 8e93 ccbc aa48 d03c e9bf 013c
00000190: 7d35 293e 6c99 0d3e c38b 8bbd c7f9 b7bd
000001a0: f09c f33d f657 f5bd 22f3 e4bc 7682 37be
000001b0: 229b 07be 771b 1bbe f7fd e5bd d5c8 cd3c
000001c0: 2911 b33d 8f4e 24be f305 3e3c 3779 5dbb
000001d0: c7c4 053e f643 fabd b5ce 2f3d ef1d bb3d
000001e0: 3fc8 dbbc bca9 3ebc 9e61 3a3d 97e0 d6bd
000001f0: 6673 da3d 8000 9a3c 57c2 0abe 2e5a b8bc

lstm.weight_ih_l1 f4 [128, 32]
-0.10704419 -0.09979649 0.15362851 0.03761417 0.047045853 -0.03953754 0.013455876 0.16600505
0.18437359 -0.13869381 -0.16928609 -0.009080661 0.011234839 0.15089764 -0.13469599 0.053430155
-0.10898386 -0.16926946 0.08594861 0.065032735 0.07685873 0.026351124 -0.00709183 -0.11997654
-0.07559525 0.04639744 -0.02439687 -0.0766264 -0.05168706 -0.043661192 0.02738345 -0.14033034
0.10615161 -0.016673643 0.057597958 0.018506175 -0.009895909 0.052724272 -0.013590196 -0.006775356
-0.011966562 -0.13807482 -0.17342687 -0.035986677 -0.12624161 0.025518723 0.10645183 -0.14171737
-0.091432296 0.035166465 -0.11912221 0.16336204 0.009621274 0.09253483 -0.10606098 -0.100875646
0.03031297 -0.15087974 -0.02138937 0.064526305 0.11881678 -0.01281299 0.122391835 -0.077596866
0.037870523 -0.09372666 0.03857241 0.08603335 0.008740549 -0.018857125 -0.076337956 0.07201156
-0.114953645 -0.12010673 0.15324661 0.1596306 0.13106735 -0.08683152 0.11282256 0.054927733
-0.13993604 -0.06790171 -0.038945496 -0.03882526 0.1617763 0.032792892 -0.048078675 0.038251635
-0.1143581 0.12934011 0.1655243 -0.10396815 -0.016502025 -0.0068631493 -0.09541185 0.06305972
-0.10477598 0.066924125 0.121309 0.034785837 -0.15395956 0.0049212785 0.1670094 0.050617084
-0.12556978 -0.16127002 0.14978972 -0.113815665 -0.025984382 -0.13398586 -0.069745734 -0.15889557
-0.016131971 -0.047022674 -0.10582136 -0.031178735 -0.09870572 0.14827386 -0.12120871 -0.08210488
0.09631653 -0.016136985 0.12629707 -0.06771425 0.019191196 -0.121901035 -0.15980591 -0.12057105
0.06539736 -0.13241993 0.040741958 0.046117276 0.011796212 -0.14681873 0.042412 0.020274295
0.083425924 0.013390164 -0.11943346 -0.1166269 -0.18674067 0.15769108 -0.032151755 -0.15664078
0.08172598 -0.1624101 -0.14600523 0.12549172 -0.06797799 0.010480912 0.023359535 0.10531429
0.028287424 0.09599121 -0.17323223 -0.09044122 0.17197601 0.087975554 -0.13645485 0.1545116
0.15632656 -0.062090646 0.07914745 0.1600723 0.18137573 -0.051652633 0.031611737 -0.033416856
0.015392267 0.07449507 0.1275398 -0.0077752797 0.007074256 0.18798521 -0.05063692 0.15748912
-0.0691909 0.05960013 0.09331386 -0.007888431 0.105972886 -0.039500255 -0.035652366 -0.055466477
0.10952189 -0.16067001 -0.18108794 -0.117471546 -0.13283694 -0.01862565 -0.13751796 -0.110475466
0.16695032 0.045557775 0.093049504 -0.044708997 0.15907213 0.104488425 0.15271242 -0.06824058
0.10610542 -0.112651646 0.0035678917 0.15827985 0.019315384 -0.1382151 -0.0095143635 -0.019916464
0.14513431 0.13849325 0.028730989 -0.03523369 -0.14792868 -0.06758316 0.1449228 -0.15483122
0.059104227 -0.11349231 0.08928395 0.048904963 -0.15543798 0.15266383 -0.09943402 -0.023375085
0.1421283 0.099771276 0.0986118 0.07938824 0.09052402 -0.12279722 -0.054575942 -0.014312758
0.14338966 0.103580244 -0.04920821 -0.04250175 -0.07987282 0.11535461 -0.0074564046 0.1694652
0.068055384 -0.010843134 0.045039885 -0.009820681 0.055386916 -0.04741007 0.12578174 -0.042153955
-0.06749404 0.0062729833 0.08706182 0.12585339 -0.12331544 -0.13200767 0.139711 -0.027743373
00000000: fc39 dbbd 1a62 ccbd cb50 1d3e 5111 1a3d
00000010: 27b3 403d 1ef2 21bd 0976 5c3c 3afd 293e
00000020: 6ecc 3c3e c005 0ebe 5559 2dbe 0ec7 14bc
00000030: 5512 383c e984 1a3e bfed 09be 94d9 5a3d
00000040: ee32 dfbd f954 2dbe d305 b03d e22f 853d
00000050: 1c68 9d3d 50de d73c 9562 e8bb 43b6 f5bd
00000060: afd1 9abd 3e0b 3e3d f2db c7bc 4dee 9cbd
00000070: d0b5 53bd 14d6 32bd 4253 e03c c2b2 0fbe
00000080: 0466 d93d 2a97 88bc d6eb 6b3d 439a 973c
00000090: 7322 22bc 68f5 573d 6aa9 5ebc ce03 debb
000000a0: 660f 44bc 7c63 0dbe d096 31be c466 13bd
000000b0: 7b45 01be a40c d13c 6b03 da3d 5c1e 11be
000000c0: db40 bbbd b60a 103d 58f6 f3bd 6148 273e
000000d0: 8ca2 1d3c e782 bd3d 8036 d9bd e497 cebd
000000e0: e852 f83c 3880 1abe c338 afbc 5e26 843d
000000f0: 3656 f33d 93ed 51bc 92a8 fa3d 1beb 9ebd
00000100: 1f1e 1b3d c3f3 bfbd 1afe 1d3d 4132 b03d
00000110: 8534 0f3c 427a 9abc 1357 9cbd cc7a 933d
00000120: d16c ebbd 84fa f5bd aeec 1c3e 3476 233e
00000130: 8536 063e b9d4 b1bd 840f e73d e7fb 603d
00000140: 654b 0fbe 0d10 8bbd 5085 1fbd 3c07 1fbd
00000150: b0a8 253e d751 063d 25ee 44bd bfad 1c3d
00000160: 9434 eabd bc71 043e 347f 293e 41ed d4bd
00000170: 412f 87bc 45e4 e0bb 4a67 c3bd 7425 813d
00000180: ca94 d6bd 840f 893d da70 f83d 987b 0e3d
00000190: 93a7 1dbe ad42 a13b 8304 2b3e dc53 4f3d
000001a0: 5d95 00be f823 25be 7a62 193e 3018 e9bd
000001b0: 33dd d4bc 9733 09be dad6 8ebd 85b5 22be
000001c0: 3227 84bc d99a 40bd dfb8 d8bd 8c6a ffbc
000001d0: 3926 cabd 1ad5 173e 463c f8bd 9a26 a8bd
000001e0: 9a41 c53d b631 84bc 0554 013e c5ad 8abd
000001f0: db36 9d3c 40a7 f9bd 29a4 23be f4ed f6bd
00000200: 0def 853d 1799 07be 0ae1 263d 78e5 3c3d
00000210: e644 413c a657 16be 35b8 2d3d 4716 a63c
00000220: 36db aa3d 6b62 5b3c 8899 f4bd 16da eebd
00000230: f238 3fbe c579 213e 8fb1 03bd 7166 20be
00000240: f35f a73d d54e 26be 6582 15be e780 003e
00000250: 0b38 8bbd 22b8 2b3c 7f5c bf3c 05af d73d
00000260: 07bb e73c 0a97 c43d ca63 31be 3f39 b9bd
00000270: 7b1a 303e 872c b43d d2ba 0bbe 4a38 1e3e
00000280: 1214 203e c352 7ebd 0f18 a23d fee9 233e
00000290: 8fba 393e b691 53bd 4f7b 013d 1de0 08bd
000002a0: d92f 7c3c df90 983d cb99 023e c6c7 febb
000002b0: 29cf e73b 327f 403e a968 4fbd d444 213e
000002c0: f5b3 8dbd 441f 743d 561b bf3d 7a3e 01bc
000002d0: 5008 d93d 05cb 21bd 3708 12bd d130 63bd
000002e0: 034d e03d ae86 24be 1e6f 39be ec94 f0bd
000002f0: 6806 08be d294 98bc 82d1 0cbe f640 e2bd
00000300: 06f5 2a3e ca9a 3a3d bd90 be3d c820 37bd
00000310: cee3 223e 07fe d53d a560 1c3e b8c1 8bbd
00000320: cc4d d93d e8b5 e6bd 4ad3 693b 1d14 223e
00000330: 4c3b 9e3c 4288 0dbe 22e2 1bbc da27 a3bc
00000340: 179e 143e 2dd1 0d3e 405d eb3c 3451 10bd
00000350: 9e7a 17be 0a69 8abd a466 143e 138c 1ebe
00000360: 4617 723d a86e e8bd 81da b63d 9250 483d
00000370: 222b 1fbe e853 1c3e 10a4 cbbd 1b7d bfbc
00000380: 158a 113e e254 cc3d fcf4 c93d 4d96 a23d
00000390: a864 b93d 1c7d fbbd 068b 5fbd 0f80 6abc
000003a0: bdd4 123e e121 d43d 8c8e 49bd 5116 2ebd
000003b0: 5c94 a3bd 0a3f ec3d db54 f4bb 4988 2d3e
000003c0: 9f60 8b3d 66a7 31bc be7b 383d ece6 20bc
000003d0: 64dd 623d 1031 42bd eecc 003e a0a9 2cbd
000003e0: 513a 8abd 998d cd3b 784d b23d b6df 003e
000003f0: ce8c fcbd 052d 07be 6610 0f3e 1246 e3bc

lstm.weight_hh_l1 f4 [128, 32]
-0.008793043 -0.08784968 0.066801645 0.12741321 -0.019042868 -0.01977336 -0.05784124 -0.1347089
0.16476092 -0.17501198 0.069575064 0.10024815 0.08346375 0.08008497 0.06385767 -0.037266064
0.049365234 -0.07239876 0.05531221 -0.08640703 0.108672135 0.05154642 0.010511104 0.041218404
0.045660846 -0.17901616 0.10528937 0.12900935 0.06510313 -0.11812349 0.022422146 -0.022074135
-0.038014513 0.09173103 0.13551174 -0.019469006 -0.1256011 -0.15471117 0.10599909 -0.14474282
-0.12287658 0.09513104 0.06345028 0.09518665 -0.029098887 0.11527884 0.09916469 0.038571965
0.029845746 0.004474041 -0.1496524 0.024924504 0.13662139 -0.15951626 0.10154151 0.14288898
0.14286113 -0.12411313 -0.14064568 -0.15586516 -0.10153923 -0.17184159 -0.00849054 -0.101446435
-0.076839164 -0.094164155 -0.1628895 0.009061084 0.06374674 -0.02175193 -0.0956987 0.07908467
0.06525012 -0.09643833 0.0046253884 -0.00569168 -0.0023093494 -0.11912182 0.14206105 0.09652443
-0.13760687 -0.09081497 -0.17137828 -0.0087904995 0.114194095 -0.037902925 -0.1469651 0.070582815
-0.009050984 -0.039291605 0.005308071 -0.10598802 0.1515858 0.12803553 -0.12966385 0.002652381
-0.12367726 -0.06644055 0.06765553 0.028150426 0.0058634407 -0.09759954 0.102898896 -0.14585716
-0.14997745 -0.16159476 0.024285348 0.12724312 -0.14712642 -0.068603255 0.13764243 -0.008572672
-0.05339606 -0.10683013 0.161992 -0.03439794 -0.11740722 -0.13130589 -0.08249823 0.1327349
0.051448397 0.11647844 0.022648 -0.02924195 0.0005416005 -0.037023675 -0.010183764 -0.12037906
0.053789586 0.17594469 0.11496827 0.06212637 0.124422275 0.029346168 0.07542497 0.06166323
0.18981887 -0.10164977 -0.05344783 0.07702437 0.02470752 0.11920726 -0.10715121 0.031641867
-0.14513607 0.08222589 0.15211426 0.09082754 -0.0071153846 -0.08137875 -0.1169628 -0.14228804
0.05438358 -0.16091973 -0.12326671 -0.023073507 0.026367122 -0.06774975 0.12638995 0.07402444
-0.111003555 -0.15186948 0.055111077 -0.13997743 0.08903544 0.16117685 -0.03544007 0.028743984
-0.059206676 -0.13556726 0.14898658 -0.19004624 -0.12253036 0.13390052 0.027448388 -0.15700945
0.10723318 -0.05088 -0.05923468 0.027669791 -0.12128134 0.07184718 0.038665555 -0.15887715
-0.1490463 0.10670807 0.0475318 0.18418877 -0.051439494 0.06779169 0.09371141 -0.03402403
0.06875869 -0.03362421 -0.124529086 0.052031126 -0.04927225 -0.16183342 -0.105630316 0.11628489
-0.019651828 0.06711641 -0.0040475135 0.14617063 0.14464842 0.058043666 0.08284202 -0.06312487
-0.11018743 0.092700265 0.122147776 0.11558115 -0.0031373044 -0.154928 -0.054082226 -0.0144121675
-0.015514097 0.08048691 0.11475245 -0.06503208 -0.08151555 0.08925343 -0.15740502 -0.16167495
-0.06384398 0.14198685 -0.08775262 -0.1399939 -0.020140665 0.02094882 -0.09852889 -0.16211197
-0.1641915 -0.13753913 -0.08879488 0.044111084 0.040836502 0.07192707 -0.1460395 0.018743804
-0.06411323 0.025654577 -0.071394324 0.023197835 -0.12300449 -0.036911808 0.12676944 0.07120487
-0.17029019 -0.15669547 0.13315551 -0.13498922 -0.0115845725 -0.052055366 -0.11383991 -0.0611652
00000000: b210 10bc 88ea b3bd 4dcf 883d 9c78 023e
00000010: caff 9bbc befb a1bc f0ea 6cbd 21f1 09be
00000020: 16b7 283e 5736 33be 5f7d 8e3d e74e cd3d
00000030: 0bef aa3d 9703 a43d cfc7 823d 4da4 18bd
00000040: 3333 4a3d cd45 94bd 0e8f 623d 2bf6 b0bd
00000050: 7f8f de3d 5722 533d c436 2c3c a1d4 283d
00000060: de06 3b3d 0350 37be f4a1 d73d 071b 043e
00000070: ca54 853d baea f1bd a6ae b73c d1d4 b4bc
00000080: 1bb5 1bbd 7add bb3d 97c3 0a3e 777d 9fbc
00000090: 939d 00be 9b6c 1ebe 0d16 d93d 7637 14be
000000a0: b7a6 fbbd 10d4 c23d 38f2 813d 38f1 c23d
000000b0: ca60 eebc 5017 ec3d db16 cb3d a3fd 1d3d
000000c0: 117f f43c fa9a 923b 7b3e 19be 792e cc3c
000000d0: 7ae6 0b3e 3b58 23be fff4 cf3d 7d51 123e
000000e0: 304a 123e 062f febd 6c05 10be 1e9b 1fbe
000000f0: cdf3 cfbd 3ef7 2fbe e81b 0bbc 26c3 cfbd
00000100: da5d 9dbd 23d9 c0bd 81cc 26be f174 143c
00000110: a78d 823d 1a31 b2bc aefd c3bd 25f7 a13d
00000120: dba1 853d 7681 c5bd 9290 973b 4681 babb
00000130: 7458 17bb 24f6 f3bd 7478 113e 9aae c53d
00000140: d1e8 0cbe 33fd b9bd ca7d 2fbe 0706 10bc
00000150: 98de e93d 1940 1bbd 057e 16be b98d 903d
00000160: 944a 14bc 3cf0 20bd 54ef ad3b 3f10 d9bd
00000170: 4f39 1b3e bf1b 033e 9ac6 04be 92d3 2d3b
00000180: 814a fdbd fc11 88bd fc8e 8a3d b99b e63c
00000190: 1b22 c03b 45e2 c7bd a8bc d23d 945b 15be
000001a0: b093 19be 1979 25be 11f2 c63c 054c 023e
000001b0: 4fa8 16be dd7f 8cbd 23f2 0c3e 6474 0cbc
000001c0: d4b5 5abd c1c9 dabd 3be1 253e dbe4 0cbd
000001d0: 3273 f0bd 0d75 06be d5f4 a8bd a8eb 073e
000001e0: 8ebb 523d 408c ee3d 4c88 b93c d08c efbc
000001f0: 32fa 0d3a 23a6 17bd cdd9 26bc 4c89 f6bd
00000200: 7852 5c3d d82a 343e 7c74 eb3d 3878 7e3d
00000210: 1bd1 fe3d 6067 f03c 6878 9a3d 9592 7c3d
00000220: e15f 423e c12d d0bd 1dec 5abd f4be 9d3d
00000230: 6d67 ca3c f022 f43d 1872 dbbd e79a 013d
00000240: 8d9e 14be 0c66 a83d d7c3 1b3e ca03 ba3d
00000250: 2c28 e9bb e7a9 a6bd 318a efbd f5b3 11be
00000260: 51c1 5e3d 24c8 24be 4273 fcbd a704 bdbc
00000270: ddff d73c 62c0 8abd 5e6c 013e 209a 973d
00000280: d555 e3bd ac83 1bbe 27bc 613d 3e56 0fbe
00000290: 3658 b63d 8b0b 253e 9b29 11bd 8178 eb3c
000002a0: b382 72bd 25d2 0abe f08f 183e 7b9b 42be
000002b0: 33f1 fabd 381d 093e 71db e03c 16c7 20be
000002c0: 129d db3d 8c67 50bd 10a0 72bd c2ab e23c
000002d0: 5a62 f8bd 9d24 933d c65f 1e3d b1b0 22be
000002e0: 989f 18be c389 da3d b4b0 423d fb9b 3c3e
000002f0: 38b2 52bd 5fd6 8a3d c5eb bf3d c85c 0bbd
00000300: 5bd1 8c3d 8ab9 09bd 1b09 ffbd 971e 553d
00000310: b3d1 49bd a9b7 25be b554 d8bd c626 ee3d
00000320: dffc a0bc 5474 893d 01a1 84bb c1ad 153e
00000330: b71e 143e 32bf 6d3d 14a9 a93d 9d47 81bd
00000340: f3a9 e1bd a3d9 bd3d 9d28 fa3d cfb5 ec3d
00000350: 3c9b 4dbb 72a5 1ebe 5385 5dbd 0321 6cbc
00000360: d72e 7ebc 52d6 a43d 5503 eb3d 8a2f 85bd
00000370: a0f1 a6bd 81ca b63d c82e 21be 1e8e 25be
00000380: a2c0 82bd 0065 113e a5b7 b3bd 905a 0fbe
00000390: 09fe a4bc dc9c ab3c 84c9 c9bd ae00 26be
000003a0: d121 28be 0fd7 0cbe 17da b5bd d3ad 343d
000003b0: 2d44 273d 804e 933d 618b 15be 9b8c 993c
000003c0: cc4d 83bd 8c29 d23c 3037 92bd 6309 be3c
000003d0: c7e9 fbbd d630 17bd d9cf 013e dcd3 913d
000003e0: 8d60 2ebe c774 20be eb59 083e 9d3a 0abe
000003f0: 38cd 3dbc 0238 55bd e624 e9bd 5c88 7abd

lstm.bias_ih_l1 f4 [128]
-0.16483477 0.110412925 0.15532354 0.16369954 0.048003547 0.040939152 0.06772603 0.15800194
-0.109346434 -0.024504595 0.011124564 0.00020876079 0.058794558 -0.008324128 0.14968333 -0.016698854
0.16000399 0.19780162 0.13264093 -0.09363213 -0.14055744 0.035970878 0.09740075 0.044816896
-0.11282317 0.11191891 -0.1214835 0.06497216 -0.086933516 0.13058536 -0.06446968 -0.06485492
-0.09810676 -0.120224975 -0.027201524 -0.0208865 0.086816855 0.123835705 0.03989897 0.13349284
0.0587926 -0.16862407 0.16154087 0.054593224 -0.1657375 -0.11731142 -0.062522195 0.031117158
0.16235806 -0.0965844 0.13434745 0.1446668 0.13830087 0.074616484 -0.01842613 0.096489646
0.014196568 0.09533612 0.15258168 0.026086958 0.021503476 0.15463743 -0.15109184 0.1629912
-0.072845906 -0.07063385 0.01703374 -0.06529962 -0.11996961 0.17268978 -0.13583323 -0.050765395
-0.044281337 0.1476154 0.03137068 0.1911828 -0.08698456 -0.1621527 -0.107754484 -0.18324715
0.1304005 0.015873842 0.11681252 -0.070271954 -0.18416321 0.14584073 -0.15502487 0.03651854
0.062729806 0.077561416 -0.08143604 -0.08839212 0.07411583 0.13226588 0.07287069 0.061824497
-0.18954189 -0.016323015 -0.10013597 0.040977247 -0.04693255 0.09379439 0.12620282 0.1300074
-0.110960454 0.13313785 0.19931209 0.023997089 0.09145763 -0.09749488 0.01825247 -0.12922981
-0.0067076515 0.16228211 -0.17369677 -0.10828878 -0.11927294 -0.02080308 0.15889224 0.054710586
0.0838443 0.09433311 -0.04034813 -0.15421553 -0.07203585 -0.051052257 -0.13128932 -0.030634213
00000000: 72ca 28be 2c20 e23d 220d 1f3e daa0 273e
00000010: 5e9f 443d d0af 273d f2b3 8a3d 43cb 213e
00000020: 06f1 dfbd dcbd c8bc ce43 363c cce6 5a39
00000030: 90d2 703d ec61 08bc 9646 193e 09cc 88bc
00000040: 16d8 233e 828c 4a3e 06d3 073e 34c2 bfbd
00000050: 4aee 0fbe 3356 133d 0b7a c73d ec91 373d
00000060: d60f e7bd be35 e53d 57cc f8bd 2010 853d
00000070: 330a b2bd 2bb8 053e ae08 84bd a8d2 84bd
00000080: 32ec c8bd 8338 f6bd bbd5 debc 2a1a abbc
00000090: 09cd b13d 939d fd3d 1a6d 233d 59b2 083e
000000a0: 82d0 703d caab 2cbe f86a 253e 259d 5f3d
000000b0: 17b7 29be f840 f0bd a30b 80bd 69e9 fe3c
000000c0: 3141 263e 0bce c5bd 6192 093e 8923 143e
000000d0: be9e 0d3e 87d0 983d 65f2 96bc 5d9c c53d
000000e0: b998 683c 953f c33d 5f3e 1c3e 51b4 d53c
000000f0: 0f28 b03c 4659 1e3e d2b7 1abe 2ae7 263e
00000100: 3c30 95bd 7ba8 90bd 588a 8b3c cfbb 85bd
00000110: a0b2 f5bd 97d5 303e de17 0bbe 60ef 4fbd
00000120: 5960 35bd 7e28 173e 8b7e 003d 6dc5 433e
00000130: f624 b2bd 5b0b 26be 62ae dcbd 24a5 3bbe
00000140: b587 053e dc09 823c 673b ef3d beea 8fbd
00000150: 4895 3cbe 4657 153e d7be 1ebe 7794 153d
00000160: 7c78 803d 85d8 9e3d f0c7 a6bd ee06 b5bd
00000170: 0aca 973d b570 073e 3a3d 953d af3b 7d3d
00000180: 4517 42be d8b7 85bc 1614 cdbd c2d7 273d
00000190: 583c 40bd 4617 c03d 503b 013e a920 053e
000001a0: 3c3f e3bd 4a55 083e 7818 4c3e 8b95 c43c
000001b0: 234e bb3d 65ab c7bd 3486 953c d254 04be
000001c0: dccb dbbb 482d 263e 91dd 31be 82c6 ddbd
000001d0: 5f45 f4bd 396b aabc a6b4 223e 3518 603d
000001e0: 8fb6 ab3d b831 c13d 1544 25bd adea 1dbe
000001f0: 8887 93bd 2c1c 51bd b570 06be 9af4 fabc

lstm.bias_hh_l1 f4 [128]
-0.04232532 0.13616763 -0.09423164 -0.103109665 0.08733569 -0.05479002 0.097843386 -0.056006514
0.15808767 -0.16344164 0.15107614 -0.058633626 0.025602777 0.037952296 0.019705601 0.13289613
-0.1300323 -0.13334201 -0.0008275204 -0.039454393 0.062183682 0.027539393 -0.16711175 0.16498145
0.1315446 -0.021107525 -0.16894653 0.17738432 -0.14877951 0.054843366 0.044680588 0.12731604
0.13116938 -0.14345169 -0.12644055 -0.09124366 0.041224826 0.04998097 -0.0944855 0.010715614
0.023160603 0.085144736 -0.1461846 -0.06401395 0.07237262 -0.08354077 -0.12864324 -0.10898362
-0.009492674 0.06747936 -0.12773019 -0.17941236 0.13912044 -0.16691388 -0.17148183 0.052026354
-0.12891366 -0.0213882 -0.1066921 0.13725291 -0.11362912 -0.10877968 0.1078708 0.028842993
-0.0074593048 -0.10426107 0.01698622 -0.012090095 -0.053385906 -0.12947522 0.028415317 0.10965136
-0.06307699 -0.123668686 -0.0687009 -0.08039104 -0.014196088 -0.098319024 -0.017963976 -0.027700257
-0.17143594 0.13268127 0.12385302 0.024363352 -0.0024325806 -0.08506817 0.017837074 0.15078282
0.14035994 0.11765174 -0.012330413 -0.037143845 -0.033995777 0.07662943 0.17352912 -0.17346838
-0.103134155 0.024185106 -0.043905973 -0.16838521 -0.052790612 0.09519615 0.14632908 0.08773631
-0.0901844 -0.00086114 -0.053919878 -0.013951839 -0.09127242 -0.07524288 0.16324618 -0.09251376
-0.099465564 0.081058204 -0.14687248 0.15018854 -0.10631304 -0.14528526 -0.14916967 0.001155269
-0.19072263 -0.13312225 -0.03478994 0.1782477 -0.060647473 -0.049023088 0.014824045 -0.035036966
00000000: 515d 2dbd 876f 0b3e 85fc c0bd 292b d3bd
00000010: 0edd b23d 806b 60bd 1d62 c83d 1667 65bd
00000020: bce1 213e 3f5d 27be b4b3 1a3e d029 70bd
00000030: eabc d13c de73 1b3d a46d a13c ec15 083e
00000040: 3027 05be cf8a 08be f4ed 58ba ee9a 21bd
00000050: 51b4 7e3d 4b9a e13c 581f 2bbe e6f0 283e
00000060: a1b3 063e b0e9 acbc 5200 2dbe 3ca4 353e
00000070: a859 18be 70a3 603d fe02 373d 235f 023e
00000080: 4451 063e 00e5 12be a279 01be f5dd babd
00000090: 5ddb 283d d8b8 4c3d 9d81 c1bd 8b90 2f3c
000000a0: 4ebb bd3c 5d60 ae3d 6ab1 15be bf19 83bd
000000b0: 1938 943d 6c17 abbd 0ebb 03be ce32 dfbd
000000c0: 2987 1bbc 9e32 8a3d b4cb 02be e0b7 37be
000000d0: 9775 0e3e 79eb 2abe ef98 2fbe 9619 553d
000000e0: f101 04be 4e36 afbc 6381 dabd 078c 0c3e
000000f0: 62b6 e8bd e2c7 debd 5eeb dc3d 2448 ec3c
00000100: 2f6d f4bb d486 d5bd af26 8b3c 8915 46bc
00000110: 2eab 5abd 2795 04be 3dc7 e83c e490 e03d
00000120: 822e 81bd 0246 fdbd 0fb3 8cbd 0fa4 a4bd
00000130: b596 68bc 7c5b c9bd 3029 93bc a6eb e2bc
00000140: e78c 2fbe 99dd 073e a7a6 fd3d a795 c73c
00000150: ee6b 1fbb 3938 aebd 0e1f 923c d066 1a3e
00000160: 84ba 0f3e 65f3 f03d 8005 4abc 2524 18bd
00000170: 283f 0bbd e4ef 9c3d 9eb1 313e b2a1 31be
00000180: 0038 d3bd d81f c63c c0d6 33bd 2c6d 2cbe
00000190: f83a 58bd 33f6 c23d 4ad7 153e 18af b33d
000001a0: 99b2 b8bd 21be 61ba 17db 5cbd 4196 64bc
000001b0: 09ed babd f018 9abd 022a 273e db77 bdbd
000001c0: 9ab4 cbbd d801 a63d bd65 16be 06cb 193e
000001d0: a7ba d9bd a9c5 14be efbf 18be 656c 973a
000001e0: cb4c 43be 3351 08be e57f 0ebd 9186 363e
000001f0: 7c69 78bd 6fcc 48bd 8de0 723c ec82 0fbd

fc2.weight f4 [1, 35]
0.018493425 -0.034038972 -0.16887349 -0.017720742 0.08572771 0.045693092 -0.06735377 -0.09740361
-0.18545905 -0.07049463 0.068140835 0.16186132 0.06663164 0.023551596 -0.08938736 -0.027902965
-0.015348059 0.014733744 0.034542687 0.020806303 -0.07182105 -0.15616491 0.008572374 0.10349056
-0.055995498 -0.105744764 0.09526044 0.01092306 0.061410002 -0.112771325 0.050873473 -0.15422042
-0.10591587 0.0802625 0.028956922
00000000: 867f 973c 736c 0bbd 2ced 2cbe 172b 91bc
00000010: 0292 af3d ae28 3b3d c6f0 89bd 8b7b c7bd
00000020: fae8 3dbe 7d5f 90bd 6c8d 8b3d f9be 253e
00000030: 2b76 883d 47ef c03c b810 b7bd c294 e4bc
00000040: 6d76 7bbc cd65 713c a27c 0d3d fb71 aa3c
00000050: ea16 93bd b2e9 1fbe 2473 0c3c dcf2 d33d
00000060: 895b 65bd b690 d8bd e817 c33d a2f6 323c
00000070: 0e89 7b3d a7f4 e6bd b460 503d f5eb 1dbe
00000080: 6bea d8bd aa60 a43d 1137 ed3c
