models/LSTMs/lstm0.pth (torch, 128808 bytes, 7 tensors)

conv1.weight f4 [16, 12, 1]
000000 46 24 8a 3c 40 00 1f 3e 6b c2 90 3e 3c a3 99 3e
       0.016863 0.15527439 0.2827333 0.3000735
000010 44 68 03 3e 68 62 11 bd 41 3e 8e bd 1f 68 44 be
       0.12832743 -0.03549424 -0.06945468 -0.19180344
000020 f9 4d 6d bd 15 8f 83 3e 91 8e 5b be 85 b4 b3 3d
       -0.05793569 0.256951 -0.21441104 0.08774666
000030 f0 ba 45 bc 8f 40 2b 3c 18 a2 53 3e dc 2a 5b 3e
       -0.012068495 0.010452404 0.20667303 0.21403068
000040 fa b3 11 bd e9 b2 a4 bd 50 4f 3f 3d f4 d7 ba 3d
       -0.03557203 -0.08041937 0.046706498 0.09123221
000050 6f d1 b3 bd e8 41 47 3e d9 cb 81 bc 75 cb 66 be
       -0.08780181 0.19458735 -0.015844272 -0.2253855
000060 42 67 21 3d e0 0c 0a 3e 92 76 40 3e 8c 07 a4 be
       0.039405115 0.13481474 0.18795231 -0.32037008
000070 5d c3 9b bd 76 df 68 bb df fe 40 3e 7c 25 3a 3e
       -0.07605622 -0.0035533584 0.18847226 0.18178362
000080 7e da 04 be e9 df 23 be 7d 4a 96 3e cd fc 8f be
       -0.12973973 -0.16003384 0.29353705 -0.2812256
000090 2a 80 85 3e 01 e8 61 3d 16 b5 56 3d 86 4b 8c be
       0.26074344 0.055152897 0.05241879 -0.2740137
0000a0 24 1e 42 3e 3f 9f 8d 3e dd da 90 3e 90 6c 27 3e
       0.1895681 0.27660558 0.2829198 0.16350007
0000b0 6f 51 1b be 63 41 44 3e 35 b4 76 be b2 83 1e 3e
       -0.15167783 0.19165568 -0.24092181 0.15479925
0000c0 63 b8 05 be 2b ad 15 be 1a d9 00 3c 25 ef 9c be
       -0.13058619 -0.1461684 0.007864261 -0.30651203
0000d0 8e ea ba bc c6 06 03 be 62 b0 8a be 64 fc 8d be
       -0.022816923 -0.12795553 -0.27087694 -0.2773162
0000e0 69 10 04 3e 06 50 19 be cf e7 bf bd ef 2d 1f 3e
       0.12896885 -0.14971933 -0.09370386 0.15544866
0000f0 fd f1 58 3e ca c2 80 3e de 8f 5e be 60 6c 81 bd
       0.21186061 0.25148612 -0.21734568 -0.06319499
000100 84 de 5e 3e 9f 4f 11 be bd 34 b7 bd b0 fc 41 3e
       0.2176457 -0.1419053 -0.08945606 0.18944049
000110 e8 09 21 3e 12 47 10 bd 40 ba 69 3e 9b 47 c9 3d
       0.15726435 -0.035224028 0.22824955 0.09828111
000120 13 bb 4e be 13 87 55 be 61 a7 a0 3d 6f ae 68 bd
       -0.2018855 -0.20852308 0.07844425 -0.056806978
000130 32 34 5c be 3a 9d c2 3d 29 4a 57 3e 7b b8 53 be
       -0.21504286 0.09502645 0.21024384 -0.20675842
000140 12 6b 35 be 02 7c 54 be f5 0d 73 bc e1 3e 80 3e
       -0.17716625 -0.2075043 -0.014834871 0.25047973
000150 0e a6 8f be 00 a5 15 be 84 bf bb bd ec 09 2b be
       -0.28056377 -0.14613724 -0.09167388 -0.16703004
000160 11 45 c3 3d 68 8a 4a be 44 cc 9d 3e b5 ea 86 bc
       0.09534658 -0.1977936 0.30819905 -0.016469339
000170 95 ae b4 bd e7 9d fe bd 50 44 3e bd 87 25 4a bc
       -0.088223614 -0.12432461 -0.046451867 -0.012338049
000180 42 a3 1d bd 6d fd 7b 3d dc 2d c8 3c 57 b4 28 be
       -0.038485773 0.061520983 0.02443593 -0.16475044
000190 58 35 78 bc c3 95 63 be 90 a7 83 3e 27 05 04 3e
       -0.015149437 -0.22225098 0.25713778 0.1289259
0001a0 06 f2 02 3e d5 57 05 3e b5 3f da 3d 35 bc 4b be
       0.12787637 0.13021787 0.106566824 -0.19896014
0001b0 01 57 37 be a4 ed 09 3e ca e5 16 bd 68 e6 dc bd
       -0.17904283 0.13469559 -0.036840238 -0.10786134
0001c0 8b c8 84 be 28 1a 53 be c8 5e 83 3e 9a 08 18 be
       -0.25934252 -0.20615447 0.2565825 -0.14847031
0001d0 22 39 68 be a6 f4 bf 3d d6 d4 2a 3e e4 b8 04 bd
       -0.22678044 0.09372835 0.16682753 -0.032402888
0001e0 2d fb f2 3d b1 1d 93 be c1 cc 8a be 7c 49 6d be
       0.11864314 -0.2873359 -0.2710934 -0.23172563
0001f0 aa e8 0c be fa ce f1 bc 0d 25 8b 3d f3 81 03 be
       -0.1376063 -0.02951764 0.06794176 -0.1284254
000200 a0 ac 88 3d 77 9c 92 3e 29 3e fb bc 3f 32 2b be
       0.066735506 0.28634998 -0.030669289 -0.16718386
000210 6b 05 79 bd 55 e3 0e be ab b3 4f be 7e 3f fb 3c
       -0.060796183 -0.13953908 -0.20283382 0.030669924
000220 a2 02 89 3e d2 ac 28 be fa 2e 53 be a7 38 e9 3d
       0.2675982 -0.16472176 -0.20623389 0.11387759
000230 0f c2 84 be 3e da 03 3e 3b e5 85 be ae 40 16 3e
       -0.25929305 0.12876222 -0.2615145 0.14673111
000240 fb 88 a4 3d 8c d0 9a 3d 95 86 97 3e a0 c3 d2 3c
       0.080339395 0.075593084 0.29594865 0.025728047
000250 6d fb c6 3b 03 8f 8e 3e 44 2d 4a 3e 4c 4c 37 3e
       0.0060724528 0.27843484 0.1974383 0.17900199
000260 1a 51 5d 3e 46 85 52 3e 73 cc 4a be 3b 0f f4 3d
       0.21612969 0.20558652 -0.19804554 0.119169675
000270 24 40 52 be dd 2f ee 3c 91 b5 84 be 9d 3a 39 be
       -0.2053228 0.029075557 -0.25919774 -0.18088765
000280 8e 34 b0 3d c2 58 93 3e 60 69 a0 be 44 d9 0d be
       0.08603774 0.28778654 -0.31330395 -0.13852412
000290 12 46 ca 3d 34 c3 bf bc d8 d5 75 3e 7f d1 42 be
       0.09876646 -0.02340851 0.24007356 -0.19025229
0002a0 b5 0d 2b 3e 73 34 a4 3d 97 f3 b9 bd 7e 34 6c be
       0.16704448 0.080178164 -0.09079664 -0.23066899
0002b0 8a 2e af 3d 26 f6 7b 3e 0f 19 3d bd 9e f0 95 bc
       0.085537985 0.24605617 -0.046166476 -0.018303212
0002c0 0d dc 6e bc 1c 39 39 3e 06 f7 0d 3e f4 c1 d4 bd
       -0.014578831 0.18088192 0.13863763 -0.10388556
0002d0 2a 98 21 bd 7c 14 6a 3e c6 a1 89 be b9 f6 49 3e
       -0.039451756 0.22859377 -0.26881236 0.19723023
0002e0 37 df bb 3d a6 3c 27 bd e4 f9 a6 3c 7f 63 ee bd
       0.09173434 -0.040829323 0.020382829 -0.11640071
0002f0 52 2b 6c bc db 06 4c be d0 a9 31 3e b7 e0 2b 3b
       -0.014414625 -0.1992449 0.17349935 0.002622647

conv1.bias f4 [16]
000000 eb 1f 4d 3e 45 46 23 be 8f 3c 49 bd 69 08 8e 3e
       0.20031707 -0.15944774 -0.04913002 0.2774079
000010 bd 53 82 3d 1e ae 8f bd bd ca 76 3e 10 50 74 3e
       0.06363628 -0.07015632 0.24100776 0.23858666
000020 28 bf 9d bd 5b 28 3a 3e 7b d1 0a be b5 cf 02 3e
       -0.07702476 0.18179457 -0.13556473 0.12774546
000030 78 e8 5a 3d bf f4 8f 3e 4a 4d 1f 3c 1a ce 53 bd
       0.053444356 0.28116414 0.009723017 -0.051710226

conv2.weight f4 [32, 16, 1]
000000 41 ae 04 be d7 6e 2d 3e 25 d5 e7 3d 45 70 e7 bd
       -0.12957098 0.16936813 0.11319951 -0.113007106
000010 5c df 31 3d 49 f6 6f be f3 1a 6b 3e fd 9b 46 be
       0.043425903 -0.23433794 0.22959499 -0.19395442
000020 df 59 6a bb 87 59 fd bd c7 d1 ea 3d 5e c0 6d 3e
       -0.0035759134 -0.123705916 0.11465793 0.23217914
000030 62 9a cb bd 78 fe ac 3d 44 ad f9 3c ae 23 41 be
       -0.099415556 0.084469736 0.030478127 -0.18861267
000040 4f ed 21 3e c3 c6 94 bd 98 08 13 be 8f 13 01 3e
       0.15813182 -0.07264473 -0.14358747 0.12605117
000050 6a 89 28 3e 15 6d 08 be fa 74 09 bd 49 15 e3 3d
       0.1645867 -0.13322861 -0.033558823 0.11088044
000060 0f 75 7a be 4d f8 c6 bc 33 3a 51 3e d8 c0 8a 3c
       -0.24458717 -0.02428832 0.20432357 0.016937658
000070 3a b4 94 bd 60 d5 10 3e 42 01 27 be 77 d9 ba bc
       -0.07260938 0.14143896 -0.16309074 -0.022808773
000080 dc 88 c6 bd 85 03 b8 bd ff a4 89 3e 7d f2 52 be
       -0.096940726 -0.08985046 0.26883695 -0.20600314
000090 f2 35 18 3e c5 2e af 3c 09 8c 05 bd f2 2b 10 be
       0.14864329 0.021384606 -0.03260425 -0.14079264
0000a0 cd 1b 73 3e 9b 1c c2 3d fe 57 99 bc 4c 2f b5 3d
       0.23741074 0.09478112 -0.018718716 0.08846912
0000b0 15 06 53 3e 0d e8 f6 3b 65 cd 6f be 0b d3 11 3d
       0.20607789 0.007534987 -0.23418196 0.035601657
0000c0 8c 2f 31 3e a8 8d 33 be 2f c0 38 bd 73 6b 44 3e
       0.17303294 -0.17534506 -0.045105156 0.19181614
0000d0 53 41 ec bd 65 fb f6 bd bf fa 8e 3d bd 71 73 be
       -0.11535897 -0.120596685 0.0698142 -0.23773856
0000e0 78 ce cf 3c e5 7d 67 3e 72 e7 85 3d 26 92 62 bd
       0.025367007 0.22606619 0.06538285 -0.05531516
0000f0 c1 3b 69 be 0b 95 0f 3e 52 3d 88 bd 02 41 4c be
       -0.227767 0.14021699 -0.06652321 -0.19946674
000100 3c 99 03 3e 35 96 50 be bc f4 67 3e 74 24 93 bc
       0.12851423 -0.203698 0.22651953 -0.017961718
000110 0a 88 19 3e f1 7d 56 3e b2 5a 14 be dd ff a6 bd
       0.14993301 0.2094648 -0.14487723 -0.08154271
000120 27 35 82 be ba 0f 11 3e d5 c3 8b 3b 4b 3c 7a bd
       -0.25431177 0.14166155 0.0042652884 -0.061092656
000130 5b 42 61 be d2 cf 5c be 8c 83 7e 3e 75 c5 40 be
       -0.21997969 -0.21563652 0.24854869 -0.18825324
000140 a4 72 0b 3d 20 36 6c bd 0d 32 5a be c6 42 91 3c
       0.034044877 -0.057668805 -0.21308155 0.017732035
000150 e9 bf 48 bd 03 47 80 3e c0 fb 44 3e b8 2a 0e bd
       -0.049011145 0.25054178 0.1923666 -0.03470871
000160 af 02 50 bd 8f f4 a0 bd f4 83 6d 3e 11 4d 1a bd
       -0.05078381 -0.07859146 0.23194867 -0.037671153
000170 6d 34 72 3e af 8c 20 be 05 58 7e be 1a 04 a3 bb
       0.23652811 -0.15678667 -0.24838264 -0.004974854
000180 db e5 c2 3c 33 fe 28 3e ef ca cd 3d 81 ac 8d bd
       0.023791244 0.1650322 0.10048472 -0.06917668
000190 b7 70 7b be 7f 6d 64 be 54 78 07 be e8 1c 45 bd
       -0.24554716 -0.22307394 -0.13229495 -0.04812327
0001a0 7b 69 65 bd 2f 3b 89 bd 7a de 7a 3e b3 77 3a 3e
       -0.056008797 -0.067007415 0.2449893 0.18209724
0001b0 89 81 2b 3e 5a 91 28 bd 5a 44 4b be bb 0f d7 bd
       0.16748632 -0.041154243 -0.19850293 -0.10501047
0001c0 c7 65 42 be b4 56 ac bd d0 2a 30 be ea fd 1e 3e
       -0.18984137 -0.08414975 -0.17203832 0.15526548
0001d0 3b 2e 44 3c 54 82 29 3e d6 be 15 bd b0 02 85 be
       0.011973913 0.16553622 -0.03655895 -0.25978613
0001e0 d9 0e 02 3e 45 0c 44 3e 2d 93 ca bd c7 64 70 3e
       0.12700976 0.19145305 -0.09891353 0.23475944
0001f0 d8 4d 97 bc 4c 3c 7c 3c cf 92 c5 3d 03 61 6b be
       -0.018469736 0.015395235 0.09647142 -0.22986226
000200 7d ba 14 be 64 b1 43 bc 1b 0d 53 be 5c be 26 be
       -0.14524265 -0.011944149 -0.20610468 -0.16283554
000210 ab b5 80 3e 3d 54 c4 bc a2 81 8d 3d 52 84 10 3d
       0.25138602 -0.02396595 0.06909491 0.03528244
000220 c1 73 6a be 31 97 a9 bd f9 d9 7d bd bc 7d e8 3d
       -0.22895719 -0.082807906 -0.061975453 0.11352107
000230 11 0e 2d 3e 68 2d 5a 3e b9 b5 36 3e db 33 65 3e
       0.16899897 0.21306384 0.17842759 0.22383063
000240 b0 25 e2 3d 33 e7 76 3d f0 a7 17 bd 9e 4d 50 be
       0.110423446 0.060279083 -0.037025392 -0.20342109
000250 ce 6d 41 3d 90 ba a1 3d b9 67 5a 3d ef 3f b8 3d
       0.04722386 0.07896912 0.053321574 0.08996569
000260 57 97 92 3d f5 2c a7 3d 44 98 46 be 14 24 14 3e
       0.07157772 0.08162872 -0.19394022 0.14466888
000270 b0 6e 8e 3e 44 df d2 bc e4 da 00 3e 70 33 47 be
       0.27818823 -0.025741227 0.125835 -0.19453216
000280 fb 16 3a be 52 61 45 bc a3 16 5d 3e b2 7c 0a 3e
       -0.18172829 -0.012047129 0.21590666 0.1352413
000290 9e 67 50 3e e6 9d d5 bd cd c4 46 bd 2f 6f 89 3e
       0.20352027 -0.10430507 -0.048527528 0.2684264
0002a0 2d 13 6d 3e e5 3d 02 bd 59 fc 78 bb f9 a8 6e be
       0.23151846 -0.03179731 -0.0037992208 -0.23306645
0002b0 0c 7b 3b 3d 2b c6 ef bd f4 83 68 be 19 a7 24 bb
       0.045771644 -0.117077194 -0.22706586 -0.0025124012
0002c0 99 0e 18 3e 6e 14 35 bc f2 4a 84 3d a8 56 65 3d
       0.14849319 -0.011052234 0.06459607 0.055990845
0002d0 6e fb 24 3e 06 b6 53 3e c7 6c ce bd 2b 92 06 3e
       0.16111538 0.20674905 -0.100793414 0.13141696
0002e0 ba e5 6e 3e 96 71 52 3e 58 6b 73 be dd 61 43 be
       0.23329821 0.20551142 -0.23771417 -0.190803
0002f0 4f 66 65 3e 32 7e 46 be e7 a8 ea 3d 31 0b 5b 3e
       0.22402309 -0.19384077 0.11457997 0.21390988
000300 91 89 b4 bd 37 5f 4e 3c 2c f0 4d be 8f eb bf 3c
       -0.08815301 0.012595943 -0.2011115 0.023427753
000310 ed 21 0c be ab 1f 3b bd c3 ac 3c 3e b5 df 0d be
       -0.13684817 -0.045684498 0.18425278 -0.13854869
000320 37 a7 7e be 67 ac e2 bd 88 a7 5f 3e a4 88 95 3d
       -0.24868475 -0.110680394 0.21841252 0.07301453
000330 1a 19 61 be 9e d8 10 3e 79 e5 4b 3e 69 fd 24 3e
       -0.21982232 0.14145133 0.19911756 0.16112293
000340 7d 91 f2 bb c1 ea 22 be cd 2e 38 be 55 4f a1 3d
       -0.0074025975 -0.15909864 -0.17986603 0.078764595
000350 ea ed 80 3e 36 ef 92 3d e1 97 44 be d9 7e 16 be
       0.25181514 0.07174532 -0.19198562 -0.14696826
000360 e5 ca 15 be 83 b5 50 3e ec c2 e4 3d 8f 37 de bd
       -0.1462818 0.20381741 0.11169991 -0.10850441
000370 ff a9 0a be fc 97 1b 3d 5f 1d 1b 3e bf 0c 2e 3b
       -0.13541411 0.03798674 0.15147923 0.002655789
000380 e0 3b e0 bd 33 b4 5a bd 34 0a 38 bd e5 2d 2e 3d
       -0.1094892 -0.053394508 -0.044931605 0.042524237
000390 13 eb e2 3d e7 48 68 3e 47 dd 1c 3e ae 06 43 be
       0.11079993 0.2268406 0.15318786 -0.19045517
0003a0 1f da 76 3d 2e bd 4f be a0 c6 90 3e 25 15 2c 3e
       0.06026661 -0.2028701 0.2827654 0.16804941
0003b0 1e ed 8b 3d f4 5e 28 be 08 1d 89 3e 85 65 8d bd
       0.06832336 -0.16442472 0.26779962 -0.06904129
0003c0 f9 de 9a 3d e7 5e ab bc 2d af 6f 3d b2 6a 5b be
       0.0756206 -0.020919276 0.05851667 -0.2142742
0003d0 6a b8 be bd f2 b9 28 be 7b 59 04 3e 4d c9 fb bd
       -0.09312518 -0.16477183 0.12924759 -0.122942545
0003e0 e2 d3 89 bd e1 fc 2c 3e 4c 45 33 be e5 b8 df bd
       -0.067298666 0.1689334 -0.17506903 -0.10923938
0003f0 96 d1 f5 3d 7e d0 47 3e be 00 98 3d 89 b2 e5 bd
       0.12002866 0.19513127 0.074220166 -0.112156935

conv2.bias f4 [32]
000000 9b 80 fc 3c cf ba 47 be 3e 89 dc bd 0d 25 a8 3d
       0.030823043 -0.19504856 -0.10768364 0.08210192
000010 be 50 16 3e a8 f7 c9 3d 75 9a 52 3e 29 72 a8 3d
       0.14679238 0.0986169 0.20566733 0.08224899
000020 bb d7 5f bd 0c 48 fb bd a1 bc 2e 3e 19 4b 71 3e
       -0.054649096 -0.12269601 0.17064144 0.23563804
000030 75 fb e2 3d 16 12 53 be 17 d7 90 bd 90 7e 1d 3e
       0.11083118 -0.20612368 -0.07072275 0.15380311
000040 8a ca 62 3e 86 29 e7 3d 29 98 56 be c5 5f f4 3c
       0.22147575 0.11287217 -0.20956482 0.029830823
000050 6e cd 3b bd 74 8f 8d bd 5b 3e 68 3d f6 9e 08 3e
       -0.04585021 -0.06912127 0.05670009 0.13341889
000060 51 09 d9 bd c7 62 c9 ba 16 59 33 3c 72 12 5b bc
       -0.1059748 -0.0015364521 0.010946533 -0.013371097
000070 57 05 19 be c4 f7 8b 3d bb 15 3c bd ad 2e ea 3d
       -0.14943443 0.06834367 -0.04591916 0.11434684

fc1.weight f4 [32, 960]
000000 88 e1 29 bc c3 3d 35 bc 0d ef a9 bc ae d0 82 3c
       -0.010368712 -0.011062088 -0.020743871 0.015968647
000010 8e be 87 3c 74 74 86 bc 6d 76 ed 3b 62 b0 ef bb
       0.016570356 -0.016412951 0.0072467835 -0.0073147276
000020 fc 24 aa bc 21 89 d2 3c 71 80 ed bb cd 05 21 bc
       -0.020769589 0.025700154 -0.0072479774 -0.009828043
000030 ed c9 fd 3c 9e a5 04 bd cf 9c dc bc ad 7a 19 3a
       0.030980075 -0.032384507 -0.02693024 0.0005854767
000040 0c bd 69 bc 5d 03 fd 3b d1 ee 83 3c e7 a5 9a bc
       -0.014266264 0.007721348 0.016105087 -0.018877937
000050 46 a8 66 3c 76 1e d0 bc 80 e5 d8 3b d2 da ff bc
       0.014078205 -0.02540515 0.0066191554 -0.031232271
000060 7f f1 e0 ba 52 b3 dd bc a8 59 b8 ba 37 a8 95 bc
       -0.0017161815 -0.027063046 -0.0014064806 -0.018268688
000070 06 d6 2f bc 49 29 05 bc d8 50 0b bd 3a ff bf bc
       -0.0107321795 -0.008127519 -0.034012645 -0.023437131
000080 8a bb e9 bc 2e ce 18 bd 61 ff f0 3c 93 f2 b5 3c
       -0.028531808 -0.037306003 0.02941865 0.022210395
000090 03 55 92 bb f8 96 4d bc 81 76 db 3a 23 f7 15 bd
       -0.0044657006 -0.012548201 0.0016743691 -0.03661264
0000a0 a2 41 0c bd dc d9 ea 3b f4 54 9b 3c 29 fe 3f bc
       -0.03424228 0.007167084 0.018961407 -0.011718311
0000b0 dd 79 1d 3c 89 f5 0d bd 16 61 de 3c cf b2 85 bb
       0.009611574 -0.03465799 0.027145904 -0.0040801535
0000c0 f7 2d 81 ba 80 7b 9d 3c 12 5e 08 bc bc ba c2 3c
       -0.0009855618 0.019223928 -0.008323209 0.023770683
0000d0 d4 61 68 bc ef b9 9b bc c2 68 49 bc fc cc c5 3c
       -0.01418348 -0.019009558 -0.012293043 0.024145596
0000e0 9e c6 f6 bc 98 4d 1b 3c 7d b8 e7 3b 0d e1 aa 3b
       -0.030124005 0.009478949 0.0070715533 0.0052148164
0000f0 f9 6b 24 bc 46 f2 a6 bc 52 8a 0a 3d 5f 5a b1 bb
       -0.010035508 -0.020379197 0.03382332 -0.0054123844
000100 b0 ad a1 bc 58 9b 9b 3b 2a 8c 69 3c ad 07 68 3a
       -0.019736141 0.004748743 0.014254609 0.00088512414
000110 55 d0 9b bb 6d d7 59 3a 57 a3 a8 3c 16 38 97 3c
       -0.0047550597 0.0008309994 0.020585699 0.018459361
000120 cf 3f 7a 3c 58 22 54 3c a1 03 03 3c 1d a7 d2 bc
       0.015274002 0.012947641 0.007996471 -0.025714451
000130 f4 75 13 3c 3f 44 5a bc eb 23 96 bc 15 87 ff bc
       0.00900029 -0.013321935 -0.018327674 -0.031192342
000140 3c af a7 3c e9 50 da bb 1a 7b 37 bb 0b c7 0c bd
       0.0204693 -0.0066624773 -0.0027996958 -0.03436951
000150 41 ae 91 3c 01 81 c4 bc be da 2c 3b 43 fc 54 3b
       0.017783286 -0.023987295 0.0026375498 0.0032498993
000160 df 0a 20 bc d8 fb 12 bd 68 1d 29 bb e6 3d 05 bd
       -0.009768217 -0.03588471 -0.002580488 -0.032529734
000170 e0 d9 e5 bc e3 8f ad bc 96 8c 2c 3b ac d7 85 bc
       -0.028057992 -0.021186775 0.0026328913 -0.016338192
000180 38 70 ba 3b 00 64 c0 bb fc 3e 73 bc dc c1 05 3b
       0.005689647 -0.005871296 -0.01484656 0.0020409739
000190 f0 d9 46 bb 0f b5 04 bd fc 58 b2 bc 00 8d bb bc
       -0.0030342303 -0.032399233 -0.021770947 -0.022894382
0001a0 42 73 17 bd 6e 75 15 bd 59 06 15 3c 7a d8 58 bc
       -0.036975153 -0.036488943 0.009095752 -0.013235206
0001b0 17 27 95 bc 37 1f 46 b9 7f 6f 7c 3c ff 4d c7 bc
       -0.018207116 -0.0001889438 0.015407442 -0.024329184
0001c0 95 71 92 bc 57 b1 8c bc b0 3f 1d bc b1 47 27 3c
       -0.017876426 -0.017174406 -0.009597704 0.010209964
0001d0 61 5c f0 bc cb 7a a5 bc 26 50 05 bd c1 17 b7 3c
       -0.029340925 -0.020200154 -0.03254714 0.022350194
0001e0 40 78 e2 bc 77 3d be bc 52 49 4f bc 36 22 f3 bc
       -0.02764523 -0.023222668 -0.012651758 -0.029679399
0001f0 47 f9 10 3c 29 21 c3 3c d7 b4 97 3b 63 48 97 3c
       0.008848495 0.023819523 0.004629712 0.018467134
000200 77 fa bb 3c b0 dd a0 3b 30 46 46 3c df 5b c1 3c
       0.02294658 0.0049092397 0.012101695 0.023603378
000210 3e e0 8e 3c e8 2c 25 3b 83 d2 7f bc 43 02 91 bc
       0.017440911 0.0025203768 -0.015614155 -0.017701274
000220 96 1a 1a bd 32 17 52 bc db 81 9b 3c 87 ba 80 3b
       -0.03762301 -0.012822913 0.018982818 0.003928486
000230 1a bd 96 3c ae f9 22 3b 47 98 a3 3c bf 23 50 bb
       0.018400718 0.002486806 0.019970072 -0.0031759588
000240 4d ac 19 3c b6 7b c3 bc 1b 4b e1 bb 5e 7d b8 bc
       0.009379459 -0.0238627 -0.0068754083 -0.022520717
000250 44 21 94 3c 8b df c2 3c 9e 5c 81 bc 38 ef 8e 3c
       0.018082269 0.023788234 -0.015791234 0.017448053
000260 fd 82 1c bc 57 7c ee bc 1c 39 32 bc 53 0e 67 bc
       -0.009552714 -0.029112024 -0.010877874 -0.014102536
000270 e8 2c 9f bc f4 b4 e3 bc 2f b1 8b bc d9 6d 0b 3c
       -0.019430593 -0.027796246 -0.017052261 0.008510076
000280 a9 0d c8 bc 33 5e 6f 3a 7b db d9 3b 2b 20 a8 3c
       -0.024420576 0.0009131163 0.0066484786 0.020523151
000290 71 d7 c1 bc 82 81 ba 3c 5a 96 02 3b 6a 8c e5 3b
       -0.0236623 0.022766832 0.0019926042 0.007005264
0002a0 17 cb ca bc 10 01 16 bc 3f 4e 22 bb 5e 77 03 bc
       -0.024755044 -0.009155527 -0.0024765877 -0.008024065
0002b0 67 ae ff bc c4 4a e1 3b e6 4a ba bc 0f 45 49 3c
       -0.031211091 0.006875368 -0.022740792 0.012284531
0002c0 c6 3f 5d bb 94 ee 95 bc ca f7 d3 3c ef bf 08 bd
       -0.0033759936 -0.01830224 0.025874991 -0.033386167
0002d0 f9 79 0a 3a 5e f7 8e 3c 4a c7 a1 bb 5e a3 0a bd
       0.00052824576 0.017451938 -0.004937087 -0.033847205
0002e0 8c b7 9d bc 05 92 54 bc e6 91 9c 3b 0b 89 d9 3b
       -0.019252561 -0.012974267 0.0047781346 0.0066386512
0002f0 d3 b1 0b bd b6 51 06 3c d4 3f b2 bb 5e db bb 3b
       -0.034105133 0.008198192 -0.005439738 0.0057329377
000300 8c d8 c8 bc 6b 46 8b 3b 4b 37 a6 3c bd 7d d7 3c
       -0.02451732 0.004250338 0.020290038 0.026305074
000310 f1 87 ba 3c 00 7b c2 bb f9 9a b5 bc d5 28 9d 3c
       0.0227699 -0.005935073 -0.022168623 0.01918451
000320 0e 06 3a bc e7 71 65 3c 69 de 02 bc eb d6 08 bd
       -0.011353983 0.014004207 -0.007987597 -0.033408087
000330 5e 91 67 bc 87 1a e4 bc 8f e5 c3 bc 5f a1 8c bc
       -0.014133779 -0.02784468 -0.023913173 -0.017166791
000340 41 92 bf bc a4 02 27 3c 38 06 d9 bc c1 75 9e bc
       -0.023385169 0.010193501 -0.026492223 -0.019343259
000350 f3 68 e1 bc 38 94 c6 3c 62 3b 0d bd af b5 de bc
       -0.027515864 0.024240598 -0.03448046 -0.027186243
000360 27 ee fe bc 0a 89 c6 3c 76 23 b7 3c 83 60 91 3c
       -0.03111942 0.024235267 0.022355776 0.017746216
000370 64 f3 a5 bb 81 ce 66 bc 48 3e 51 3c 08 e9 05 bb
       -0.005064415 -0.01408732 0.012771197 -0.0020433087
000380 38 24 ee bc 20 a9 36 3c 16 a0 53 3c 13 79 bc 39
       -0.029070005 0.011148721 0.012916585 0.00035948362
000390 f7 e7 d4 3c 0c 64 58 3b 0e 93 b0 bc f6 ce a1 3c
       0.025989516 0.0033018617 -0.021554496 0.019752007
0003a0 73 76 e4 bc 97 24 16 3c a2 34 2a 3c ad 51 13 3c
       -0.027888512 0.009163997 0.010388525 0.008991641
0003b0 55 dc d2 3c 80 08 c8 bc 8d e5 be b7 1e 39 d9 bb
       0.025739828 -0.024418116 -2.2756658e-05 -0.0066291234
0003c0 b8 48 a7 bc b7 16 16 3c 59 c0 61 3c 9b cf 7c 3b
       -0.020420417 0.009160689 0.013778769 0.003857589
0003d0 f9 c4 d2 bc 38 6a d2 bc 7e 7c b1 3c e2 cd 9f 3b
       -0.02572869 -0.025685415 0.021665808 0.004876838
0003e0 8b 17 ca bc b3 22 b9 3c 05 fe 18 bd 9a 06 07 3c
       -0.02466943 0.022599554 -0.037351627 0.00824132
0003f0 8c 03 fd 3a d0 4c 12 bc a5 b1 03 bd b8 97 c1 bc
       0.0019303425 -0.008929446 -0.032151837 -0.023631915

fc1.bias f4 [32]
000000 28 bd 32 bc cd a2 c4 39 e1 da 20 3c 51 f6 0a bc
       -0.010909356 0.0003750533 0.00981781 -0.008481578
000010 2a ee 74 3c 7b 36 23 3c 82 83 af 3b 71 bc a6 3c
       0.014949361 0.00996172 0.005356253 0.020353528
000020 5f d4 ee bc d1 73 dc bb 73 af e4 3b 80 8e 6c 3b
       -0.029154 -0.0067276736 0.006978923 0.0036095679
000030 61 0c de bc 01 b2 0c bd bf 35 af 3c 1c d8 ce bc
       -0.027105512 -0.034349445 0.021387933 -0.025249533
000040 31 38 f3 bc e9 c0 48 3c 74 bd d7 3c 82 9a bc 3c
       -0.02968988 0.012253025 0.026335455 0.023022894
000050 13 dc 8c 3c 81 cc 10 3c a9 af ef bc d5 86 89 bb
       0.017194783 0.00883782 -0.029258566 -0.0041969814
000060 ae b1 1c 3c eb 4d 84 3c 93 4f b4 bc 1f 41 ed bc
       0.0095638465 0.016150435 -0.0220106 -0.028961716
000070 5a 59 fa bc e5 60 c0 3c f1 5f 6a 3c 88 b6 f0 3c
       -0.030560184 0.023483703 0.014305101 0.029383913

fc2.weight f4 [1, 32]
000000 c1 b7 1d 3b 7c d1 1a be b3 2a 2e be f2 cd db 3d
       0.0024065825 -0.15118974 -0.17008476 0.1073264
000010 b8 6f 9d bd cc 10 ce 3d bc 98 a6 3d f5 0e 32 3e
       -0.07687324 0.100617975 0.081346005 0.17388518
000020 c7 21 93 bd 0a 9e 17 be 18 56 e0 bd 05 a1 7b 3d
       -0.07184177 -0.14806381 -0.10953921 0.061432857
000030 6a 3d 75 ba 05 2e 89 3d 9a 23 a4 bd 32 04 2f 3e
       -0.000935516 0.06698231 -0.08014603 0.17091444
000040 d1 70 c8 3d cc 2a 41 3d 09 8e d5 bd 18 a9 cc bd
       0.09787143 0.047159955 -0.10427482 -0.099931896
000050 54 e8 ab bc 2a 58 41 3e a0 a0 2e 3e ee 68 0b 3e
       -0.020984806 0.18881288 0.17053461 0.13614246
000060 a8 9e ef 3d 81 09 a6 bd b8 07 27 3e bc 57 56 bd
       0.11700183 -0.081072815 0.16311538 -0.052329764
000070 8e 66 a4 3c c4 1f 1e 3e 6d 26 20 bc c8 f6 9f 3d
       0.020068433 0.15441805 -0.009774786 0.07810742
