models/LSTMs/lstm0.pth (torch, 128808 bytes, 7 tensors)

conv1.weight f4 [16, 12, 1]
-0.05688239 0.13166891 -0.02976281 0.20129004 -0.16271746 -0.11766279 0.33526757 -0.1390325
-0.09948316 -0.0903134 -0.21612099 0.032910537 0.15589584 0.1797781 0.20648713 0.2922601
-0.02677971 -0.07525004 0.1986328 0.2144911 0.11486871 0.12535454 -0.19505359 0.2131388
-0.111915424 0.29295468 0.2559724 -0.2430235 0.1506527 -0.07689839 0.14525488 0.18651403
-0.007840193 -0.17067084 -0.0114360135 0.010783733 0.06472312 0.28766534 -0.04436025 -0.0796021
-0.018745739 0.27063057 -0.27233785 0.17867175 0.33868706 0.16124357 0.2178264 0.2899824
0.115535006 -0.17211203 -0.26051545 -0.327035 0.16389973 -0.061609514 -0.2393246 0.09518377
-0.0039037503 -0.18974529 -0.21833597 0.24469888 -0.19331115 0.0014710901 -0.037437934 0.3085837
-0.2450608 0.23071353 0.20193313 -0.17552477 0.24209535 -0.16700694 -0.31639445 -0.15769388
-0.12213274 -0.10549816 0.22841896 -0.1478117 -0.21370292 0.25337052 -0.0851533 -0.22305727
-0.027322697 0.32450625 -0.039718162 -0.22732729 -0.21633689 -0.23573785 -0.34115613 0.16392995
0.26593402 -0.019608911 0.18633544 0.0015189564 -0.31359935 -0.06401334 -0.26965982 -0.038757354
0.28824556 0.09364728 -0.21372744 0.09713384 0.23047705 0.18446665 0.20404568 -0.065067045
-0.19502318 -0.14328282 0.09662938 0.052299056 0.30581686 0.23856555 -0.16253197 -0.2032009
-0.0773284 0.18972611 0.10615898 0.05336258 0.11422382 0.1147757 0.14129229 0.18116473
-0.09490746 0.018129839 -0.026779586 -0.11961664 0.20216507 0.19384333 0.21729104 0.27586505
0.17437555 0.014592288 0.05490434 0.04240582 -0.096296094 0.0036289373 0.20181802 -0.2837139
-0.08284592 -0.2853572 -0.32360667 -0.20433201 -0.19983011 0.014990372 -0.16162172 -0.15499534
-0.0819391 -0.18666121 0.18823896 -0.13374138 0.055852503 0.19274223 0.17767942 0.12375102
-0.048130646 0.19889845 0.048274267 0.026423886 0.07231684 0.2392175 0.24170949 0.024268476
0.22120894 0.12216175 0.014318777 -0.306508 0.18497533 0.1886682 -0.24506108 0.09113105
0.0318006 -0.31866643 -0.3843785 0.14053735 0.15750168 -0.07391662 0.14917403 -0.14471628
0.19824794 0.09817171 -0.023788784 -0.21757378 0.21754703 0.15119135 0.18856026 -0.006302149
-0.16091274 -0.032962717 -0.35081244 -0.109674856 -0.2757424 0.18331328 -0.079651326 -0.10794232
00000000: 82fd 68bd 37d4 063e 23d1 f3bc fa1e 4e3e
00000010: 689f 26be 30f9 f0bd 31a8 ab3e 895e 0ebe
00000020: d4bd cbbd 3bf6 b8bd d24e 5dbe 33cd 063d
00000030: 29a3 1f3e c017 383e 5d71 533e 1ea3 953e
00000040: 1f61 dbbc b11c 9abd 6666 4b3e 8ea3 5b3e
00000050: 4940 eb3d f15c 003e 21bc 47be 0f41 5a3e
00000060: ea33 e5bd 28fe 953e d00e 833e 27db 78be
00000070: b444 1a3e e77c 9dbd b2bd 143e 89fd 3e3e
00000080: 2774 00bc 56c4 2ebe 1e5e 3bbc 41ae 303c
00000090: 8e8d 843d df48 933e 18b3 35bd 6d06 a3bd
000000a0: aa90 99bc 1790 8a3e de6f 8bbe baf5 363e
000000b0: 6468 ad3e 091d 253e e20d 5f3e 9378 943e
000000c0: 9e9d ec3d 233e 30be 4862 85be 2271 a7be
000000d0: 55d5 273e 425a 7cbd 8211 75be b5ef c23d
000000e0: 10d6 7fbb 974c 42be 7793 5fbe 5892 7a3e
000000f0: 5cf3 45be 98d1 c03a 8558 19bd affe 9d3e
00000100: 38f1 7abe 2b40 6c3e 8fc7 4e3e c4bc 33be
00000110: d8e7 773e de03 2bbe 74fe a1be 817a 21be
00000120: bb20 fabd 6b0f d8bd a9e6 693e f35b 17be
00000130: f0d4 5abe c8b9 813e da64 aebd 2069 64be
00000140: d9d3 dfbc af25 a63e 83af 22bd 7cc8 68be
00000150: 6b87 5dbe 4365 71be 04ac aebe 41dd 273e
00000160: 8128 883e dea2 a0bc b8ce 3e3e b817 c73a
00000170: 1890 a0be 6d19 83bd da10 8abe 08c0 1ebd
00000180: ec94 933e 25ca bf3d 5edb 5abe 1bee c63d
00000190: 2d02 6c3e d3e4 3c3e 5af1 503e df41 85bd
000001a0: 28b4 47be bbb8 12be a0e5 c53d 8937 563d
000001b0: 0794 9c3e 874a 743e c86e 26be e613 50be
000001c0: 5a5e 9ebd 9047 423e e169 d93d b892 5a3d
000001d0: 2eee e93d 860f eb3d edae 103e 3f83 393e
000001e0: d85e c2bd 0785 943c dd60 dbbc 92f9 f4bd
000001f0: 5c04 4f3e de7e 463e 8b81 5e3e 2f3e 8d3e
00000200: 818f 323e 7e14 6f3c 60e3 603d bab1 2d3d
00000210: e336 c5bd 77d3 6d3b 62a9 4e3e f342 91be
00000220: 1fab a9bd 571a 92be c6af a5be 693c 51be
00000230: 44a0 4cbe 2d9a 753c 2a80 25be 19b7 1ebe
00000240: b0cf a7bd 1e24 3fbe b7c1 403e 80f3 08be
00000250: 98c5 643d 385e 453e 98f1 353e 2d71 fd3d
00000260: a424 45bd 09ac 4b3e 3dbb 453d e876 d83c
00000270: da1a 943d 6ff5 743e b182 773e afce c63c
00000280: 9984 623e f12f fa3d 4e99 6a3c 9eee 9cbe
00000290: 2c6a 3d3e 3d32 413e 4bf1 7abe eaa2 ba3d
000002a0: 5941 023d 3f28 a3be 42cd c4be 06e9 0f3e
000002b0: 1f48 213e 9961 97bd 14c1 183e 8130 14be
000002c0: 8201 4b3e 400e c93d b2e0 c2bc a9cb 5ebe
000002d0: a6c4 5e3e e8d1 1a3e f115 413e 4282 cebb
000002e0: 4fc6 24be ea03 07bd b09d b3be 369d e0bd
000002f0: 1c2e 8dbe 7ab6 3b3e 3c20 a3bd dd10 ddbd

conv1.bias f4 [16]
-0.15246455 0.13150966 -0.011759918 -0.22111917 -0.19262275 -0.04333242 -0.0058750953 0.0946591
-0.13837881 -0.26121786 0.2507402 -0.14831062 -0.25980425 -0.12111644 0.1664586 -0.12100176
00000000: ab1f 1cbe 78aa 063e acac 40bc 106d 62be
00000010: e63e 45be 567d 31bd df83 c0bb a1dc c13d
00000020: 2db3 0dbe 59be 85be 0561 803e bdde 17be
00000030: 1005 85be e50b f8bd 2074 2a3e c5cf f7bd

conv2.weight f4 [32, 16, 1]
-0.23827626 0.0313396 0.1273712 -0.103350684 -0.11507575 0.06147371 0.0069380887 -0.0020740947
0.012816085 0.10951546 -0.138371 -0.16837066 -0.17891288 0.17081924 0.11979242 -0.09850391
0.16569263 -0.23205434 -0.22908832 0.18548147 -0.07218592 0.17540823 0.22836016 0.019010324
0.23036712 0.0031361878 -0.1986868 -0.123342 0.24421805 0.16356172 -0.053488426 0.06841851
-0.21183223 -0.10880429 -0.18600306 -0.13662201 0.21987824 0.15754455 -0.11220137 0.23238593
0.110548384 0.121131696 -0.17073105 0.16605374 -0.22428584 0.24140677 -0.21111622 -0.09997946
-0.04317089 0.0038662478 0.26896924 -0.19391535 -0.18668763 -0.20370778 -0.14515206 -0.17447682
0.08653624 -0.13925208 -0.16161771 0.30702174 -0.22494042 0.16134311 0.14998099 -0.19442156
-0.052829843 0.19925778 0.2523736 -0.082294695 -0.08359338 0.16327095 0.09314421 0.18785688
0.19374415 -0.25376856 0.11728808 0.023058971 -0.17786893 -0.064806394 0.01283544 -0.17397451
-0.23148546 -0.14175597 0.023507323 -0.15695153 0.015537372 -0.15009604 0.052138332 0.049509898
-0.11001531 -0.18429609 -0.037867803 0.03337518 -0.2174003 0.13142161 0.2450961 0.013737653
0.10606708 -0.083093375 0.07011853 0.018111695 0.13252825 0.14168398 0.10826917 -0.2572457
0.17827475 0.20448898 0.11970183 -0.19721863 -0.165411 0.15199547 0.22467294 -0.1990899
0.21349365 0.103055574 0.22602001 -0.2118984 0.084069036 0.15418684 0.019918412 0.19155295
0.089190654 -0.021650475 0.053820346 0.15764013 -0.016565979 0.19821568 -0.23485789 -0.20907408
0.29435012 0.122127645 0.021596784 0.105197765 0.08225232 0.17584193 0.19800983 -0.014239134
-0.17893863 -0.090837926 0.25288013 0.033606786 -0.018532133 -0.16956604 -0.22804621 -0.20066729
0.18444745 0.21029447 0.26790822 0.16498858 0.032389898 -0.17432803 -0.097749695 -0.1313935
0.12510687 -0.2056275 0.20971629 -0.14872015 0.15169296 0.11738874 0.20143172 0.0268951
0.21502033 0.117821746 0.14886512 0.071675114 -0.068548515 0.14017357 0.03570442 -0.08341385
-0.16180956 -0.26257724 0.07077996 0.04450641 -0.14849316 -0.014798875 0.00073453924 0.04187233
-0.12072661 0.2503617 -0.07321128 -0.05824865 0.16838683 -0.15151078 -0.13822064 -0.24380825
0.031642187 -0.07043896 0.16888617 0.05757424 0.16098271 -0.031596344 0.13631938 -0.15569916
-0.17529257 0.0145572 0.24096712 0.17459022 -0.09065646 0.05236662 0.14734258 -0.083022974
-0.15166457 -0.017564023 -0.21440835 -0.11556749 -0.13444424 0.1955863 0.02799015 -0.13396458
0.060188793 0.07582008 -0.13068584 -0.008228212 0.21321695 -0.0735302 0.19465828 -0.014788353
0.19372764 0.26412687 -0.18823218 0.14937226 -0.19706723 -0.20887643 0.1386451 -0.18669125
0.08401064 -0.2295802 0.13202031 -0.0657286 -0.22680469 0.15564059 -0.125214 -0.15364958
0.05724931 -0.1791673 -0.24058847 0.25997946 0.1770417 -0.025789766 0.08490431 -0.15319127
-0.14655302 0.24696687 0.25520143 -0.24915037 -0.021382183 -0.04055663 0.080578215 -0.070072055
0.16399437 0.029345982 0.23254448 -0.0873835 -0.06674362 0.2360964 -0.11745261 -0.121841006
00000000: b1fe 73be f45d 003d 996d 023e 86a9 d3bd
00000010: d6ac ebbd dbcb 7b3d e858 e33b 89ed 07bb
00000020: 8efa 513c a449 e03d 21b1 0dbe 5c69 2cbe
00000030: f034 37be 3deb 2e3e ba55 f53d 6bbc c9bd
00000040: 54ab 293e a79f 6dbe 2196 6abe dbee 3d3e
00000050: 36d6 93bd 379e 333e 3fd7 693e 8abb 9b3c
00000060: 5ce5 6b3e 8088 4d3b 8d74 4bbe bb9a fcbd
00000070: 4c14 7a3e b97c 273e ae16 5bbd 011f 8c3d
00000080: 8cea 58be c9d4 debd 9677 3ebe a4e6 0bbe
00000090: c327 613e 5c53 213e d5c9 e5bd 94f6 6d3e
000000a0: 3167 e23d e513 f83d 1fd4 2ebe fe09 2a3e
000000b0: 30ab 65be 5633 773e da2e 58be 08c2 ccbd
000000c0: f6d3 30bd e060 7d3b 56b6 893e bf91 46be
000000d0: 0b2b 3fbe c698 50be bea2 14be 0daa 32be
000000e0: ea39 b13d 1998 0ebe 1d7f 25be f431 9d3e
000000f0: c856 66be 2137 253e 9e94 193e 7216 47be
00000100: 1b64 58bd 3b0a 4c3e 1d37 813e 1f8a a8bd
00000110: 0233 abbd 8030 273e 64c2 be3d 8e5d 403e
00000120: de64 463e f4ed 81be bc34 f03d 2be6 bc3c
00000130: 4623 36be 37b9 84bd bd4b 523c 6026 32be
00000140: 860a 6dbe 7a28 11be 6e92 c03c e7b7 20be
00000150: 7690 7e3c c7b2 19be 018f 553d e4ca 4a3d
00000160: b54f e1bd 1db8 3cbe 451b 1bbd 6ab4 083d
00000170: 2f9e 5ebe 6393 063e 79fa 7a3e e513 613c
00000180: b239 d93d dc2c aabd 4e9a 8f3d fa5e 943c
00000190: 7cb5 073e 9b15 113e 3abc dd3d b5b5 83be
000001a0: a88d 363e 8f65 513e 3c26 f53d aef3 49be
000001b0: 8061 29be b3a4 1b3e aa10 663e 39de 4bbe
000001c0: 149e 5a3e cd0e d33d ca71 673e e5fb 58be
000001d0: 632c ac3d 28e3 1d3e f02b a33c 7526 443e
000001e0: 97a9 b63d 565c b1bc b972 5c3d 6a6c 213e
000001f0: 60b5 87bc 0df9 4a3e 967e 70be 8417 56be
00000200: 0fb5 963e 0f1e fa3d bdeb b03c ed71 d73d
00000210: e873 a83d e80f 343e 17c3 4a3e 424b 69bc
00000220: b03b 37be 3c09 babd 8179 813e 45a7 093d
00000230: b3d0 97bc b8a2 2dbe f284 69be ba7b 4dbe
00000240: cbdf 3c3e 6f57 573e 442b 893e c4f2 283e
00000250: 45ab 043d 0c83 32be fe30 c8bd 058c 06be
00000260: 041c 003e 0490 52be debf 563e 184a 18be
00000270: 6655 1b3e 8269 f03d 1e44 4e3e 1d53 dc3c
00000280: 4a2e 5c3e 874c f13d 1970 183e 67ca 923d
00000290: 2a63 8cbd a989 0f3e cc3e 123d e1d4 aabd
000002a0: 68b1 25be 8670 86be 15f5 903d 5a4c 363d
000002b0: 970e 18be fb76 72bc 188e 403a 5282 2b3d
000002c0: 833f f7bd 692f 803e ccef 95bd 2396 6ebd
000002d0: 996d 2c3e a425 1bbe b689 0dbe dfa8 79be
000002e0: 3d9b 013d 4d42 90bd 7ff0 2c3e f7d2 6b3d
000002f0: a7d8 243e 2b6b 01bd 4f97 0b3e 9a6f 1fbe
00000300: e57f 33be 5281 6e3c 16c0 763e c7c7 323e
00000310: 18aa b9bd 627e 563d f9e0 163e f307 aabd
00000320: f54d 1bbe 6de2 8fbc dd8d 5bbe a6ae ecbd
00000330: c0ab 09be c647 483e 994b e53c 032e 09be
00000340: 8688 763d 8f47 9b3d 82d2 05be 9fcf 06bc
00000350: 8b55 5a3e 0097 96bd 8054 473e d94a 72bc
00000360: 8a60 463e a33b 873e f0bf 40be 0bf5 183e
00000370: fecb 49be b4e3 55be fbf8 0d3e fe2b 3fbe
00000380: c50d ac3d 1217 6bbe 5530 073e b79c 86bd
00000390: 7d3f 68be 3f60 1f3e 1938 00be 5156 1dbe
000003a0: 417e 6a3d a277 37be d35c 76be 071c 853e
000003b0: 6b4a 353e 0f45 d3bc 50e2 ad3d 2cde 1cbe
000003c0: ff11 16be e2e4 7c3e c3a9 823e 4621 7fbe
000003d0: b029 afbc b51e 26bd 3106 a53d f081 8fbd
000003e0: 24ee 273e fc66 f03c 2420 6e3e 1ff6 b2bd
000003f0: e1b0 88bd 41c3 713e fe8a f0bd c787 f9bd

conv2.bias f4 [32]
-0.042497206 0.13013077 0.1083143 -0.05046076 0.0031971661 0.17356594 -0.08079424 -0.08213248
-0.055419836 -0.0025487985 0.10784111 0.034126587 -0.03152726 0.037577216 0.26135385 -0.16466363
-0.20306347 0.07050854 0.052475147 -0.16897571 -0.15213917 -0.037483 -0.11163166 -0.09191549
-0.15509582 -0.060190413 0.029919814 0.04498866 0.020967353 0.0055867853 0.25200248 -0.09779634
00000000: 8d11 2ebd 0041 053e e3d3 dd3d f1af 4ebd
00000010: 8c87 513b 45bb 313e 7377 a5bd 1335 a8bd
00000020: e9ff 62bd be09 27bb cddb dc3d 52c8 0b3d
00000030: ba22 01bd 91ea 193d 2cd0 853e 959d 28be
00000040: dfef 4fbe c866 903d 2ef0 563d f807 2dbe
00000050: 5fca 1bbe c687 19bd 249f e4bd 303e bcbd
00000060: 70d1 1ebe 398a 76bd 661a f53c 0746 383d
00000070: bac3 ab3c 5a11 b73b 7806 813e 7349 c8bd

fc1.weight f4 [32, 960]
0.034306828 -0.0242342 0.04369338 0.04566086 0.018021189 0.046352606 0.022581529 0.0021888358
0.012111017 0.0015115244 -0.017236821 0.026132742 -0.008112989 0.012294718 0.025934277 0.05371458
-0.00097278407 0.025016624 -0.0052223513 -0.031209134 -0.020688284 -0.012825224 0.0027602587 0.012896322
0.009337318 0.03283408 0.018485893 -0.0046259435 0.0047378936 -0.022842469 0.020508416 0.03902259
-0.014994872 0.027100863 0.009862904 0.021296237 -0.014879933 0.018708993 0.030170755 0.041911263
-0.0026317816 0.0047719353 0.032267075 -0.015063059 0.026070371 0.031970594 0.019605499 -0.0047579235
0.033350114 0.0070532137 0.030315936 0.001633483 0.015056147 -0.008134815 0.04164428 0.0012501141
0.05425965 0.01773557 0.038620193 0.075148255 0.03313675 0.00375222 0.037220772 0.052534707
0.021336982 0.03177602 0.025596501 0.037956715 0.046103142 0.045465406 0.023155235 0.022904273
0.046712276 0.008230839 -0.019986311 -0.0058527533 -0.018498559 0.0068505784 0.014153957 0.030583674
0.056827243 0.008054716 0.030162796 0.08078507 0.020315958 0.031037156 0.03197667 0.05680324
0.0020975177 0.001496369 0.012460937 0.0029970007 0.001632378 0.011147104 -0.011588931 -0.03172276
-0.015523308 0.019636104 0.027822271 0.0190326 0.017748745 0.025738679 -0.087573595 0.015181906
0.0034337307 0.0066246637 0.031292196 0.05403889 0.05162372 0.022490775 -0.0038763052 -0.025604723
-0.017107502 -0.031891968 0.050052162 0.04989811 0.012812536 0.012782727 0.032186277 0.002453737
-0.05989061 -0.07939108 -0.039886095 0.00021455932 -0.02284448 -0.0020304476 -0.006832525 0.007533884
-0.038892813 0.02807815 -0.017357955 0.02509777 -0.010394611 -0.021316044 -0.04619766 -0.018425483
-0.0041977842 0.006772739 -0.009903034 0.0045270505 -0.011971244 -0.05302232 -0.020955998 -0.0153893065
-0.032728057 -0.00026125094 -0.035039775 -0.04954061 -0.0137978 -0.040646188 0.0054360083 0.019010918
-0.01256407 0.041521616 0.03792679 0.018839512 0.002375193 0.032251235 -0.027805839 0.032838333
0.010994541 -0.021478664 -0.00969184 0.0012081485 -0.0023242435 0.052520905 -0.002847424 -0.013589591
-0.024221996 0.024394602 0.030579755 0.00041013377 0.022652853 0.042784564 0.016663525 0.049618654
0.023010178 0.07154528 0.042115998 0.060645957 -0.06100988 -0.059741344 -0.005274196 -0.014181384
-0.01101697 -0.020046685 0.014899509 0.025570465 0.07821961 0.01085157 0.0075906124 0.021823023
0.026581515 0.043938156 0.026482463 0.010331875 0.024540706 -0.0050084507 -0.039246075 0.0126104485
0.019712307 0.007969082 0.040277667 0.017056974 0.046352908 0.029483056 0.069173306 0.06879727
0.054234564 0.07713681 -0.034251124 -0.06921412 -0.022756606 -0.0077960817 -0.055375062 0.0033572388
0.004757248 -0.023520695 -0.010965148 0.03133321 0.028859515 0.016419204 0.02074432 -0.03147788
-0.015003377 -0.04271933 -0.038607296 0.01719547 0.04601284 0.028588507 0.040037487 -0.028396787
-0.018878872 0.042419232 0.011141846 0.03034965 -0.004475974 -0.021143073 -0.016407816 -0.0059906524
-0.089528285 -0.07370638 -0.06710722 -0.006266077 -0.08316453 -0.013194864 0.029975645 -0.035509963
-0.07025481 -0.033688124 0.015382462 -0.005129795 -0.0030776742 -0.043008775 -0.04669196 -0.048705958
00000000: 5185 0c3d cd86 c6bc d4f7 323d e206 3b3d
00000010: 2ca1 933c 3bdc 3d3d e6fc b83c 9272 0f3b
00000020: 496d 463c 581e c63a 3c34 8dbc 5514 d63c
00000030: 58ec 04bc c96f 493c 1f74 d43c d203 5c3d
00000040: 6f02 7fba aaef cc3c 4220 abbb 4caa ffbc
00000050: 7a7a a9bc e320 52bc 75e5 343b 184b 533c
00000060: 8dfb 183c 077d 063d ba6f 973c 3a95 97bb
00000070: 5540 9b3b 2120 bbbc 4401 a83c 27d6 1f3d
00000080: 0dad 75bc a102 de3c 0598 213c 7275 ae3c
00000090: f6ca 73bc 9a43 993c a928 f73c 25ab 2b3d
000000a0: f879 2cbb e55d 9c3b 7b2a 043d 0ccb 76bc
000000b0: 8891 d53c 99f3 023d b69b a03c 5be8 9bbb
000000c0: 219a 083d a51e e73b 2059 f83c 981a d63a
000000d0: 0fae 763c e347 05bc 3193 2a3d deda a33a
000000e0: 5e3f 5e3d 304a 913c 3530 1e3d 54e7 993d
000000f0: 67ba 073d cee7 753b cf74 183d a22e 573d
00000100: e5ca ae3c 9227 023d c1af d13c 8078 1b3d
00000110: a6d6 3c3d ef39 3a3d 0cb0 bd3c bea1 bb3c
00000120: 5f55 3f3d a4da 063c 55ba a3bc 74c8 bfbb
00000130: 4a8a 97bc d17a e03b 00e6 673c 9d8a fa3c
00000140: afc3 683d edf7 033c f817 f73c a572 a53d
00000150: a76d a63c a241 fe3c f8f9 023d 84aa 683d
00000160: 8276 093b d021 c43a f528 4c3c 5469 443b
00000170: 84f5 d53a 58a2 363c 80df 3dbc baef 01bd
00000180: 7955 7ebc e5db a03c 88eb e33c 41ea 9b3c
00000190: d165 913c ecd9 d23c c959 b3bd 87bd 783c
000001a0: 7108 613b b513 d93b 3f2c 003d e257 5d3d
000001b0: 6573 533d 933e b83c 9c09 7ebb ffc0 d1bc
000001c0: 0825 8cbc 27a1 02bd 7f03 4d3d f661 4c3d
000001d0: aceb 513c a56e 513c c2d5 033d e0ce 203b
000001e0: db4f 75bd ca97 a2bd 9a5f 23bd 54fb 6039
000001f0: 5924 bbbc 4211 05bb 60e3 dfbb cdde f63b
00000200: 124e 1fbd 2604 e63c 4532 8ebc d799 cd3c
00000210: 294e 2abc fc9e aebc c239 3dbd 0af1 96bc
00000220: 918d 89bb daed dd3b 5640 22bc a757 943b
00000230: 0923 44bc ef2d 59bd eaab abbc 6e23 7cbc
00000240: db0d 06bd 82f8 88b9 de85 0fbd 18eb 4abd
00000250: 2b10 62bc 9e7c 26bd 8b20 b23b c9bc 9b3c
00000260: 87d9 4dbc 9212 2a3d 1f59 1b3d 5255 9a3c
00000270: 20a9 1b3b df19 043d 12c9 e3bc 7d81 063d
00000280: 7322 343c 06f4 afbc 86ca 1ebc bd5a 9e3a
00000290: 5652 18bb 2920 573d d99b 3abb e0a6 5ebc
000002a0: 356d c6bc 30d7 c73c 6582 fa3c 3907 d739
000002b0: 7a92 b93c de3e 2f3d f281 883c ee3c 4b3d
000002c0: d77f bc3c 5586 923d d381 2c3d e567 783d
000002d0: 7fe5 79bd 57b3 74bd 2ad3 acbb 0959 68bc
000002e0: 8580 34bc f238 a4bc 121d 743c 2779 d13c
000002f0: 9a31 a03d c9ca 313c acba f83b 32c6 b23c
00000300: 7ac1 d93c 7ff8 333d c0f1 d83c 0647 293c
00000310: 9709 c93c ee1d a4bb 7ec0 20bd 0e9c 4e3c
00000320: b47b a13c c190 023c 32fa 243d 11bb 8b3c
00000330: 8cdc 3d3d 7386 f13c bcaa 8d3d 95e5 8c3d
00000340: 1025 5e3d e7f9 9d3d e84a 0cbd 22c0 8dbd
00000350: 106c babc 4676 ffbb f6d0 62bd 1f05 5c3b
00000360: b0e2 9b3b 79ae c0bc 2aa7 33bc 4157 003d
00000370: ca6a ec3c 9181 863c feef a93c f3ee 00bd
00000380: b9d0 75bc 77fa 2ebd af22 1ebd 84dd 8c3c
00000390: f677 3c3d 7232 ea3c 59fe 233d 61a0 e8bc
000003a0: dda7 9abc cabf 2d3d 4a8c 363c d49f f83c
000003b0: 31ab 92bb 3d34 adbc af69 86bc 3c4d c4bb
000003c0: 9b5a b7bd 5ff3 96bd 836f 89bd aa53 cdbb
000003d0: 2a52 aabd 452f 58bc 7c8f f53c e572 11bd
000003e0: c1e1 8fbd 8ffc 09bd b906 7c3c d717 a8bb
000003f0: ceb2 49bb f829 30bd 1240 3fbd e67f 47bd

fc1.bias f4 [32]
0.037629515 0.0075513194 -0.036057767 0.024080569 -0.005687302 0.01717015 -0.030200507 0.0100198025
0.018768584 0.006220762 -0.010768318 0.006307904 0.016071215 0.0011443503 0.0071234475 4.043954e-05
-0.02636084 -0.004563604 0.043335676 -0.02926739 -0.036912702 -0.03360297 -0.017936185 0.05773697
0.0032255293 0.011500508 0.022170484 0.026026402 0.0075453296 0.045603167 0.018809278 -0.014542526
00000000: 6821 1a3d 0f71 f73b 4fb1 13bd 9d44 c53c
00000010: 8c5c babb 6aa8 8c3c 0e67 f7bc 192a 243c
00000020: 93c0 993c 89d7 cb3b 996d 30bc 89b2 ce3b
00000030: c8a7 833c 06fe 953a cf6b e93b a09d 2938
00000040: b0f2 d7bc 498a 95bb c080 313d 2ac2 efbc
00000050: c631 17bd 45a3 09bd e8ee 92bc 9a7d 6c3d
00000060: 6763 533b a06c 3c3c e09e b53c 5235 d53c
00000070: d03e f73b 63ca 3a3d ea15 9a3c c643 6ebc

fc2.weight f4 [1, 32]
0.075979285 -0.056396518 -0.13210043 0.119057104 -0.014140469 0.17185661 -0.07535286 0.1294884
0.16868046 -0.011564637 0.0026216528 -0.010388495 0.16345838 -0.1402282 0.026239831 0.095609926
0.04774009 -0.017580291 0.13244405 0.07108204 0.14711362 -0.17008352 -0.112069584 -0.07704873
-0.07765297 0.052790757 -0.103569016 -0.0862891 0.064665884 -0.17354022 -0.1253405 -0.032056287
00000000: 079b 9b3d 0900 67bd 5645 07be 36d4 f33d
00000010: 6dad 67bc 2efb 2f3e 9a52 9abd 9b98 043e
00000020: 92ba 2c3e 9a79 3dbc 09d0 2b3b 8234 2abc
00000030: a261 273e fb97 0fbe eaf4 d63c 23cf c33d
00000040: 1d8b 433d 8b04 90bc 6a9f 073e 7693 913d
00000050: f4a4 163e 602a 2ebe bd84 e5bd b9cb 9dbd
00000060: 8508 9fbd 1f3b 583d fe1b d4bd 57b8 b0bd
00000070: 8c6f 843d 87b4 31be 4359 00be 744d 03bd
